mete_aerial_gym_simulator/rl_training/cleanrl/runs/quad_with_obstacles__ppo_continuous_action__1__1689254076/latest_model.pth (torch, 564158 bytes, 12 tensors)

actor_logstd f4 [1, 4]
00000000: 59db c1bd c709 9b3c 4f51 e33d 193d 283d
-0.09465665 0.01892556 0.11099493 0.041073892

critic.0.weight f4 [256, 13]
00000000: 192b 9fbd 386f 33bc 73a3 d0bd 4bbc dd3c
00000010: 02c9 36be 6f1b 9cbd b301 c6bd d3fc 19be
00000020: c294 f23c f3e8 93bc 77cf 97bd 2aa3 8ebd
00000030: 2136 063e 8e73 0d3d d960 dc3c da6a a43d
00000040: 2afb c83d 259c ec3c d196 43bd 26df a9bd
00000050: d676 9e3d c08c 6e3c 5fca 003c b42a e3bd
00000060: 20a1 0f3c 05d7 503d acce b13d 6fd4 28be
00000070: c2ad 873c ce30 9abd b010 4e3d 2949 01be
00000080: 51cf b23d 08d5 c93c 764d 34be 0fdf 11bd
00000090: 199b 88bc f712 f93c 96c5 953c ba99 fe3c
000000a0: 898a 053e 383c f23c 4c89 c03c 5d3a c9bc
000000b0: 8016 06be 7e7d 0dbe d96a 63bc e4a0 153e
000000c0: 9932 1eba e51c 883c 390b 8c3d ff1c 0cbc
000000d0: c03e 66bd ac35 413e c861 dab9 ad8f edbd
000000e0: 28c1 613e 9bca ca3d 05ef eebd 283a 1fbd
000000f0: b3ef 373c f670 dc3d 4b33 23bd 4b10 733c
00000100: 728d a5bd 3e8d 123d 7fd5 283e 6527 a43b
00000110: 9783 073c 22e0 e03d 056e 86bb b3bb 4cbe
00000120: 4069 473d e502 4ebe cbb3 893b b80a 45bc
00000130: 0dd6 343d 5757 6ebd 7926 e43d f977 8bbd
00000140: 05e3 2f3d fe5e f33d c72a 0b3c add1 37be
00000150: 6d6e 91bd a756 6f3d 054f 5cbb 2303 053e
00000160: 7ab3 41bc 9267 db3c 69b1 353d 50ec 583d
00000170: ff37 7e3d ee1c 2a3d d5b6 9e3d afde 1bbc
00000180: 9caf 04bc 23f2 f0bd 3f8c 7ebd b26f a93c
00000190: 466c 10bb a740 373d 0e55 f63d c9d6 ab3d
000001a0: 43fe e4bd b837 443d b0dd b6bc b1c0 9e3d
000001b0: 22c4 b5bc 3f0c 2ebd bd84 11be 4bcb a2bc
000001c0: 40ce 3dbe 410f b6bb 7ba4 35bc 4501 67bc
000001d0: e679 eb3d e4f7 aabd 4da8 4d3d 9c45 1f3d
000001e0: 85bf 2dbd 98cc cd3a 7746 9d3d 6817 80be
000001f0: d0ab 67bd a9e7 613d 5cfa 19bd 5536 71bc
00000200: 9488 35bd 406c b53d 8ee2 e7bd 381c b8bd
00000210: f3b1 82bd 0b1e 2e3d 32e9 09bc 6257 923d
00000220: bf2a 263e f26d 7f3d 7491 e2bb cc7c 14ba
00000230: 0c6e 94bc 708d 903d 422c 9e3d c764 15be
00000240: 9a89 2fbe 668d 453d b892 d63c 9a04 3ebe
00000250: efbf a7bd 0f4f 12bd e76d 90bc 95c2 fa3d
00000260: b0a2 a23d 969c 9fbc 7cd3 f73c 69b0 cebd
00000270: a678 81bd 9a0e f03c 4080 783d d590 653e
00000280: 011c 0dbe 7a0c b83b b77c 3cbe 2920 95bd
00000290: 4ac6 91bc e14f 893a 5bf1 bebc d056 363d
000002a0: ba3b 93bc 823d d43d 6883 d33d ac1b ea3c
000002b0: 61ec e5bc 173c 213e f9e5 8f3d 840f b8bd
000002c0: da58 1d3e 1933 0a3e 7dc0 fa3d ad2b 81bd
000002d0: c2a0 e33d 8e94 9abd 46c2 02bd ae9b cc3d
000002e0: d5e2 63bc 6793 c93d 7b84 e5bd 4f9b e33d
000002f0: 7eb8 05be 943d 79bc 67a4 793d e3a8 79bd
00000300: 7ae9 37bd 8847 053c 6f1c 2c3d a9ad 243c
00000310: 31fb f13d 9e3f 68bb 4ca8 95bc 61cf 093e
00000320: 5666 4cbc 9b79 0abe bbf0 ff3c 4b48 c6bd
00000330: a246 963c ae0d ed3c 3acd 01b9 0e5d bcbc
00000340: a28a b7bd dec4 ed3d 363d 213d 318f db3c
00000350: 30fc c8bb 84db 7a3d 5330 4bbe 2143 02bd
00000360: 382e 173e e3ed 3e3b 0ca3 18bd 4817 8dbc
00000370: 932a d23d 90a5 363d 8a03 033e 9450 893d
00000380: 0ce3 0ebd fd42 e43d 9380 693d a32a 6ebe
00000390: daee 50bd 4e0c 5d3b cef3 18bd fbe5 aa3c
000003a0: 5fac 5ebb 1e2c 263e d145 073e 1289 84be
000003b0: d3fd 1ebd 9e35 223b 3b2d a9ba a6f4 07be
000003c0: b4bb d03d a764 1bbb e059 70bb f709 313c
000003d0: 59a8 e63d 19c8 983d d333 c9bb a33d 053e
000003e0: 9d42 16be 12f7 043e 9d7c 663c ae58 b43d
000003f0: 95bf 9fbe 91b8 6d3d 0a67 a93b 3b7e 933c
-0.07771892 -0.01095181 -0.101874255 0.027067324 -0.17850116 -0.0762242 -0.09668293 -0.15037851
0.029611949 -0.018055415 -0.07412618 -0.06964715 0.13106586 0.03453403 0.02690165 0.08028193
0.09813531 0.02888305 -0.04775125 -0.08294515 0.0773751 0.014559925 0.007860749 -0.11092129
0.008766443 0.05098631 0.08681998 -0.16487287 0.016562346 -0.0752884 0.050308883 -0.12625565
0.08730949 0.024637714 -0.17607674 -0.035613116 -0.016675519 0.030404551 0.018282693 0.031079162
0.13041128 0.02956973 0.023502968 -0.024563963 -0.1309452 -0.13817403 -0.013880455 0.14612156
-0.00060347613 0.01661534 0.06838078 -0.008551835 -0.056212187 0.1886813 -0.00041653053 -0.115996696
0.2204634 0.09901925 -0.11666683 -0.03887382 0.011226582 0.10763733 -0.03984384 0.0148354275
-0.08083619 0.03577923 0.16487692 0.005009579 0.00827112 0.1098025 -0.004102471 -0.19993477
0.04868436 -0.20118292 0.004202341 -0.012026481 0.044149447 -0.058188763 0.111401506 -0.06809992
0.042941112 0.11883353 0.008494086 -0.17951079 -0.0710114 0.058432247 -0.0033616435 0.12989478
-0.011822576 0.026782785 0.044358645 0.05295974 0.06206512 0.041531496 0.07749716 -0.009513541
-0.008098509 -0.11764934 -0.062145468 0.020683143 -0.0022037192 0.04473939 0.12027942 0.083905764
-0.11181309 0.0479047 -0.022322506 0.07751597 -0.02218825 -0.042492148 -0.14210792 -0.019872328
-0.1853571 -0.0055560176 -0.0110865785 -0.014099424 0.1149786 -0.08348063 0.050209332 0.038884744
-0.042418975 0.0015701232 0.07679456 -0.25017858 -0.056560338 0.05515257 -0.037592277 -0.014722426
-0.044319704 0.08858538 -0.11322509 -0.08989757 -0.06381597 0.04250912 -0.0084174145 0.07145573
0.16227244 0.06236071 -0.006914312 -0.0005664348 -0.01811888 0.07058227 0.07723285 -0.14589225
-0.17142335 0.04823055 0.026193008 -0.18556443 -0.08190905 -0.035719927 -0.01763053 0.12244145
0.079411864 -0.019483846 0.03025221 -0.10092241 -0.0632184 0.029303838 0.060669184 0.2241853
-0.13780214 0.0056167217 -0.1840695 -0.07281525 -0.017794747 0.0010476076 -0.023308447 0.044516385
-0.017972816 0.10363294 0.10327798 0.028577648 -0.028066816 0.15745579 0.07026286 -0.08987334
0.15365925 0.13496055 0.122437455 -0.063071586 0.111146465 -0.07547866 -0.031923555 0.09990631
-0.013909061 0.09842568 -0.11206909 0.11113607 -0.1305866 -0.015212435 0.060947802 -0.06095208
-0.044900395 0.00813473 0.042019304 0.010051169 0.11815489 -0.003543831 -0.018268727 0.13458015
-0.012475571 -0.13522951 0.031242719 -0.096817575 0.018344227 0.028937187 -0.00012378852 -0.02299359
-0.08961989 0.11609815 0.039365016 0.026801677 -0.0061335787 0.061244503 -0.19842653 -0.0318023
0.14763725 0.002913349 -0.03726487 -0.017223015 0.10262027 0.044591486 0.12794319 0.06704822
-0.034884498 0.111455895 0.057007384 -0.23258452 -0.051009037 0.0033729258 -0.037341885 0.020861616
-0.0033977253 0.16227767 0.13210227 -0.25885826 -0.038816284 0.0024751197 -0.0012907156 -0.1327692
0.101920515 -0.0023711117 -0.0036674663 0.010805598 0.112625785 0.074600406 -0.006140211 0.13011794
-0.14673848 0.12984875 0.014067796 0.08805977 -0.31200853 0.058037344 0.005169754 0.018004527

critic.0.bias f4 [256]
00000000: cd07 92bd b495 96bd ff39 8d3d cac7 b4bd
00000010: 2aa3 33bd c24b 8dbd 8050 96bd 4d05 33bd
00000020: bc68 c2bd 692e 93bd 6d1d 943d 49d7 dbbc
00000030: 4be8 98bd b5dd 87bd ca14 b2bd 41bd 9dbd
00000040: 5741 9ebd a3d4 86bd 77a9 8d3d addd 0e3d
00000050: d20e 15bd 6403 c7bd 94c2 9abd 702e a0bd
00000060: e2cd 9dbd 4d0d b7bc ee08 843d 0412 7fbd
00000070: 8362 ad3d b393 923d f8f2 c9bd f5a5 d3bd
00000080: fae8 aa3d 0028 babd 8eef a8bd 7435 aa3d
00000090: 682b abbd 660f 8e3d a5f9 84bd 95c2 ddbd
000000a0: 45c9 9bbd f6ae b8bd bf3b 91bd 41cd 27bc
000000b0: a9ee 8cbd 893e b3bd eab7 1f3d 2908 c23d
000000c0: 7a8a f7bc 00ad fa3d 183e 98bd 6a16 a03d
000000d0: 5ddc 7abd 898e 70bd 3db1 b8bd ead8 943d
000000e0: 3256 9fbd ef76 9fbd f98f 4ebd 9616 34bd
000000f0: 4e1f c7bd b1a6 2e3d 683b 3d3d 6da9 353d
00000100: 4d01 a13d c3c5 8d3d 1668 fa3d ff5a 9cbd
00000110: d029 8b3c 74f6 8bbd bb92 8e3d e149 aa3d
00000120: f0d8 d63d 23cc b3bd cd1f 9fbd 62e2 b2bc
00000130: 651b 0c3d a8e8 7abd 2bc2 a9bd 7578 bdbd
00000140: 7dae b7bd 7498 b1bd 00f3 8abd 6443 88bd
00000150: 7428 bb3d d28b a93d 6819 c8bd 0b00 293d
00000160: fb76 a9bd c6f1 8ebd 0c3b 393d 7799 933d
00000170: 38ac a63d 536b c6bd 072f 9dbd 23d4 b6bd
00000180: 874d db3d c879 66bd b571 823d 4c73 943d
00000190: 67b6 473c b467 873d 1b43 ae3d fc00 943d
000001a0: 5ee5 8ebd 7051 ab3d dac6 383d fdd4 9cbd
000001b0: 09f5 8bbd 7476 f1bc fd2c 96bd 106c d2bd
000001c0: ee55 aebd ece4 9a3c b42c 693d 3b13 93bd
000001d0: 1b77 b33c 66dd 9f3d 4b17 cb3d 7cda d2bd
000001e0: 88ab be3d bfd6 b73d 3706 6a3c c9fd 403d
000001f0: f433 463d d7a2 a83d 4cd0 a3bd 924e 99bd
00000200: f8d3 043e 345c a73d 4d5c a8bd b73e 953d
00000210: dee8 e5bd d07d ffbc 917d 78bd bc64 b5bd
00000220: ab0e ca3d e9f9 b7bd ab69 60bd 490c d7bd
00000230: 3a96 91bd 4bf2 8f3d 054c b2bd 1c38 30bd
00000240: 3026 563d 1bf1 d3bd 621e 613d ba34 febd
00000250: 2e72 b5bd 2c3e b7bd 416e 913d 9b70 8abd
00000260: 32f2 8fbd 3d00 663d 5c44 91bd 0f49 903d
00000270: c275 a9bd 443a da3d 7f78 593d 5feb a23d
00000280: 07c1 b63d 3cae 853c 078b 90bd e48e 963d
00000290: 3db0 9fbd 8213 32bd 0551 b4bd c245 70bd
000002a0: 8cf9 29bd 9f0a 95bd 1abc 2bbc b50a 843d
000002b0: 33d7 8c3d 5dec 72bd 57cb b0bd e5f5 aa3d
000002c0: 5a93 a53d 3662 983d 9d58 1b3c b110 aabd
000002d0: 9173 56bc c5b4 b2bd 6c5e 923d 997a acbd
000002e0: 359e a2bd 3ba2 9ebd 01ca e5bd 2f91 a4bd
000002f0: 4656 493d 87cf b13d 46cb 01bd a44d a9bd
00000300: 5e33 a4bd b4e0 b9bd 6f68 7c3d de3e 663d
00000310: e9a5 f03c d59c 97bd 0fa2 aa3d 1797 91bd
00000320: 1513 a83d 66ce 353d 7a7b 8b3d da09 9c3d
00000330: 052c 87bd 0721 3f3d 776b f1bd 294c d1bd
00000340: 7ec0 b8bd df83 9d3d 9a0c d63d e2b1 473c
00000350: 340f 7cbd 28ca cb3d 626c 9d3d 5601 a43d
00000360: 9b37 e13d 1096 80bd 2e2a 853d 6026 453d
00000370: 789a b8bd d470 ab3c 9b9d 9cbd 6190 8bbd
00000380: 63cf bb3d e36a b9bd 3b41 aa3d 58c3 8abd
00000390: e61b 32bd a48b 98bd 2b7b 3d3d bb0b 97bd
000003a0: d031 a5bc d73a ea3c 4f21 9fbd 679f a0bd
000003b0: 4f87 923d 6d6f 96bd 6b8c 963d 1092 853d
000003c0: e4c8 ad3d 1197 a9bd 1c7c 343d a445 d03d
000003d0: 96f8 0b3d e0ae cdbd 5503 7cbd 150e 30bd
000003e0: 3320 91bd c7df 96bd c5f5 4ebd 88ca cf3d
000003f0: e3ae 8abd 2d03 ae3d eb09 9cbd 4b22 94bd
-0.07130394 -0.07352772 0.068958275 -0.08827169 -0.043856777 -0.06899215 -0.07339573 -0.043706227
-0.09492633 -0.071865864 0.07232175 -0.026836054 -0.07466181 -0.06634084 -0.086953714 -0.07702113
-0.07727306 -0.06583526 0.069170885 0.034879375 -0.036391087 -0.097174436 -0.07556644 -0.07821357
-0.07705285 -0.02234521 0.06447016 -0.06227304 0.08466055 0.07157078 -0.09860796 -0.10334388
0.08345218 -0.09089661 -0.082488164 0.083109766 -0.083578885 0.06936531 -0.064929284 -0.10828129
-0.076067485 -0.09017746 -0.07091474 -0.010241807 -0.06881458 -0.08752162 0.038993753 0.09474213
-0.030217398 0.122400284 -0.074337184 0.07816775 -0.06124531 -0.058729682 -0.090181805 0.072679356
-0.07780112 -0.07786357 -0.05043027 -0.043966852 -0.09722768 0.042639438 0.046199232 0.04435103
0.07861576 0.06922486 0.12226884 -0.07634544 0.016987711 -0.068341166 0.0696158 0.083148725
0.10490596 -0.0877917 -0.077697374 -0.021836463 0.034205813 -0.061257035 -0.08288988 -0.09251491
-0.08968828 -0.08671656 -0.0678463 -0.06653479 0.09138575 0.08278622 -0.09770471 0.041259807
-0.08274647 -0.069797084 0.045222327 0.072070055 0.08138317 -0.09688439 -0.076749854 -0.089271806
0.107081465 -0.056268483 0.06369344 0.07248554 0.012189484 0.06611577 0.08508893 0.0722675
-0.06977342 0.08365142 0.045111515 -0.07657812 -0.06833846 -0.029475428 -0.073327996 -0.102745175
-0.085124835 0.018907987 0.056927398 -0.07181402 0.02190738 0.078059 0.09916552 -0.10295579
0.09310061 0.089765064 0.014283708 0.04711703 0.04838939 0.08234184 -0.07998714 -0.07485689
0.12971485 0.08171883 -0.0822073 0.072873525 -0.112260565 -0.031187922 -0.060666624 -0.08857104
0.09866079 -0.089832135 -0.054788273 -0.1050039 -0.071087316 0.070286356 -0.08705906 -0.04302226
0.052282512 -0.103487216 0.054960616 -0.124124005 -0.08859669 -0.08947405 0.071011074 -0.06759759
-0.07028617 0.05615257 -0.07093117 0.07045185 -0.08274414 0.106556445 0.05309343 0.0795505
0.08923536 0.016318433 -0.07057767 0.07351473 -0.07797287 -0.043475635 -0.08804516 -0.058660276
-0.041497752 -0.072774164 -0.010481859 0.06447355 0.068769835 -0.059307445 -0.08632534 0.08347682
0.08084746 0.07440607 0.009481576 -0.08303965 -0.013089077 -0.08725885 0.07146916 -0.08421821
-0.07940332 -0.07745787 -0.1122017 -0.08035504 0.049154542 0.08682161 -0.031687997 -0.08266762
-0.0801761 -0.09076062 0.061623033 0.0562123 0.029375987 -0.0740296 0.083316915 -0.07108896
0.082067646 0.04438629 0.06810661 0.076190665 -0.06600193 0.046662357 -0.117880754 -0.102196045
-0.0902109 0.07691168 0.10451622 0.012188407 -0.061537936 0.099506676 0.07686688 0.08008067
0.10996934 -0.06278622 0.06502186 0.0481323 -0.090138376 0.020927824 -0.07647248 -0.068146475
0.09170415 -0.0905359 0.08313223 -0.0677554 -0.043483637 -0.07448509 0.04626004 -0.07375284
-0.020165354 0.02859251 -0.07770025 -0.078429036 0.07154714 -0.073454715 0.07351001 0.06522
0.084855825 -0.08280767 0.044063672 0.10169533 0.034172617 -0.100431204 -0.061526615 -0.04298218
-0.0708622 -0.07366901 -0.050527353 0.10146052 -0.06771638 0.084966995 -0.07619079 -0.07233103

critic.2.weight f4 [256, 256]
00000000: e547 8dbd 8c77 acbd d239 9ebd aa58 87ba
00000010: c1bc f0bd a496 b5bd 5538 51bd 5d9e ad3d
00000020: 7097 43be eff9 e6bb 8f86 6dbd 7a24 c5bd
00000030: f4ce 84bd 0c76 2cbe 1d7e e1bc d9d3 3e3d
00000040: 9a9f f0bd 141f c2bc 4744 83bd 1004 a53d
00000050: 94ed 1d3d 8ddd 80bc ee62 aabd b048 edbc
00000060: b797 4fbe c2ef 27bc 77f0 45bd 595a fdbd
00000070: 9971 083e d8c2 a03c a532 c33c 822c 1bbc
00000080: 30d1 0dbe 22c3 853d 06f9 633d 84a7 cb3d
00000090: 4c31 a5bd 5428 153d e209 683d 517f 70bd
000000a0: 0acc 06be 589e 3c3c 8720 003e 4e0d 2e3e
000000b0: 223e 733c 8b78 d1bd 1613 f5bd cb5c ce3c
000000c0: 0aaf e8bd 0879 413e b252 35bd 49d6 963d
000000d0: 2762 06be 9e8b 13bc c393 63be 7434 193d
000000e0: 6114 7a3d 4112 b7bd 6694 26bd 07e1 843d
000000f0: 183f 3fbe 8c8d 103d ed13 5d3d c0f6 223e
00000100: ff30 673e 0eea 9d3d ba0f 533e 2e3e 56bd
00000110: 6770 893b 00ac 043d c06e ef3d 25f9 553e
00000120: 48cc cfbc 8c7d cbbd 0c82 d4bd b4f0 76be
00000130: 0a67 aa3d ceb7 80bc 13d1 7ebd 943d abbc
00000140: 7940 16be 7445 c2bd d1d4 4dbd 1e6b 5fbe
00000150: f3e8 fe3c 28b3 3abd 4247 6b3c 1a58 4abd
00000160: 3b11 ffbd 6c73 8d3d 908b b93c 45a6 c03c
00000170: d898 953e 465c 74bd 2677 abbe 071f 1abe
00000180: 938e 1cbc 685a 29be 00f1 5dbe a484 b13b
00000190: e557 a13c fea4 1cbd 4539 78bd d258 6e3e
000001a0: 2046 75bd 5664 6f3b d68c e03d d8b9 9abd
000001b0: 8da8 5dbc ee5f 903d afee edbd 7664 a3bd
000001c0: c1e8 ecbd 6f63 d03c 5de6 9a3d 3168 c8bd
000001d0: 8e30 4d3e 7804 4d3d da1f 253e 365d 12be
000001e0: 455b 9c3e d63d 1bbd 26dd f63d ea42 c33d
000001f0: 7f40 f8bc 8969 bb3d 205a 46be fcd3 9e3d
00000200: 4234 01be 5704 c8bc 7def 02bc b9a6 b43c
00000210: 1d9f edbd 7966 cabd 52a8 17bd 4129 993c
00000220: df16 f33d 85f8 9e3d 74e9 363d 6c8a 31be
00000230: a505 6bbd 44ca f2bb cb12 b4bd 1bf4 293d
00000240: a09d d23d 2d33 20be 803b 103e 5c61 4dbe
00000250: 050a 97be ce30 febd 3ad8 4c3d 7f62 853b
00000260: d915 d33d 60e6 d93d 44e6 52be 1c0e d1bc
00000270: f032 8a3d a893 2b3e ab72 0fbe c426 db3d
00000280: 8f5b ac3d 31e2 053e c41c 9dbd adca 543d
00000290: bd0a 52be 159c c0bc 888e 3e3c 9321 7a3d
000002a0: ec0e 303e 3ff9 cebc 87c0 4cbb 40b8 973e
000002b0: f19e 913e 778f 0ebe c2d7 6dbd 1cb7 9c3d
000002c0: 52d7 d33d 2626 703d dee0 a23d 4e3e 76be
000002d0: 6b00 a43c 8f74 a7bd c067 263d aae9 61be
000002e0: 19e4 193d 5cce 4bbc c2a1 a0bd f57d 4ebe
000002f0: 063d ab3c ab7a 383e 88e7 debb 8a62 3cbd
00000300: c1b7 2e3e b373 76bd f4d0 5e3d ab3e 813c
00000310: dc16 e23c c874 2fbd 4cb7 113d e170 6ebd
00000320: e550 ea3c e7a9 59bd 0381 643e d72e b53d
00000330: 2d48 cbbd c62f d93a a2a3 b4bc dc30 4fbe
00000340: c075 8dbd 3980 c2bd 31cf e13d d2f8 c83d
00000350: 6f35 c8bd cf67 073e f758 3f3e ab60 053d
00000360: 625d 123e 0008 c53d 7880 c03d 86a9 163d
00000370: d6fe 4ebe 85a0 833d e87b ccbd 227f 27bd
00000380: cc25 e03c 3f6d 61be de96 093e 78f4 75be
00000390: be75 043c cd49 79bd 67cf 163e f2a6 57bd
000003a0: 8126 0dbe 137f c23d 139b c6bb 873b 31bd
000003b0: 3bd4 b63d fb6b c6bd e081 bf3d 4c61 553e
000003c0: 5509 d43d def2 18bd 48dc 4dbc 0494 4abd
000003d0: 775f 8dbd eeee 8c3c 6635 433d 0958 f5bc
000003e0: 03ae a4bd 456d 82be 4a1c e4bd 3fb1 3a3d
000003f0: 7787 a6bc 7a5a 7c3c f226 3ebe af00 03be
-0.068984784 -0.08421239 -0.07725872 -0.0010326107 -0.11754752 -0.08866623 -0.051079113 0.08477471
-0.19100738 -0.0070488374 -0.057989653 -0.09626098 -0.06484786 -0.16841906 -0.027525956 0.046588752
-0.117491916 -0.02369646 -0.06409507 0.080574155 0.03855665 -0.015730644 -0.083196506 -0.028965324
-0.20272718 -0.010250034 -0.04832503 -0.12370748 0.13324584 0.019624159 0.02382786 -0.009471061
-0.1384933 0.06531359 0.05565741 0.099440604 -0.08066043 0.036415413 0.05665005 -0.05871517
-0.13163772 0.0115123615 0.12512408 0.16997263 0.014846357 -0.1022807 -0.11966531 0.025190732
-0.11361511 0.18893826 -0.044268318 0.073650904 -0.1312338 -0.009005455 -0.22224335 0.03740354
0.06105459 -0.089390285 -0.040668868 0.06488233 -0.18676412 0.03529124 0.05397408 0.1591444
0.22577284 0.07710658 0.20611468 -0.052305393 0.0041943076 0.032390594 0.11691046 0.20895822
-0.025365964 -0.099360555 -0.10376367 -0.24115258 0.083204344 -0.015712645 -0.062211107 -0.020903386
-0.14673032 -0.094859034 -0.050251786 -0.21818206 0.031116938 -0.045581013 0.014360251 -0.049400426
-0.12454458 0.069067806 0.022649556 0.023516783 0.29218173 -0.05965831 -0.3348934 -0.15050898
-0.009555477 -0.16538393 -0.21673965 0.0054174233 0.019695232 -0.038243286 -0.06060149 0.2327607
-0.05988133 0.003652831 0.10964362 -0.07554978 -0.013528955 0.07049547 -0.11617791 -0.07978146
-0.11567832 0.025438039 0.075634696 -0.09785498 0.20038053 0.05005309 0.16125432 -0.1429337
0.30538383 -0.03790077 0.120538995 0.09534247 -0.030304192 0.091509886 -0.19370317 0.077552766
-0.12617591 -0.024416132 -0.007991669 0.022052156 -0.11602614 -0.09882826 -0.037025757 0.01869643
0.11869597 0.07762245 0.044656232 -0.1733796 -0.05737843 -0.007409366 -0.08792647 0.041492563
0.10283971 -0.15644522 0.14085197 -0.20056671 -0.29499832 -0.124116525 0.050010897 0.0040705795
0.103069015 0.10639644 -0.20595652 -0.025519423 0.06747997 0.16755545 -0.14008586 0.10700753
0.08415901 0.13074566 -0.07671502 0.0519511 -0.20511909 -0.023511926 0.011630662 0.061067175
0.17193192 -0.025265334 -0.0031242685 0.2963276 0.28441575 -0.13921915 -0.05806709 0.07652113
0.103438035 0.05863013 0.07953046 -0.24047205 0.02001973 -0.08176529 0.040626287 -0.22061792
0.037571047 -0.012439337 -0.07843353 -0.20165236 0.020903122 0.18015544 -0.006802503 -0.04599241
0.17062284 -0.060168933 0.054398492 0.015776953 0.02759879 -0.04283598 0.035575196 -0.05821312
0.028603027 -0.053140547 0.22314839 0.088468246 -0.09925876 0.0016570024 -0.022050682 -0.20233482
-0.06907225 -0.09497113 0.11025847 0.09813084 -0.09775817 0.13223194 0.18686281 0.032562893
0.14293435 0.096206665 0.093995035 0.036782764 -0.202144 0.06427101 -0.09984571 -0.040892728
0.027361773 -0.2201433 0.13436458 -0.24019039 0.008084713 -0.060861398 0.14727555 -0.052649446
-0.1378422 0.09496894 -0.0060609668 -0.04326966 0.089271985 -0.096885644 0.093509436 0.20837897
0.103533424 -0.03734099 -0.012564726 -0.049457565 -0.06902974 0.017203774 0.047658347 -0.029949205
-0.080410026 -0.2547399 -0.11138208 0.04557919 -0.020328267 0.015402431 -0.18569544 -0.1279323

critic.2.bias f4 [256]
00000000: 6947 7e3d f897 80bd 80bf 693d 6d81 023d
00000010: 63b2 08bd 2cc9 35bd 11c1 343d 5b66 a93d
00000020: 34f8 2cbd 445d e1bd 984b 03be cdcd 8fbd
00000030: c5fe e73c aa58 31bd 3b52 273d d422 883d
00000040: 65a8 7f3d 5340 6fbd ecf6 2ebd add0 a53d
00000050: cec4 f53c d80b 653d 0d76 413d a376 31bd
00000060: 916e d9bc 1fce 113d 03ec b3bd dbee 3dbd
00000070: 2e06 4c3d 15aa 873d 8c3e 26bd 38aa a73d
00000080: 496d 533d c71e 35bd 8c0d 93bd 6b93 9abd
00000090: 8a9b 8ebd ca75 4abd 8efd 60bd d385 c1bd
000000a0: 1f93 b23c cde6 413d 04fd 383d d45c 8ebd
000000b0: 27e8 6e3d 19dc 1b3d 1542 9dbd 1218 8bbd
000000c0: af86 07bd 1c29 5e3d 7898 4abd f43a 8abd
000000d0: 422a 433d 8b97 37bd af47 133d b714 93bd
000000e0: 3f63 8fbd c0c3 3abd c37a 1cbd 4db4 3dbd
000000f0: fcc4 253d 8c7e 8d3d 6c7b 8ebd 7234 7ebd
00000100: f0dd 4e3d 5dbe 933c 1aa9 7fbd 78d2 4dbd
00000110: 3477 483d 2534 453d da09 6f3d b551 b83d
00000120: 8a53 5dbd 2856 533d 8a3a 49bd fa22 753d
00000130: c6f7 293d 7a70 713d 1a71 453d 795c 88bd
00000140: f59b 543d 702b 7d3d 9695 7fbd 18ad 3a3d
00000150: 49ae 76bb f110 633d 9dcf c93c fc18 17bd
00000160: 9efa 42bd 1a1d 36bd 26bb 573d 3883 3abd
00000170: 6138 36bd c6f1 a2bc 69ec 8e3d 8d25 acbd
00000180: 1616 1c3d a21c 3fbd db86 7b3d 480b 883c
00000190: c873 453d d983 a43c 08a2 d6bc 810e 9e3c
000001a0: d5a0 6b3d 747a 3dbd ee20 cebd 458e 32bd
000001b0: a0ed 3a3d 80ae 86bd 3972 a0bc d7cd e23c
000001c0: cdda 2b3d f832 01be 266c 5abd 1ca6 9f3d
000001d0: 2682 403d a397 f93c fb00 f4bc f1ee f9bc
000001e0: 1bbb 183d 1cba 9e3d 4eef f33c 8c4a 443d
000001f0: 5805 513d 14e2 1f3d 3605 39bd 3a69 5fbd
00000200: 27aa 323d c178 6cbd 14b5 493d 3b24 833d
00000210: 9de7 10bd b684 343d 425e 463d 9c3e 5b3d
00000220: c01f 863d 099c 8f3d c71f 83bd 8d1a 2fbd
00000230: 1ac2 f3ba 0b02 afbc 1d3d 753d 792d 62bd
00000240: 5334 3dbd 4bdf 06b9 5974 45bd 7a63 09bd
00000250: 4f56 5fbd b04f 003d 6ff1 c4bc 9667 463d
00000260: c479 2e3d 9329 583d d40c 10bd d8ad 72bd
00000270: 6116 b73c 956d 02bd 9878 b93d dd56 813d
00000280: fbeb 81bd 560f 773d 73f0 873d 71f4 dd3c
00000290: 3a48 7d3d 8981 87bd d27a 693d 9133 3fbd
000002a0: 1eb5 4cbd becb 953d 3d4e 163d 8e77 383d
000002b0: e809 5e3d 4ac6 38bd e674 673d 4f74 873d
000002c0: 31f1 803d dc83 4fbd 0ddc 583d 8487 423d
000002d0: 8ef0 b0bd 88c5 90bd 3303 a2bd 5c49 723d
000002e0: 641e 84bd a638 913d ab9f 4a3d 5c7a 273d
000002f0: cf95 763d a60b 8b3d d146 033d 7b5d 4f3d
00000300: a66c 18bc 1a98 cb3c f6dc 17bd e8ad 683d
00000310: 3531 343d a6b5 5cbd fd30 f83c 3e80 91bd
00000320: 6014 a83d 0066 a03d d21e 3cbd 5626 893d
00000330: e60e b2bd 763a 16bd ee72 cd3d 17cb 43bd
00000340: a740 60bd 5fed 2d3d 9349 47bd 432c 80bd
00000350: 6644 75bd be97 6d3d 358c 533d 9490 74bd
00000360: b675 333d bce3 0f3d d874 5abd aee7 3e3d
00000370: 953d 8e3c 067b 2a3d af77 d93c f8f0 483d
00000380: a3ed 653d 72dd 843d 487b 2bbd 83f2 4abd
00000390: d2a8 803d 4068 16bd 9220 48bd 3247 15bb
000003a0: 8fa3 553d 4b33 38bd c376 3c3d b36b 5ebd
000003b0: f5b6 633d c553 74bd 809d 01bd 2c11 d0bd
000003c0: e9c0 0a3d 669b 20bd b2be 96bd bc81 6e3d
000003d0: ecad 08bd 4a6f dc3d e777 903d 16c3 f53c
000003e0: 2eb3 5abd ef01 393d c173 89bd 2f52 553d
000003f0: 6dd0 a03d e2b8 2abd 3a90 0fbd 8caa 27bd
0.06207982 -0.06278986 0.057067394 0.03186171 -0.033373248 -0.044381306 0.044129435 0.08271476
-0.042228892 -0.11004117 -0.12821805 -0.07021675 0.028319726 -0.043297447 0.040849905 0.06647268
0.062416453 -0.058410954 -0.04271595 0.08096442 0.03000107 0.0559195 0.047231723 -0.04332603
-0.02654198 0.035596963 -0.0878525 -0.04637037 0.04981058 0.066242374 -0.040586993 0.081867635
0.051617894 -0.044218805 -0.07180318 -0.07547649 -0.069632605 -0.04942874 -0.05492931 -0.09449353
0.021798668 0.04733925 0.04516317 -0.06951299 0.058326866 0.0380517 -0.0767862 -0.067917004
-0.03308743 0.054238424 -0.04946181 -0.06749526 0.047647722 -0.044822257 0.035957035 -0.071816854
-0.070013516 -0.045596838 -0.038203012 -0.046314526 0.040471062 0.069089025 -0.069571346 -0.062061734
0.050504625 0.018035108 -0.062417127 -0.050249547 0.048941806 0.048145432 0.058359005 0.089999594
-0.054034747 0.051595837 -0.049128093 0.05984781 0.04149606 0.058945157 0.048203565 -0.06658263
0.051906545 0.061809003 -0.062398516 0.04557523 -0.0037640503 0.05543608 0.02463513 -0.03688906
-0.04760229 -0.044461347 0.052668713 -0.045535296 -0.04448736 -0.019890677 0.069786854 -0.084056
0.038107 -0.046658166 0.061407905 0.016606942 0.04820612 0.020082401 -0.02620031 0.019294025
0.05752643 -0.04625936 -0.100648746 -0.04359271 0.045636773 -0.06576252 -0.019585716 0.027686043
0.04195671 -0.126171 -0.053325795 0.07795355 0.04699912 0.030467814 -0.029785624 -0.030509444
0.037287813 0.07750341 0.029777195 0.047922656 0.051030487 0.039033964 -0.045170985 -0.05454371
0.0436193 -0.057732347 0.049244955 0.06403395 -0.035377134 0.044071876 0.048429735 0.053526506
0.065490246 0.07012183 -0.064025454 -0.04274993 -0.0018597275 -0.021363279 0.059872735 -0.055219147
-0.04619248 -0.00012862419 -0.04820666 -0.033542134 -0.05452567 0.031325996 -0.024040906 0.04843863
0.042596593 0.052774023 -0.035168484 -0.05924782 0.022349538 -0.031842787 0.090562046 0.06315396
-0.06343838 0.06031736 0.06637659 0.027094098 0.06183646 -0.06616504 0.057001896 -0.046680037
-0.049977414 0.07314251 0.036695708 0.04503589 0.054208666 -0.04511098 0.056507967 0.06613981
0.062960036 -0.05066286 0.05294423 0.04749252 -0.08639632 -0.07068926 -0.079107665 0.059151992
-0.06451109 0.07090883 0.049468677 0.040888175 0.060201462 0.06789331 0.032049958 0.05062626
-0.009303248 0.024852801 -0.03707596 0.056806475 0.04399224 -0.05388417 0.030296797 -0.071045384
0.08207011 0.07831955 -0.04592783 0.06696765 -0.08694248 -0.036676846 0.10031687 -0.047801103
-0.054749157 0.042462703 -0.04865415 -0.06258442 -0.059879683 0.05800604 0.051647384 -0.059708193
0.04381343 0.035129294 -0.053334087 0.046607666 0.017363349 0.04162123 0.026546327 0.04905793
0.05613483 0.0648755 -0.041865617 -0.049547683 0.062822 -0.036720514 -0.048859186 -0.0022778031
0.052157935 -0.04497079 0.046011698 -0.05430193 0.055594403 -0.0596502 -0.031644344 -0.10159525
0.03387538 -0.0392107 -0.07360591 0.058229193 -0.03336899 0.10763414 0.070541196 0.03000025
-0.053393535 0.04516786 -0.067115314 0.05208033 0.07852254 -0.041680224 -0.035049655 -0.04093413

critic.4.weight f4 [1, 256]
00000000: da47 363f c4ac 31bf 9803 2c3f afd6 203f
00000010: ad12 20bf 65b4 33bf eefd 333f f969 173f
00000020: 7205 1abf 2ead 0fbf f6c9 1abf 3f5d 2bbf
00000030: 4947 2b3f cd81 25bf ce4d 203f c56e 2b3f
00000040: 39bb 233f fbb8 29bf 18c8 1fbf 4b5f 1e3f
00000050: 736e 1e3f 25ec 2c3f 224c 353f e973 27bf
00000060: 81e0 22bf e666 273f e475 1dbf 171a 31bf
00000070: 05ba 3b3f 6d7d 203f 3f1b 24bf 5fd1 1f3f
00000080: ab06 373f 87d0 25bf 6f6a 1cbf bcb5 21bf
00000090: abb8 24bf e32d 25bf c620 1ebf a62a 1fbf
000000a0: 02c6 153f 42bb 243f 3658 313f 0504 23bf
000000b0: 2db9 1b3f a13d 273f 59a0 1bbf 73c3 21bf
000000c0: 16da 23bf 8251 303f 92be 33bf 66d4 32bf
000000d0: 0641 253f 51c4 29bf d341 183f c699 1dbf
000000e0: 9ee3 29bf f0e8 1dbf 6fe9 41bf 5e1a 1abf
000000f0: 02a1 233f 872e 1d3f aae0 1cbf 6064 2cbf
00000100: 46e6 193f dab1 1f3f 1a9b 33bf baac 31bf
00000110: f36c 253f e921 1e3f 752b 323f c543 173f
00000120: 8552 32bf f4cc 373f 4543 2abf 5d8f 273f
00000130: 7bbf 2e3f ec2d 1d3f 6a62 223f ec54 2abf
00000140: 3fdd 2b3f 5820 263f a923 27bf 0e1c 243f
00000150: 3258 22bf 4c0b 203f 4bb8 173f 0129 24bf
00000160: ebe6 2bbf 1860 2abf 20fa 273f fd46 38bf
00000170: c328 29bf aa9c 23bf 552a 1b3f 3d1b 21bf
00000180: 92e0 213f fa04 1fbf ec43 2a3f e16f 1f3f
00000190: 86ac 2c3f 0090 1fbf 3703 23bf b458 1f3f
000001a0: 6607 233f 6fef 17bf 7e7e 17bf 3a9f 26bf
000001b0: 6ce9 263f 72cd 24bf fb3f 19bf d6bd 213f
000001c0: f8a9 233f e7d3 1dbf 6eba 1fbf 9399 243f
000001d0: 2073 3d3f d782 1e3f 8679 1bbf 77e0 29bf
000001e0: 0719 293f 36ac 2b3f b6fc 183f ef69 213f
000001f0: c4da 283f 4d41 2e3f cdf0 1ebf 2922 1ebf
00000200: 1635 263f 393f 15bf 5363 2c3f 3249 283f
00000210: e51a 21bf 8be8 2b3f 0028 2d3f 7760 203f
00000220: 200b 273f fe82 1b3f eff9 22bf 7ea7 28bf
00000230: 4c53 14bf 95a8 23bf 575e 203f 78d2 27bf
00000240: 2561 29bf 0ab8 173f 221d 1dbf b8d5 24bf
00000250: 3409 2bbf d4cd 233f 9c73 23bf 108e 2c3f
00000260: 9958 293f b621 283f 9e0f 1fbf 7372 20bf
00000270: 410e 223f 183d 24bf ef04 1b3f 6a3d 313f
00000280: e0b6 25bf dbe3 203f 29ca 2e3f 2402 203f
00000290: ec37 1e3f b753 1fbf 9cb2 2e3f 93b2 41bf
000002a0: 4398 25bf 672f 213f 782d 203f 4a8b 293f
000002b0: 7f7e 183f 33de 2abf c0a2 3a3f c1b3 273f
000002c0: 5e15 1e3f 5d0b 25bf 9d28 233f a06a 373f
000002d0: 79c3 18bf d02a 14bf 167d 1ebf 9d2c 2c3f
000002e0: eb54 1ebf 55aa 1a3f 674c 2a3f 8f97 273f
000002f0: b3bb 333f d5e4 273f 0f20 233f 81d5 313f
00000300: ed3c 1ebf ff15 1e3f 3001 24bf efac 2a3f
00000310: 5be6 363f cb43 29bf a850 253f ebd3 27bf
00000320: b907 1b3f 66ec 1e3f e2ba 20bf 620b 243f
00000330: d3ae 1fbf 1550 23bf 8c43 103f a334 3fbf
00000340: f35e 35bf 395a 363f 2ad9 22bf af84 1bbf
00000350: c462 1fbf 97a7 1e3f cd04 253f 9d48 25bf
00000360: 58d5 213f f983 233f d964 32bf 78d4 263f
00000370: d91f 223f 0629 293f 90da 193f bf4c 203f
00000380: 7213 393f b3f7 243f 2229 3abf 6184 33bf
00000390: b653 283f 302c 27bf e608 28bf b92b 1fbf
000003a0: a7ba 393f d1ce 39bf da16 223f eed6 3fbf
000003b0: c33b 203f 2ef1 1abf bcce 21bf 6244 13bf
000003c0: 1ea3 193f b473 24bf 3b9f 1fbf 4262 213f
000003d0: 7974 0abf 9c6f 173f 9af4 1f3f 59ee 203f
000003e0: fc79 36bf 9683 213f 7d8a 26bf b587 1f3f
000003f0: 80fc 203f 12c0 25bf 8335 21bf 74fd 38bf
0.71203387 -0.69404244 0.67192984 0.6282758 -0.62528497 -0.70197135 0.7030934 0.59146076
-0.6016456 -0.56123626 -0.6046442 -0.6693916 0.6690565 -0.64651185 0.6261872 0.66965896
0.63957554 -0.6629788 -0.62414694 0.61864156 0.6188728 0.6754783 0.70819294 -0.6541124
-0.63623816 0.65391386 -0.6150801 -0.69180435 0.7333072 0.62691385 -0.64104074 0.6242885
0.7149455 -0.6477131 -0.61099905 -0.6316793 -0.6434428 -0.6452314 -0.6176876 -0.6217445
0.5850526 0.6434823 0.69275224 -0.6367801 0.6082943 0.65328413 -0.60791546 -0.63188857
-0.6400465 0.6887437 -0.7021266 -0.69855344 0.6455234 -0.6631518 0.5947544 -0.61562765
-0.6636294 -0.6168356 -0.75746816 -0.60196483 0.63917553 0.6139912 -0.6128031 -0.6734066
0.60116994 0.62380755 -0.7015854 -0.69404185 0.6461937 0.6177049 0.6959756 0.59087783
-0.69657165 0.7179711 -0.66508895 0.6545313 0.68260926 0.61398196 0.6343142 -0.6653583
0.6713447 0.648931 -0.6528879 0.6410531 -0.63415825 0.6251724 0.59265584 -0.64125067
-0.6714923 -0.6655288 0.65616035 -0.7198332 -0.6607782 -0.63910925 0.6061147 -0.6293219
0.6323329 -0.6211697 0.6650989 0.6228009 0.6745075 -0.623291 -0.6367678 0.62244725
0.63683164 -0.5934972 -0.59177387 -0.6508671 0.65199924 -0.64375985 -0.5986325 0.6318029
0.63931227 -0.6165146 -0.62393844 0.64296836 0.7400379 0.61918396 -0.60732305 -0.6635813
0.66053814 0.6705965 0.59760606 0.63052267 0.6595881 0.6806839 -0.6208618 -0.61770874
0.6492475 -0.58299595 0.67339057 0.6573669 -0.6293166 0.6715171 0.6763916 0.62647194
0.6525135 0.60746753 -0.6366262 -0.6588057 -0.579396 -0.6392911 0.6264395 -0.65555525
-0.66163856 0.59265196 -0.6137258 -0.6438861 -0.6681092 0.63985944 -0.6384828 0.6740427
0.66150814 0.6567644 -0.62133205 -0.62674636 0.63303 -0.6415572 0.60554403 0.69234335
-0.6473217 0.6284768 0.6827722 0.62503266 0.6180408 -0.62237114 0.68241286 -0.7566311
-0.6468546 0.62962955 0.6256938 0.66228163 0.5956802 -0.667453 0.72904587 0.6550866
0.61751354 -0.64470464 0.63733846 0.7164707 -0.5967327 -0.57877827 -0.61909616 0.67255574
-0.61848325 0.60416156 0.6652283 0.65465635 0.7020828 0.65583545 0.6372079 0.69466406
-0.61811715 0.61752313 -0.6406431 0.66670126 0.71445245 -0.6611907 0.64576197 -0.65557736
0.6055866 0.62079465 -0.6278516 0.6407987 -0.62376136 -0.6379407 0.5635307 -0.7468969
-0.70848006 0.7123142 -0.63612616 -0.60749334 -0.6226008 0.6197447 0.6446045 -0.64563924
0.6321616 0.6387325 -0.6968513 0.6516795 0.63329846 0.6607822 0.60099125 0.62617105
0.72295296 0.6444046 -0.72719014 -0.7012387 0.6575273 -0.653018 -0.6563858 -0.6217609
0.72550434 -0.725812 0.6331612 -0.7493733 0.6259119 -0.6052426 -0.63206077 -0.5752622
0.6001452 -0.6423905 -0.6235234 0.63040555 -0.54083973 0.5915468 0.6248261 0.6286369
-0.71279883 0.6309141 -0.65055066 0.6231645 0.62885284 -0.647462 -0.6297228 -0.7226174

actor_mean.0.weight f4 [256, 13]
00000000: f87a 3dbc 50e4 f8bd fe2d 65bc 251e 403e
00000010: cec6 133e a809 0b3e ec13 8e3a dd80 153d
00000020: 3235 723c 7016 e33c 9021 fd3c 82ea 8e3d
00000030: bc03 9d3d 971c 9e3c e531 90bd 2427 e6bc
00000040: 51fe 05bc 7c89 8ebc 1ac4 b13d e64c 97bd
00000050: c52b afbd e57b 493b 073e 793d 7eb0 963d
00000060: ff38 b03d 0c94 e2bb 55c8 6cbe 3880 64bb
00000070: d37c 40bd 068a 4a3c b6df 823d f233 0bbe
00000080: b88c c6bb d5d0 29be 6776 9f3c 40c5 eabd
00000090: 9233 8838 4b67 bc3d 02b0 b2bd f397 fbbd
000000a0: deff d33b b5e7 f5bc 2069 723d 8b2e 13be
000000b0: e464 483c 62f6 e33d 6dea 493d 7d1f 24b9
000000c0: 8544 68bd 11d7 9bbd 1089 8fbd a741 c9bd
000000d0: 8999 693d 6336 4c3d f170 813c e203 4d3d
000000e0: c42f 32bd 4ae5 83bd d820 2c3e 431d 2dbe
000000f0: aa72 3e3e 2228 82bb f8ca 93bd 8383 edbd
00000100: f77a d23d c3d0 80bd d89a 583e 5990 7dbd
00000110: c1ed 983d b050 a93b 304f d03c 1e0c fe3b
00000120: f729 3dbd 0b8c 613c 0eb8 483d 5c77 013d
00000130: 73e6 7d3d 9f01 583c fb88 6bbc 063f 0cbb
00000140: a948 d33d 0c81 f43d 858d a43c 7c8d 0b3d
00000150: 9f0f ae3d 73f8 5f3d 36dd 993d 482b ec3c
00000160: abfd 1ebd 5da3 1f3c 131f ecbb 8e34 da3d
00000170: b7f2 a53d e91c 303d b1fc 903c 95d1 103e
00000180: f150 82bd 03af 283d 4581 bbbd 469b 00be
00000190: 12af af3d 8db7 b7bd ce0f 5cbd 41e7 24bd
000001a0: 11cf d93c 8b13 f2bc f534 65bd c75e 1bbd
000001b0: fdf1 f2bc 6714 d5bc ec0f f3bd 1724 743b
000001c0: 8a3d 243d 3ea3 73bd bc98 debc cd4d 323e
000001d0: e63e 47bd 3743 5a3e ab44 9cbd 78c5 e0bd
000001e0: ea75 7cbd da3d 7f3d c8eb 103e 4a4c 2dbd
000001f0: 37ff ac3d d709 0bbc ae45 5c3d 2906 8c3b
00000200: aaeb 96bd 8e24 2f3e 669e 13bd a7b8 9ebc
00000210: acd1 a83c 2cbb b4bc 9ca8 bbbd 85d9 033d
00000220: 33cf 103e 69f8 8fbc d94a af3d b18d 1b3d
00000230: d04a 4dbe 002f 04be ff62 2abd f10d 173d
00000240: 1196 ef3b 5eb4 8f3d a9ee a2bd 0b4f 8fbd
00000250: 5167 733c e92f 923d eb03 fa3d 68c4 d0bd
00000260: f5f2 c43c 05c5 923d 3426 c83c 7b22 26be
00000270: 3ef3 e03c b294 4cbd beaa 4fbd 0412 233d
00000280: 7e0f 4dbd e33d 31bd dace 84bd abb9 f1bd
00000290: 8b78 283d 0944 f3bd d816 323c e6e1 edbc
000002a0: 3385 1e3d ebb4 22bd 59b1 81bc f5bd 263d
000002b0: aacf 333d 14e4 2abd 7196 9cbd 9c4b 9dbd
000002c0: a9f3 2fbd 123f 52bd 184d a33d f426 dcbc
000002d0: 17a1 7b3d 4e55 003e 43ca 60bd 02d2 bebc
000002e0: 6aae b9ba 72f7 61bc 99ae e53d c339 e93d
000002f0: 29d2 ebbd 4c9e 09be ec73 c93d 58dc ce3c
00000300: 2d46 e03d 5f48 073c 2548 1fbd c88e 33be
00000310: d427 50bc 2742 d8bd 24e7 95be 082c d2bd
00000320: 17df 893c 5a2e 233d 2b8b f13d 8a92 7d3d
00000330: aae5 c33d 32aa e93d 1d2c b8bc eb91 963d
00000340: b2a2 68bd 42ac c4bc e682 c33a 9ba1 b43d
00000350: 33a1 a43d 300b 5e3e 463f af3d 2f2b 353d
00000360: 4ef0 17be 29cf 91bd 722f 273d cf16 30bd
00000370: 8e8e cb3d 8ef8 3dbe 3872 bf3d ebce 753b
00000380: c845 9d3d 3373 003e 6126 05bd ace6 51bb
00000390: bc35 01be 1919 a3bd d52f 90bd a88a 02be
000003a0: ad0e 30bc 98c9 88bd 8bce ce3c 7f21 e0bc
000003b0: 853e ebbd 3232 4a3d 85b3 3fbd 45eb acbd
000003c0: 59ef 33bd 35db a0bd 4c07 a43c d8a9 3bbd
000003d0: 735d c5bb e963 c03d 063e b13c 4024 823c
000003e0: e139 a23d ecfe 823d 0389 31be 48ed b13d
000003f0: 6a9f 643a 8f3b 40bd aba6 b63d 73d1 303d
-0.011564963 -0.12152922 -0.013988016 0.18761499 0.14431307 0.13577902 0.0010839677 0.036499847
0.014783191 0.02772066 0.030899793 0.069783226 0.07666728 0.019300742 -0.070407666 -0.028094836
-0.00817831 -0.017399542 0.086799815 -0.07387714 -0.0855327 0.0030744013 0.06085017 0.07357882
0.08604621 -0.006914621 -0.23123296 -0.0034866463 -0.04699404 0.012362009 0.06390326 -0.13594034
-0.0060592555 -0.1658357 0.019465638 -0.11463404 6.494591e-05 0.09199389 -0.08724977 -0.122848414
0.0064697107 -0.030017713 0.059182286 -0.14373223 0.012231085 0.11130978 0.04929583 -0.00015651989
-0.05670597 -0.0760938 -0.070085645 -0.09826975 0.05703119 0.049856555 0.015800925 0.05005253
-0.043502584 -0.06440218 0.16809404 -0.16905694 0.18598428 -0.0039720694 -0.072164476 -0.115973495
0.1027736 -0.06289818 0.21152818 -0.06190524 0.07467223 0.0051670894 0.025428385 0.0077529093
-0.0461826 0.013766299 0.049003653 0.03160797 0.06198735 0.01318398 -0.01437592 -0.002139987
0.10316593 0.11938676 0.020087013 0.034070477 0.08499073 0.0546803 0.07512896 0.028829232
-0.038816135 0.009743539 -0.007205853 0.10654555 0.08102935 0.04299632 0.017698618 0.14142449
-0.063630946 0.04118253 -0.091555156 -0.12559232 0.08578314 -0.089705564 -0.05372601 -0.040259603
0.026587995 -0.029550334 -0.055958707 -0.037932184 -0.029656405 -0.026010705 -0.11868271 0.0037252957
0.04009775 -0.05948185 -0.027172439 0.17412491 -0.04864397 0.21314703 -0.07630285 -0.10975164
-0.06163589 0.062314846 0.14152443 -0.042309083 0.08447116 -0.008486233 0.05377739 0.0042731953
-0.07369168 0.17103788 -0.036039732 -0.019375158 0.020607792 -0.022061907 -0.09163019 0.032189865
0.1414154 -0.017574506 0.08559198 0.037976924 -0.2004807 -0.12908554 -0.041598316 0.03687853
0.0073115905 0.07016824 -0.07955677 -0.06997498 0.0148561755 0.071380444 0.122077785 -0.101937115
0.024041632 0.07166485 0.02443228 -0.16224091 0.027459737 -0.049946494 -0.05069994 0.039812103
-0.050063603 -0.04327191 -0.06484766 -0.118029915 0.041130584 -0.11878211 0.010869704 -0.02903838
0.038701247 -0.039723318 -0.015831636 0.0407085 0.043899216 -0.04172142 -0.07645882 -0.07680437
-0.04295698 -0.05132968 0.07973689 -0.026874043 0.061432924 0.12532541 -0.05488039 -0.023293499
-0.0014166359 -0.013791906 0.112149425 0.1138797 -0.11514694 -0.13439292 0.098365635 0.025251552
0.10950885 0.008257001 -0.03888716 -0.17534935 -0.012704808 -0.105594926 -0.2927791 -0.102623045
0.01683001 0.039839126 0.11794122 0.06190733 0.09565289 0.11409415 -0.022481972 0.073520504
-0.056795783 -0.02400792 0.001491633 0.08819886 0.08038559 0.21683955 0.0855699 0.044230636
-0.14837763 -0.07119591 0.04081673 -0.042990502 0.099392995 -0.18551847 0.093479574 0.0037507366
0.07679325 0.12543945 -0.032507304 -0.003202836 -0.12618154 -0.079637714 -0.07040373 -0.12748206
-0.0107456865 -0.06679076 0.025244972 -0.027359722 -0.11486534 0.049364276 -0.046802063 -0.084433116
-0.04392943 -0.078543104 0.02002301 -0.045816272 -0.006023103 0.09394056 0.02163602 0.015886426
0.07921196 0.06396279 -0.17337422 0.08687836 0.00087212643 -0.0469318 0.08918508 0.043168496

actor_mean.0.bias f4 [256]
00000000: f0c2 123c fc21 4cbd e277 6dbc 520e a33c
00000010: ea1e 2dbc 952b 0d3d 79be 973c 95ef bd3c
00000020: 11a8 edbc 1650 97bb 8853 4b3c 1367 f63c
00000030: 4ec5 9a3b 5c5d e7bc 3560 1b3c 7d51 a13b
00000040: ea0b 0b3d 1c44 b13c 6f7a fcbc 19a3 b03c
00000050: 65ee 0fbb 7a48 a6bc 409d 243c 0fbd f93b
00000060: 396a 153c 653c a83b d21f 8dbc 20f2 d9bb
00000070: 6e24 643c 92ac 9abc 4d66 89bd b873 d33c
00000080: 1b56 813c ba95 c039 82f9 c7bb 6ed1 6cbd
00000090: 19f1 753c 2c2e 183d 21a5 a53c 27fa c23c
000000a0: 2bbf 243b 2895 8a3d 1a34 033d 4f2a e1bb
000000b0: 3dab 513c 6c1f 093b 8896 87bc 8196 94bb
000000c0: 250f b13c 2aee 463c a785 6a3d 7f3c 2c3c
000000d0: 38e7 0bbd 350f 81bc 1841 3fbd 4512 943c
000000e0: 57ad 733c acba 343d 5f18 da3c 340d 87bd
000000f0: 5080 e33c c439 7fbc 932c e93c 8a08 c63b
00000100: c768 efbb 5111 2a3c cbc2 b13c 68ac 063d
00000110: cd63 94bc c986 05bd 9cd0 e0bc 3273 da3c
00000120: 9941 873c d21b cb3b 078d 273d 6d02 673c
00000130: 04aa c4bb 231e a13c 8180 2abc f577 203c
00000140: 78a1 2b3b 1b72 b7bb 8f21 fc3b 8a71 39bc
00000150: ec83 433d 1869 803c 26a6 f33b 0797 f43c
00000160: 469f b53b fd1a 5d3c 1812 6f3d a526 093d
00000170: 97d3 e63a 1914 b13c 6843 083c 563d 20bc
00000180: 24f1 26bd f82b efbc 5d8d dbbb 3231 553c
00000190: d735 903b 371b bfbc 20b8 893c 1348 bdbb
000001a0: f026 a33c cc7c 383c ac74 aa3c 0c11 1b3d
000001b0: ecce babb e423 1abd fde3 a23c b596 b13c
000001c0: 6169 05bc 5e96 483b 2637 d6bc 5ea7 81bc
000001d0: 9a55 1ebc 9b7f 41bb 6b5c eb3b 4f1e 533b
000001e0: 0c7a a23c 4f5d ed3a d17f c2bb dc36 b1bb
000001f0: 7360 aabb 078c fabc e05e 7ebc 0d52 a33c
00000200: b5ec 53bc 2576 f93b 8966 303c b8c4 c4bc
00000210: fe20 7bbb a143 2bbd abf1 a23c 5509 14bd
00000220: 9b1d fb3b 4959 74bc 1b79 20bd 4d7b 9cbc
00000230: 592c 373c 52c7 b4bc 5f00 0fbd ec48 c3bc
00000240: 1f9a 07bb 1ee9 a139 99cc 12bc 187e 9e3c
00000250: 1e7d 37bc 4001 543b 4217 a53c a9bf 1b3d
00000260: 2d26 0abd 4cf9 153d 0866 79bc c9bb d03b
00000270: ce8b 033d e2dc 773c ae12 1e3c 7bac 15bd
00000280: e226 6a3d 559f 30bb ba26 30bd 4d01 c0bc
00000290: fc3a 1abb 8d1e de3c 73f7 ab3b 6970 9cb9
000002a0: 3f90 423d bcee aebb 65ef d8bc 4e66 e5bb
000002b0: e0c2 af3c befb 32bc 6315 943c e4b0 f43c
000002c0: 256e 1e3d 3d77 4fbd 6d3a 73bc 2205 a73c
000002d0: 6629 f8bc bdf7 39bc e628 c9bb f21d cbba
000002e0: 45c9 29bb 663b 4c3d e845 b5bc 08e3 36bd
000002f0: 8b24 00bd 3861 983c e7aa a93c e6f7 0c3d
00000300: 6125 3e3b 5212 ad3c 6ead c33b fdd1 da3c
00000310: 4aed f33c 4f5e 7c3b 6007 033d 5ebe cbbc
00000320: f2ed 953c 12ae 5fbc 94b8 e53c 3c42 4f3b
00000330: ab3a b63a f142 6abd c47e 183c d7de 0dbc
00000340: ff80 c1bc 229f 48bc 6a49 1ebd a7ec 3cbd
00000350: 8fdc d23c f774 5b3c de0b 84bc 46aa 9bbc
00000360: dc84 813b 13e7 ffbc 5bca 03bd 3a9a 973a
00000370: 9795 1cbc 794b 083c b5ca 863c ed9c 1dbc
00000380: ea4c 18bc b3fe 05bd 01f9 39bc 1e83 bebc
00000390: 15eb 38bb 28aa e0bc 9afb 0c3d 24ad 4bbc
000003a0: 0da9 1f3c 5811 1e3c a07a f13c 5ed6 05bd
000003b0: a1e7 253d a1c2 093c b340 1c3d 7e3c cd3b
000003c0: 537f 403d c864 193c 9898 203c 1ae3 9abc
000003d0: 8c56 c9bc b30e 8cbc f812 b43c 80d8 393b
000003e0: ba94 343c 42ee f8bc 7d49 8ebc ffa6 84bc
000003f0: b123 fa3c 8675 1f3c b741 573c 37d3 f8bc
0.0089576095 -0.049837098 -0.014493914 0.01990429 -0.0105664525 0.03446539 0.018523442 0.02318553
-0.029010804 -0.0046177013 0.012410052 0.030078446 0.0047232276 -0.02824276 0.009483387 0.0049230442
0.03394691 0.021638922 -0.0308201 0.021562146 -0.0021962163 -0.020298231 0.010047257 0.0076214145
0.009119564 0.0051341527 -0.017227087 -0.006651178 0.013924701 -0.018881116 -0.067089655 0.025812015
0.015788129 0.0003673265 -0.0061027417 -0.057816915 0.015011095 0.037153408 0.020220341 0.023800923
0.002513836 0.067667305 0.03203211 -0.0068714987 0.012797174 0.002092327 -0.016551271 -0.004534543
0.021613667 0.012141744 0.057256367 0.01051247 -0.034156054 -0.015754322 -0.046692938 0.018075118
0.01487287 0.044123337 0.02662295 -0.06594315 0.027771145 -0.015577737 0.028463637 0.0060434984
-0.0073061916 0.010380105 0.02169933 0.032879263 -0.018113995 -0.032599244 -0.027443223 0.026666258
0.016510772 0.006198385 0.04090598 0.014099699 -0.0060017128 0.01966769 -0.010406614 0.009794225
0.0026188772 -0.005598319 0.00769443 -0.011318574 0.047733232 0.015675113 0.007435578 0.029857172
0.0055426685 0.013495204 0.058366865 0.03348412 0.0017610666 0.021616029 0.008316852 -0.009780249
-0.040757313 -0.02919577 -0.0067002014 0.013012217 0.0044009495 -0.023328407 0.01681143 -0.005776414
0.019916028 0.011260223 0.020807587 0.037858054 -0.0057009365 -0.037631884 0.019884104 0.021678308
-0.0081428 0.0030607204 -0.026149344 -0.015826877 -0.009663964 -0.0029525522 0.007182648 0.003221411
0.019833587 0.0018109473 -0.005935647 -0.005408151 -0.005199486 -0.030584348 -0.01552555 0.019936586
-0.012934853 0.007612961 0.010766634 -0.024019584 -0.0038319225 -0.041812543 0.019890627 -0.036141712
0.0076634414 -0.014913865 -0.039177995 -0.019101763 0.011180007 -0.0220677 -0.034912463 -0.023838483
-0.0020691229 0.00030882 -0.008959913 0.019347236 -0.011199264 0.0032349378 0.020152692 0.03802458
-0.033727814 0.0366147 -0.01522208 0.006370042 0.03211575 0.015128346 0.009648008 -0.036541443
0.057165988 -0.0026950438 -0.043005683 -0.02343812 -0.0023533693 0.027114177 0.005248004 -0.0002983839
0.047500845 -0.005338518 -0.02648134 -0.007000721 0.021455228 -0.010924278 0.018076604 0.029869504
0.03867926 -0.050650824 -0.014845473 0.02038819 -0.030293178 -0.011350569 -0.0061389087 -0.0015496595
-0.002590732 0.049861334 -0.02212806 -0.044650108 -0.03128485 0.018601045 0.020711375 0.034416102
0.0029013979 0.0211269 0.005971602 0.026711458 0.029776234 0.003850836 0.031989455 -0.024871048
0.018301938 -0.013652341 0.028042115 0.0031625172 0.0013902982 -0.057192747 0.009307567 -0.008659086
-0.02362108 -0.0122449715 -0.03864423 -0.046124127 0.025739936 0.013394586 -0.01611894 -0.019002091
0.0039526056 -0.031238114 -0.032175403 0.0011566349 -0.009557149 0.008318775 0.01645408 -0.009619934
-0.0092956815 -0.032713603 -0.011350871 -0.02325588 -0.0028216292 -0.027424887 0.034419633 -0.012431417
0.009744895 0.00964769 0.029477417 -0.03267514 0.0405041 0.00840822 0.03814764 0.0062633147
0.046996426 0.009362407 0.009802006 -0.018907119 -0.024577402 -0.017096853 0.021981701 0.0028357804
0.011021787 -0.030387048 -0.017369026 -0.016192911 0.030534597 0.00973261 0.013138226 -0.030374153
