mete_aerial_gym_simulator/rl_training/cleanrl/runs/quad__ppo_continuous_action__1__1688998548/latest_model.pth (torch, 564158 bytes, 12 tensors)

actor_logstd f4 [1, 4]
000000 ae 18 d6 be 75 a5 bf be f4 a1 8f be c5 df 9f bd
       -0.41815704 -0.3743092 -0.28053248 -0.078063525

critic.0.weight f4 [256, 13]
000000 69 ff cd 3d d9 f7 8f bd 4f 3a 08 be 8f 64 cb 3e
       0.10058481 -0.07029695 -0.13303493 0.39725158
000010 0f 9c 29 bf 04 8b e8 bd ad 7e 1e be db c2 c2 bd
       -0.6625375 -0.1135464 -0.1547801 -0.09509822
000020 a0 1b 1d 3c d4 ff f7 bc 9a 74 7e bd 6c d3 d1 bd
       0.009589106 -0.030273356 -0.06212292 -0.10245404
000030 06 ca 92 3d c8 1c 82 bd 71 ff 9b 3d f6 17 1e 3e
       0.07167439 -0.06353146 0.07617081 0.15438828
000040 3e 78 04 3d e8 80 d4 3e c1 6f 11 3f 05 64 3c bd
       0.032341234 0.41504598 0.5681115 -0.045993824
000050 dd ea b9 3d 2c 90 31 3e ac c8 7e 3d 2b 00 fe bd
       0.09078 0.17340153 0.062203094 -0.12402376
000060 46 45 bd 3d fa 52 79 3d 62 44 76 3d 36 eb f4 bd
       0.092417285 0.06087015 0.06012381 -0.119589254
000070 45 8a 95 3a 15 23 7a 3f a4 c9 b8 3e 1f 58 80 be
       0.0011409005 0.9770978 0.3609134 -0.2506723
000080 01 3c 23 3e 9f 85 8e 3d 31 b6 4b be 17 23 4f bd
       0.15940858 0.0695908 -0.1989372 -0.050570574
000090 60 11 2e 3d 96 e1 3d 3d 3f 31 70 bd 9c 57 2d 3d
       0.04249704 0.046357714 -0.058640715 0.04231988
0000a0 40 cb 7c 3c 72 2a b5 3d 68 02 89 bf bf 8c 6f bd
       0.015429318 0.088459864 -1.0703859 -0.058483835
0000b0 15 04 09 bf b7 cf 54 be 86 be 2c bd e6 cf 34 3d
       -0.53521854 -0.20782362 -0.042173885 0.04414358
0000c0 71 fe 47 bc 4d 93 3f bd c5 71 89 3c e2 c1 4f bd
       -0.01220666 -0.046771336 0.016777882 -0.05072201
0000d0 9f 8c 1a 3c a3 9c 60 3e f7 80 59 3c 9f 54 9f bf
       0.009432941 0.21934752 0.0132753765 -1.2447699
0000e0 ce ae 91 bd 9f b4 47 bc 33 17 21 be 07 07 c7 bd
       -0.071134195 -0.0121890595 -0.15731506 -0.09718137
0000f0 fb 16 37 3d 27 7d cc 3d 77 26 fb bc 8e 57 05 bd
       0.04469965 0.099848084 -0.03065799 -0.0325542
000100 ca 6b 44 3d 00 50 83 3d a0 57 db 3e 54 91 8c bd
       0.04795436 0.06411743 0.4284029 -0.06863657
000110 a8 3b 57 3e a0 d3 2f 3f 8d 52 4f 3e 6d 79 93 be
       0.21018851 0.6868229 0.20246334 -0.28803578
000120 60 e5 ef 3d 71 b1 08 bc 86 b4 84 3d 8c 5c 6f 3c
       0.11713672 -0.008343087 0.064797446 0.014609467
000130 58 0a b7 3d 2a fe 78 bd 24 e0 f5 3d 24 a9 37 be
       0.0893752 -0.060789265 0.12005642 -0.17935616
000140 4c a1 ca 3d 87 da 80 3e 33 3e af 3e 0c 86 8b be
       0.09894046 0.25166723 0.34227142 -0.27250707
000150 b9 bd 96 bd 0e 64 6a 3d 60 fe bc 3b 86 52 14 3e
       -0.073604055 0.057224326 0.0057676286 0.14484605
000160 63 7c f9 bc 64 86 43 3c 1e 90 5d 3c 98 6a 82 3e
       -0.03045482 0.011933897 0.01352313 0.2547195
000170 ed 86 82 3c 8e 8e 8c 3d ba f7 51 be 85 49 c2 3d
       0.015933478 0.06863128 -0.20504656 0.09486679
000180 b0 c6 27 bf 16 3a 44 be 45 c9 28 3d c5 e8 46 3d
       -0.6553755 -0.19162783 0.04120757 0.04856183
000190 59 24 f4 3b 27 84 4f 3c fb 0d 05 bc b5 34 cd 3d
       0.007450622 0.012665785 -0.008121009 0.10019819
0001a0 9a 50 56 be 36 0d 6d 3e b2 82 cd bd 24 ef 02 3f
       -0.20929185 0.23149571 -0.10034694 0.5114615
0001b0 ac 3d 0f 3e 16 ee 0a 3f 9c 72 42 be 55 9d cf 3d
       0.1398837 0.5426954 -0.18989033 0.101374306
0001c0 66 91 b9 bc 2b b3 13 3e 79 ff 8c 3d 7e ae 71 bd
       -0.02265234 0.14423816 0.06884665 -0.0590043
0001d0 26 44 47 3e 7d f0 eb bd 8f fc 8b bd 1a 38 17 3e
       0.1945959 -0.11520479 -0.06835281 0.14767495
0001e0 0b 5f fc bd 2d 4e 08 bf 3e c4 08 3e bc 57 46 be
       -0.123228155 -0.53244287 0.1335611 -0.19369406
0001f0 0d e6 d0 bd b0 08 0c 3d 91 de 93 3c 27 7f dc bc
       -0.10200129 0.034187973 0.018050464 -0.0269161
000200 a6 9d ec ba 84 38 90 3d 55 09 bc be 74 5d ed bd
       -0.0018052354 0.070420295 -0.3672587 -0.115900904
000210 c8 8f 2c be c0 9b 31 3d c8 3e 0d 3c ca 3b 0a 3f
       -0.16851723 0.043361425 0.008620925 0.5399748
000220 a7 f8 73 3e f5 15 5a 3d 54 cd e3 3b 24 f8 c1 3a
       0.23825322 0.053243596 0.0069519673 0.0014798683
000230 04 64 79 3c 07 65 de 3d fe 36 e0 3d 6f 72 90 be
       0.0152215995 0.10859113 0.10947989 -0.28212306
000240 2b c8 c5 be 2b 3d 4c 3e 2c 34 01 3f 01 1a 42 bf
       -0.3862928 0.19945209 0.5047023 -0.7582093
000250 24 47 05 3f 9e ed 9f 3d aa 39 5e bd 50 d9 43 3c
       0.52061677 0.07808994 -0.05425421 0.011953667
000260 ee 5e 5c 3d a2 95 5d bd 04 83 39 bd 8f e1 d5 bd
       0.05380147 -0.05409778 -0.04529096 -0.104434125
000270 72 80 b4 bd c5 bd 25 3e 6d 1f 14 3e 2d 00 3c 3f
       -0.088135615 0.16185673 0.14465113 0.7343777
000280 a9 7a 20 be 0e c5 52 3e d4 9c 28 be fe 3f 83 bb
       -0.15671791 0.20582983 -0.16466075 -0.004005431
000290 aa 6b 4e 3e 2b 32 74 3d b8 b0 30 bd f7 1d b8 3b
       0.20158258 0.059618156 -0.043137282 0.0056188065
0002a0 72 e2 c7 3c 05 cb 21 3e 51 da 45 3e 58 74 ce 3c
       0.02439997 0.15800102 0.19321562 0.025201961
0002b0 9d 5d 87 bf f4 9b 97 3e 35 92 bb 3e 5c 25 a4 bd
       -1.0575444 0.2961117 0.36634985 -0.08014938
0002c0 39 9f c6 3c 22 69 e6 3d c9 bb 2d 3e b5 c8 2a be
       0.024245845 0.11250521 0.16966166 -0.16678126
0002d0 00 67 90 3d b6 a2 a5 bb 2b ae 43 3d b8 fc 28 3e
       0.07050896 -0.005054797 0.04777352 0.16502655
0002e0 9e a2 bb 3c a3 8c 98 be 05 e3 7f be 3c 6e 50 be
       0.02290469 -0.29794797 -0.24988945 -0.20354551
0002f0 a2 ca 1b be 8e 8d 82 3c 63 fd 1c 3e 92 69 bf 3b
       -0.15214017 0.01593664 0.15331034 0.0058414424
000300 57 51 ce bd 97 40 f0 ba ce 27 93 3a 57 3c 55 3c
       -0.10074108 -0.0018329796 0.0011227073 0.013014874
000310 d2 4f 8c 3e 50 a9 dc bd 25 96 16 bf ae 10 3c 3f
       0.27404648 -0.10774481 -0.5882285 0.7346295
000320 1b 62 4d be 8e 4b 1c be 88 e0 f2 3c e1 4b 18 3e
       -0.20056956 -0.15263197 0.02964808 0.14872696
000330 e0 f4 29 3d 98 23 88 3d e4 58 a2 3c 70 75 04 bd
       0.041493297 0.06647414 0.019817777 -0.03233856
000340 93 87 3c be 8e bb 6a 3b 97 d0 df 3d 0d 26 52 bf
       -0.18411092 0.0035817358 0.10928457 -0.8208931
000350 a0 96 9c be 3b 6a a8 3e 05 59 39 be d0 78 86 bd
       -0.30583668 0.32893547 -0.18100365 -0.06566012
000360 1b df f0 3d 71 00 19 3d cf 1a 96 bd 29 d1 28 bc
       0.11761304 0.037353937 -0.07329332 -0.010303774
000370 a8 c5 76 3d 8f 56 f4 3d d4 ad 15 3e 70 49 00 3e
       0.060247093 0.11930572 0.14617091 0.12528014
000380 73 54 b8 be 45 ea 7f 3e 7c 14 b2 be 80 95 98 be
       -0.3600193 0.2499171 -0.34781253 -0.2980156
000390 47 44 2e 3c da 11 4c 3d 90 6e 43 3c 97 30 96 bc
       0.010636396 0.049821712 0.011928216 -0.018333716
0003a0 65 e9 4b bd d4 ab 8c 3e b3 96 32 3e 8b 7d c2 be
       -0.04978313 0.27474844 0.174403 -0.37986407
0003b0 aa f9 ca bb a4 56 90 3f 50 36 8a 3d e4 71 41 be
       -0.006194313 1.1276441 0.067486405 -0.18891102
0003c0 d5 d9 fc 3d 08 d5 51 3d 7d a8 3a be ca f8 de bc
       0.12346236 0.051228553 -0.18228336 -0.027218241
0003d0 12 97 8a 3d 2f d2 32 3d bc eb 77 bd b0 1f 33 3e
       0.067670956 0.043657478 -0.06052755 0.17492557
0003e0 15 8a b8 be 23 00 93 3e 6f 38 2e 3f a6 f6 ba 3e
       -0.36042848 0.28711042 0.6805486 0.36516303
0003f0 6e 15 14 bf 46 31 86 3d 73 91 b7 3b f0 38 cb bd
       -0.578452 0.06552367 0.0056020557 -0.09922969

critic.0.bias f4 [256]
000000 48 52 c0 bd b2 cf 65 bd cd 58 c7 3d 17 d7 fe bd
       -0.09390694 -0.056106277 0.09733734 -0.12443369
000010 94 cf 51 bd 3d fc e4 bd 2e ec c1 bd 07 a2 a4 bd
       -0.051223353 -0.11180923 -0.09468876 -0.08038717
000020 fe 95 ed bd 64 f9 50 bc cc c9 0d 3e 51 1d 01 3d
       -0.11600874 -0.012754772 0.1384651 0.0315221
000030 4e 1b 85 bd 33 9c 10 bd 23 e3 99 bd 63 f6 54 bd
       -0.064993486 -0.035305213 -0.07514026 -0.051992785
000040 89 26 0d bd d4 61 b4 bd 6b e0 2b 3d 03 c1 07 bd
       -0.034460578 -0.08807722 0.04196207 -0.033143055
000050 72 49 00 3d f9 6e f0 bd fd ed 30 be f9 a6 1d be
       0.031320043 -0.11739916 -0.17278285 -0.15395726
000060 55 73 85 bd ef 2d bf bd 9d ac ae 3d c8 0a 65 bd
       -0.065161385 -0.09334933 0.08529017 -0.055918485
000070 58 cb 11 3e 3c 6d 91 3d b3 7b 84 bd f6 5a da bd
       0.14237726 0.07100913 -0.06468906 -0.10661881
000080 55 03 8e 3d f5 69 dc bd 59 56 8f bd c4 38 cb 3d
       0.06934229 -0.10762397 -0.069988914 0.099229366
000090 2b c3 45 be 53 d1 dc 3c cb 5c 91 bd 1f 7c 5f be
       -0.19312732 0.026955282 -0.07097777 -0.21824692
0000a0 a1 0f e3 bd a0 6e 12 be c2 18 c5 bd 25 b9 29 bb
       -0.11086965 -0.14300013 -0.09623863 -0.0025897708
0000b0 76 42 70 bd a3 23 66 bd 24 8a ea 3c 08 15 01 3e
       -0.058657132 -0.05618633 0.028630324 0.12605679
0000c0 d5 8f 7d 3d 7d 4e 87 3e 58 5e be bd 91 82 b5 3d
       0.061904747 0.2642707 -0.092953384 0.08862794
0000d0 30 69 9a bd 0d 9a 0e bd dd 24 e3 bd e6 b0 5d bc
       -0.07539594 -0.034814883 -0.110910155 -0.013530945
0000e0 be e2 75 bd 3c e6 55 be 84 97 ce bc b2 5e 31 3c
       -0.06003069 -0.20888609 -0.025218733 0.0108258
0000f0 d6 49 c5 bd c7 52 bd 3b a8 8f 7b bd 1f ca 2d 3d
       -0.09633224 0.00577769 -0.0614163 0.042429086
000100 11 48 a0 3d 98 c4 19 bc b4 fd 44 3d fc b6 aa bd
       0.078262456 -0.0093852505 0.048093513 -0.08335683
000110 1f 24 43 3d 4f 89 85 bd 54 06 6f 3c db 95 bf 3d
       0.04764187 -0.0652033 0.014588911 0.093547545
000120 dc 43 d1 3d a0 8d 0b be b3 d3 c8 bd fb 2a 15 bd
       0.10218021 -0.13628244 -0.098060034 -0.036417942
000130 21 1a 2c 3c 62 91 a1 bc 42 66 5d bd 4a bc ed bd
       0.0105042765 -0.019722644 -0.0540526 -0.11608179
000140 69 24 92 bd 41 4b db bd 00 75 2b bd e3 2e a1 3b
       -0.07135851 -0.10707713 -0.041859627 0.0049189194
000150 42 92 ab 3d 4a a6 14 3e 0b a1 05 be d7 ee 75 3d
       0.08377506 0.14516559 -0.13049714 0.06004223
000160 c0 ea b9 bc 5f ac 46 bd 7a db 25 3d e7 ec 59 3d
       -0.022694945 -0.04850423 0.040492512 0.053204443
000170 fc 1e 9b 3d 29 69 43 be 68 31 95 bd a3 01 bd bd
       0.07574269 -0.19083084 -0.07284814 -0.09228828
000180 13 5f 0b 3e 12 ed c7 bd e7 17 e3 3c 23 2b 8b 3d
       0.13610487 -0.097620144 0.027721358 0.06795337
000190 a6 2d 7e 3d 58 fc c0 3d f2 63 fc 3d 32 29 52 3d
       0.062055252 0.09423131 0.123237506 0.05130882
0001a0 0d ea c3 bd fc 42 ff 3c 0d 45 08 3c 7d 13 5e bd
       -0.09566126 0.03115987 0.008317244 -0.054217804
0001b0 77 1e fa bb d1 1e 60 3d 30 0d 15 bd 3e 00 9f bd
       -0.007633026 0.05471689 -0.03638953 -0.07763718
0001c0 d4 8c de bd 0f bc ba 3b 4e 08 41 3d 16 36 ae bc
       -0.108667046 0.005698688 0.04712706 -0.021266025
0001d0 60 cd 49 3e f0 e4 09 bd ca e8 6b 3d 97 94 0b be
       0.1970725 -0.033665597 0.05759505 -0.13630901
0001e0 4e 22 db 3d 2c 83 91 3d 3b 60 0c bd d4 16 06 bc
       0.106999025 0.07105097 -0.03427146 -0.008184154
0001f0 7d 55 60 3d 33 54 a5 3d c0 49 b4 bd 68 a9 92 bd
       0.054769028 0.080727 -0.08803129 -0.07161218
000200 07 83 c8 3d e4 5f 09 3e 7b 41 64 bd 09 c1 01 3e
       0.097906165 0.13415486 -0.05572651 0.12671293
000210 66 ab b7 bd 04 9b 70 ba ff 1d 79 bd 3f a0 1d be
       -0.089682385 -0.00091783726 -0.060819622 -0.1539316
000220 9c e6 8e 3d f7 1f d8 bd 1e 1c 3a bd 70 95 e7 bd
       0.06977579 -0.10552972 -0.04543697 -0.113078
000230 c4 2e 96 bd 78 15 1b 3d 83 0a 1c bd bd 7d 46 bc
       -0.073331386 0.03786227 -0.038095962 -0.012114939
000240 b2 33 bd 3d 6a 01 80 bd 63 7d 09 3d 3c 78 c0 bd
       0.09238376 -0.0625027 0.033566844 -0.09397933
000250 6b 8c 7c bd d5 bd 71 be 65 9d e2 3c 0f 98 bb bd
       -0.06165735 -0.23607571 0.027662942 -0.09159862
000260 45 04 51 bd a8 d5 5c bd c0 a7 9a 39 82 f3 fc 3d
       -0.051029462 -0.053914696 0.00029498152 0.12351133
000270 ab 37 52 bd c5 74 93 3d 3e 6f 4b 3c 0c 0a 90 3d
       -0.05132262 0.072000064 0.012416659 0.07033166
000280 b2 da 25 3e 0d 4b f3 b9 9b 60 da 3b cb 07 aa 3d
       0.16196707 -0.0004640449 0.0066643483 0.08302268
000290 62 ad 5b bd 9b 91 0b be 8f de 9a bd 74 f6 eb bd
       -0.053632148 -0.13629763 -0.07561981 -0.115216166
0002a0 98 60 d1 bd de 5b 06 be 54 1a 5e 3d 52 9f bb bc
       -0.10223502 -0.13120982 0.054224327 -0.022903118
0002b0 a8 67 0e 3e cd 09 81 bd 87 1e e7 bd 80 04 9c 3d
       0.13906729 -0.063006975 -0.112851195 0.07618046
0002c0 2b 61 93 3d 25 ea 92 3d 26 4a 8f 3d 7e 35 d4 b7
       0.07196268 0.07173566 0.069965646 -2.5297279e-05
0002d0 a9 d2 82 bd 60 ab 8b bd da 9d 32 3d d6 ea 72 bd
       -0.063878365 -0.068197966 0.04360757 -0.05930599
0002e0 ba 8e 03 be 6f 19 69 bd 76 e4 09 be 53 75 02 bd
       -0.12847415 -0.05690902 -0.13466057 -0.03185017
0002f0 53 61 91 bc e2 53 d4 3d 08 6f 06 bd e2 fc 86 bc
       -0.017746603 0.10367562 -0.03282073 -0.016478006
000300 bb 10 8d bd e9 31 22 be 6a 20 71 3d 05 ce 4c 3e
       -0.06887957 -0.15839352 0.058868803 0.20000465
000310 f2 e5 85 bd 9a 22 52 be 2a 42 2a 3e 7b c3 4a ba
       -0.06537999 -0.20521012 0.16626802 -0.00077348173
000320 8a 46 c1 3d f6 0c 00 3d d6 2c dc 3c 02 d4 ff 3d
       0.094372824 0.03126236 0.026876848 0.12491609
000330 3f cd b1 bd 93 17 87 3d bd ec 28 be 0a eb fc bd
       -0.08681726 0.06596293 -0.16496558 -0.12349518
000340 5a 2d 8b bd 2d 1c 9b 3d 04 89 e7 3d 14 0c 96 bc
       -0.067957595 0.075737335 0.113054305 -0.018316306
000350 7b 48 55 bc bb b1 b7 3d bd 36 fd 3d 67 e7 9d 3d
       -0.013017769 0.08969446 0.12363956 0.07710152
000360 17 0d d7 3d 05 30 93 bd e4 5b cc 3d d2 a6 ec 3b
       0.105005436 -0.071868934 0.09978464 0.007222035
000370 64 ed af bd 81 13 d7 3c f4 ea 2c bd 0b 35 59 bd
       -0.085902005 0.026254417 -0.042216256 -0.0530291
000380 8b 4f be 3d 4c 39 ad bd ea 65 c2 3d c6 ab 06 be
       0.09292515 -0.08458194 0.09492095 -0.13151464
000390 97 12 38 3c 06 68 12 be 9e fb 90 3d b3 b6 98 bd
       0.011234901 -0.14297494 0.07079242 -0.07456722
0003a0 93 6d 2d 3c a3 19 ef 3c e5 13 1e be 92 b9 ab bd
       0.010585207 0.02918703 -0.15437277 -0.08385004
0003b0 47 9d 68 3d 06 92 d9 bd 6c 1d 3d 3c 4b 66 83 3d
       0.056790616 -0.10623555 0.011542659 0.06415995
0003c0 26 4f 44 3d 3a 91 a5 bd 41 d1 7e 3c 73 b8 12 3e
       0.047927044 -0.080843404 0.01555282 0.14328174
0003d0 eb 14 04 3b c9 db 12 be c1 bb 35 bc e5 f8 13 bd
       0.002015407 -0.14341654 -0.011092127 -0.036126036
0003e0 9b 18 65 bd 72 a9 1b bd 4f 52 09 bd bd b8 28 3e
       -0.05593167 -0.038003393 -0.03352576 0.16476722
0003f0 06 28 3b bd fd c5 72 3d 23 74 29 bd 6c e5 e5 bc
       -0.045692466 0.059270848 -0.041370522 -0.028063498

critic.2.weight f4 [256, 256]
000000 29 51 c3 bd a7 b8 30 bd ec 61 05 3e 7c 11 b6 bd
       -0.095369644 -0.04314485 0.13025635 -0.08890054
000010 ba 65 4a be f8 1f 38 bd 49 d0 8c bd 8c 19 93 3c
       -0.19765368 -0.044952363 -0.06875665 0.017956518
000020 82 6b 22 be 61 81 13 bd 29 6b de 3b 8c c0 30 be
       -0.15861323 -0.036012057 0.006787677 -0.17260951
000030 0f dc d6 bd 50 77 3c be 32 31 fd bd cc 53 a2 3d
       -0.104911916 -0.18404889 -0.12362899 0.07926139
000040 92 23 4b be a1 56 02 bd 51 df 10 bd 35 b8 02 3e
       -0.19837788 -0.031820897 -0.03536922 0.12765582
000050 46 58 08 3c 08 63 87 bc e9 59 c4 bd 19 6f 13 bd
       0.008321827 -0.016526714 -0.095874615 -0.035994623
000060 c5 c3 7f be 3f ef 0b bc a7 06 dd 3c 5e 9a 8f be
       -0.24977024 -0.008540927 0.026980711 -0.2804746
000070 e8 64 28 3e d0 8b 0b 3e c5 97 32 bd 3f 3e 48 ba
       0.16444743 0.13627553 -0.04360177 -0.000763867
000080 f2 8f a0 bd e6 ed 76 bc 3e 99 02 bc d0 2f b3 3d
       -0.078399554 -0.015071368 -0.007971106 0.08749354
000090 43 09 80 bd 6a 2a 21 3d 11 4f c8 3d 00 18 64 3b
       -0.062517665 0.03934709 0.09780706 0.0034804344
0000a0 61 7b 39 be d7 7b a4 3b 79 52 7d 3c dc 51 e3 3d
       -0.18113472 0.0050196457 0.015461558 0.11099598
0000b0 e3 2a e1 bd 23 88 d6 bd ff 49 83 bb 47 9f 73 bc
       -0.10994508 -0.10475185 -0.0040066238 -0.014869518
0000c0 77 bf 2d be 70 e8 1a 3e ac 4d 38 bd 19 e5 d3 3d
       -0.1696757 0.1512773 -0.04499595 0.10346431
0000d0 8c 64 f3 bd 82 3c 35 bd ff 06 77 be f1 2a d2 3d
       -0.11884412 -0.044247158 -0.24123763 0.10262097
0000e0 d8 8c 48 3d 4e f7 ec bd dd b0 c8 bd bc 32 a8 bc
       0.048962444 -0.11570607 -0.09799359 -0.020532005
0000f0 7b 58 3e be dc e0 d7 3c ed c4 df 3d e8 06 5d 3e
       -0.1858844 0.026352338 0.109262325 0.21584666
000100 e3 54 78 3e 02 ff be 3d ac b9 82 3e 48 5d c6 bd
       0.24251132 0.09325983 0.2553228 -0.09685761
000110 6f 3a c6 3c 94 e8 62 3d e1 d8 48 3e 66 13 9b 3e
       0.024197785 0.055397585 0.19613983 0.30288237
000120 3e c5 63 bd c0 24 6c be 93 32 05 be 3a d3 92 be
       -0.055608027 -0.23060894 -0.13007574 -0.28676778
000130 ad d9 c6 3b 56 c2 5b bd ad 68 1e bd e5 63 9d bc
       0.0060684294 -0.05365213 -0.038674045 -0.019212672
000140 ca 97 dd bd 49 9b e6 bd 79 0d fb bb 8d 97 82 be
       -0.10819967 -0.11260087 -0.007661518 -0.2550625
000150 6e 64 4c bd 22 dc 78 3d 88 07 38 bd 67 d9 61 bd
       -0.049900465 0.06075681 -0.044929057 -0.05513897
000160 49 3a 29 be 3c 9c 01 3d 1c f5 e5 3d 5c 38 23 3c
       -0.1652614 0.031643137 0.112283915 0.009962168
000170 79 1d a1 3e a7 c3 b3 bd e1 4c dc be c9 16 e2 bd
       0.31467798 -0.08777552 -0.43027404 -0.11039502
000180 d0 47 f9 3c 44 6f 5f be 6e 1a 6e be 63 72 d5 3b
       0.03042975 -0.21819788 -0.2325227 0.00651388
000190 56 6e 1b 3c b7 26 f3 bc bb 2f bc 3b cb 56 7b 3e
       0.009486755 -0.029681547 0.0057429946 0.24544828
0001a0 4e 9b d8 bd 44 9c 2d bd 3d 93 13 3e 8b b4 12 be
       -0.10576497 -0.042385355 0.14411636 -0.14326684
0001b0 fc b3 86 bc 41 80 f6 3c a1 e8 a3 be bf c3 06 be
       -0.016443245 0.030090453 -0.3201342 -0.13160609
0001c0 09 4f 19 be 20 2b 8f bc 89 9e cd 3d e8 f7 fe bd
       -0.14971556 -0.017476618 0.10040004 -0.12449628
0001d0 c4 e1 45 3e d1 bf c1 3d c7 5a 38 3e cd a6 09 be
       0.19324404 0.09460414 0.18003379 -0.13442536
0001e0 74 d8 af 3e df 0c b1 3c 2e 71 2e 3e 37 0d 2e 3e
       0.34344828 0.021612583 0.17035362 0.16997229
0001f0 27 34 8d bd 5a cf 6c 3d 67 94 27 be d6 04 56 bc
       -0.06894713 0.057814933 -0.16365205 -0.013062676
000200 55 4a 9d bd 80 1d 5a bc 0f 12 85 3c 28 04 f2 3c
       -0.07680193 -0.013312697 0.016243963 0.029542997
000210 4a 05 c8 bd 8e b0 20 be 53 84 b8 bd 62 9a 02 3d
       -0.09766634 -0.1569235 -0.09009614 0.031885512
000220 7c 44 63 3e e5 cf 40 3c f7 b7 91 3d f3 c7 43 be
       0.22194093 0.011768316 0.07115167 -0.19119243
000230 7e 3d c6 bc 90 1d 7f 3c 45 e1 6b bd 2d ef 8b 3d
       -0.024199244 0.015571013 -0.05758788 0.068327285
000240 93 35 2a 3e 6b bb 0c be 6c 51 4b 3e d6 e4 84 be
       0.16622 -0.1374337 0.19855279 -0.25955838
000250 51 9e b2 be 6a f1 11 be 00 88 a4 3d 92 50 cf bd
       -0.3488641 -0.14252248 0.080337524 -0.101227894
000260 47 db d7 3d 5e 61 d5 3d 82 2d 29 be e6 3f 52 3d
       0.10539871 0.10418962 -0.16521266 0.05133047
000270 f9 1f a1 3d ef 56 4c 3e b3 b5 03 be 52 f8 a6 3d
       0.078674264 0.19955038 -0.12862282 0.08152832
000280 87 40 98 3d ae b7 2f 3e d9 d0 8b bd 58 60 2e 3e
       0.074341826 0.17159912 -0.06826944 0.1702894
000290 b2 4b 64 be bb ad f3 bc c6 27 2d bc a9 df 8e 3d
       -0.222945 -0.029745927 -0.010568565 0.069762535
0002a0 f1 e1 30 3e 57 bc 92 bc bb 5d ec 3c 77 5d b2 3e
       0.1727369 -0.017912073 0.028853288 0.34836933
0002b0 b5 dc c0 3e a0 c3 06 be 3b 74 0b bd cc 7c cd 3d
       0.37668386 -0.13160563 -0.034046393 0.10033569
0002c0 e1 a2 2f 3e 21 28 0d 3c 75 a4 bd 3d 88 b8 9f be
       0.17151977 0.0086155245 0.09259883 -0.31195474
0002d0 80 a3 cd bc c6 72 5a be 99 33 70 3d a1 6b a9 be
       -0.025102377 -0.21332845 0.058642957 -0.33089927
0002e0 17 38 82 3c 40 5f cf bc a4 e7 00 be 8d 27 90 be
       0.015895886 -0.025313973 -0.12588364 -0.28155175
0002f0 9e b1 d2 3c 86 a9 93 3e 9a b3 95 bd e6 03 58 be
       0.02571946 0.28840274 -0.07309647 -0.21095237
000300 76 0e 17 3e 3b 2c 50 bd 44 7d 1e 3e db 72 96 bd
       0.1475161 -0.05082343 0.15477473 -0.07346126
000310 41 e9 77 3d a3 3b 14 bc b4 c7 91 3d 78 70 e4 bd
       0.060525183 -0.009047422 0.071181685 -0.11154264
000320 4d b7 a6 3d 65 43 85 bd a4 08 6e 3e 29 63 0d 3e
       0.081404306 -0.06506995 0.23245484 0.13807358
000330 06 01 0f be f9 b2 62 3d 73 9e d6 3c ac 52 83 be
       -0.13965234 0.055346463 0.026198601 -0.2564901
000340 9d dc bc bd 03 53 4c bd a4 0a c7 3d 9f b5 ea 3d
       -0.09221766 -0.049883854 0.097188264 0.11460423
000350 a0 42 17 be 35 05 3e 3e a8 2b 50 3e 5e 4a ff bc
       -0.14771509 0.18556674 0.20329154 -0.03116339
000360 e4 fb 7f 3e b8 d9 a4 3c 4a b8 25 3e 18 2e ae 3d
       0.24998432 0.020123348 0.16183582 0.085048854
000370 e8 f3 2c be e5 ee 41 3d 10 d7 41 be 66 e0 1a bd
       -0.16889918 0.04734697 -0.18929696 -0.03781166
000380 16 6e 83 3d 94 50 51 be 7e 6f 0d 3e fc 6e 99 be
       0.064174816 -0.20440894 0.13812062 -0.29967487
000390 78 f3 64 bd 4b 0a 71 bd 04 28 3a 3e 9e 48 21 bd
       -0.055896252 -0.058847707 0.18179327 -0.039375894
0003a0 af d1 02 be 78 a0 a7 3d 1c 65 ed bc 6a 72 70 bd
       -0.127753 0.08184904 -0.028978877 -0.058702864
0003b0 cf f1 a2 3d be cc 46 be 8c 33 ce 3d d4 6a 80 3e
       0.079562776 -0.1941404 0.100684255 0.25081503
0003c0 15 ce 25 3d 61 76 7e bd 94 d4 ae 3d 0a 4d 49 bd
       0.04047974 -0.062124614 0.0853664 -0.049145736
0003d0 e1 69 8c bd fc a2 ca bc bd e4 6e bd bc c2 90 bd
       -0.06856132 -0.02473592 -0.05832361 -0.07068393
0003e0 d0 0d 36 be ca 3c 94 be e3 62 ba bd a8 9f 1c 3d
       -0.17778707 -0.28952628 -0.091008924 0.038238198
0003f0 f3 02 9c bd ea 49 a9 3d cf ce 3f be 85 ad 1f be
       -0.0761775 0.08266051 -0.18731235 -0.15593536

critic.2.bias f4 [256]
000000 5b 19 ae 3d b6 cc ef bd 18 71 06 3e c5 88 b1 3d
       0.0850093 -0.117089674 0.1312908 0.08668665
000010 c0 13 20 be d8 ae 15 be 96 78 cd 3d b4 58 39 3e
       -0.15632534 -0.14617479 0.100327656 0.18100244
000020 c2 1c 27 be e9 89 14 be 93 6e 91 be 46 21 23 be
       -0.16319564 -0.14505734 -0.28404674 -0.15930662
000030 92 62 1e 3e 50 ff dc bd 1f 1c 02 3e 53 bd d9 3d
       0.15467289 -0.107908845 0.1270604 0.10631814
000040 7a d3 a1 3d e4 7d 0f be ec ee 0a be bd 67 36 3e
       0.07901664 -0.14012867 -0.13567704 0.1781301
000050 ad 18 42 be de c6 02 3e f2 e2 39 3d 55 a9 06 be
       -0.18954726 0.12771174 0.045382448 -0.13150533
000060 04 7c 05 be 07 58 9c 3d b6 40 02 be ac 56 d5 bd
       -0.1303559 0.076339774 -0.12719998 -0.10416922
000070 15 88 e2 3d 0b dc 19 3e 94 20 ac bd 78 ea 14 3e
       0.11061112 0.15025346 -0.08404651 0.14542568
000080 6e 39 89 3d dc 47 b3 bd e1 4d 27 be d3 0c 1a be
       0.06700407 -0.087539405 -0.16338302 -0.15043955
000090 57 c8 a9 bd 7a c1 20 3d 52 61 a2 bd 52 1d 0e be
       -0.08290165 0.039247014 -0.079287186 -0.13878372
0000a0 0f 8a 11 3e 64 6f cf 3d 86 bd fa 3d fd 00 b5 3d
       0.14212821 0.10128668 0.1224318 0.08838079
0000b0 bc e4 da 3d d1 00 ca 3d 26 0f 21 bd 76 2e 3b be
       0.10688159 0.09863437 -0.039321087 -0.18279442
0000c0 6f d5 0e bd 93 93 1b 3e 61 5b 11 be da 2c b7 bd
       -0.034871515 0.15193014 -0.14195015 -0.08944102
0000d0 b7 19 18 3e 54 29 b6 bd 2f 53 47 bd 3b 8c e7 bd
       0.1485356 -0.088946015 -0.048663314 -0.11306044
0000e0 e9 77 19 be b6 1e 8d bd d3 b6 51 bd 43 08 17 be
       -0.14987148 -0.06890623 -0.051199745 -0.14749245
0000f0 b9 48 75 3d 94 55 de 3d 59 9e 69 be 05 ff d4 bd
       0.059883807 0.108561665 -0.22814311 -0.104002036
000100 40 f3 6e bd 12 6d 96 3d 9c 8a 91 bd 4e 10 a4 bd
       -0.05833745 0.07345022 -0.07106516 -0.08010922
000110 7b 9d 0a 3e b3 bf c7 3d e9 67 dd 3d 7e 43 19 3e
       0.13536637 0.097533606 0.10810835 0.14967152
000120 94 cd aa 3c 66 31 c4 3d ba a3 91 3b 91 cd 18 3e
       0.02084998 0.095797345 0.0044445666 0.14922167
000130 e2 07 5e 3c 23 4b e0 3d f6 e6 b7 3d c7 9a 04 be
       0.013551684 0.10951831 0.08979599 -0.12949668
000140 94 5a c2 3d 34 21 04 3e 6e de 91 bd a5 9d 25 3e
       0.09489933 0.12903291 -0.07122503 0.16173418
000150 58 f6 1e be 20 13 16 3e 2b 17 53 3d aa 70 67 bd
       -0.1552366 0.14655733 0.051535767 -0.05650393
000160 3e 8a c9 bd c8 96 df bd 9a 47 a4 3d 81 52 25 bd
       -0.09840821 -0.10917431 0.080214694 -0.040361885
000170 5b a2 86 bd 53 53 11 be bb b1 16 3e 32 3c b3 bd
       -0.065739356 -0.14191942 0.14716236 -0.08751716
000180 07 7e 14 3e ce ce 97 bd 37 a9 be bd bf 83 86 3d
       0.145012 -0.07412492 -0.09309619 0.06568097
000190 d7 28 c9 bb 06 d2 ea bd 9d 45 d6 bd 19 ed 28 3e
       -0.0061389017 -0.1146584 -0.104624964 0.16496696
0001a0 f8 63 23 3e 64 be 0e be d5 38 31 be df 5c c9 bd
       0.15956104 -0.13939816 -0.17306836 -0.09832167
0001b0 43 03 d9 3d d9 1e ce bd 5e 7e d2 bd e1 85 18 be
       0.10596325 -0.100644775 -0.10278009 -0.14894821
0001c0 31 f9 ad 3d 62 bb fb bd 4c 25 cd bd b0 60 19 3e
       0.08494795 -0.122916 -0.100168794 0.1497829
0001d0 e7 32 b1 3d 55 1b 2d 3e d8 ab ab bd 82 fe b9 bd
       0.08652287 0.16904958 -0.08382386 -0.09081747
0001e0 b8 6c dd 3d 4b 10 91 3d 7c 24 df 3d 01 82 d4 3c
       0.10811752 0.07083186 0.10895631 0.025940897
0001f0 4e 49 de 3d 42 18 f5 3d c7 78 1b be 19 19 bf bd
       0.108538255 0.119675174 -0.15182792 -0.09330959
000200 e0 f4 bb 3d 30 fc df bd 86 93 e6 3d cb 1b 9b 3d
       0.091775656 -0.10936773 0.112586066 0.075736605
000210 e0 9c f6 3c f1 d4 a0 3d 28 10 6b 3d c8 7c 4b 3e
       0.0301041 0.07853115 0.057388455 0.19871819
000220 e3 90 e5 3d c5 2e 1c 3e 8b 35 f4 bd 1c a3 0e be
       0.112092756 0.15252216 -0.11924275 -0.13929409
000230 de 02 1c be f4 9a 98 bd 15 5d 11 3e f5 e6 cb bd
       -0.15235469 -0.0745143 0.14195664 -0.09956161
000240 a2 16 4c be dd db d3 3d 77 8b 21 be cf 1f 80 bd
       -0.19930509 0.1034467 -0.15775858 -0.06256067
000250 3d ff 08 be 98 03 ff 3d 30 a3 e3 3c 85 6b ca 3d
       -0.13378616 0.12451857 0.027787775 0.09883789
000260 77 19 ac 3c d9 dd c4 bc ec 2a f7 bd 2f 29 24 be
       0.021008236 -0.024031566 -0.120687336 -0.16031335
000270 85 22 37 bd be 29 fd bd d6 b6 2c bd be db dd 3d
       -0.044710655 -0.12361477 -0.042166553 0.10832928
000280 6a 0d 75 bd 6c a9 b5 bd 07 87 05 3c cb a0 31 3e
       -0.059827246 -0.08870205 0.008149869 0.17346494
000290 ad 73 d1 3d dc e1 15 be e3 9a 85 3d 1f 93 e7 bd
       0.102271415 -0.1463694 0.06523683 -0.11307358
0002a0 97 bd c4 bd ac 43 f2 3d 28 5e bb 3d 41 82 34 3e
       -0.09606474 0.11829314 0.09148818 0.17627813
0002b0 8e 46 43 3e 76 b4 d0 bd d0 04 c2 3d e1 37 4d bd
       0.19069883 -0.1019067 0.09473574 -0.05010212
0002c0 95 88 43 3e 26 9f 51 bd 48 1e 22 3e 67 e3 c3 3d
       0.1909507 -0.051177166 0.15831864 0.09564858
0002d0 e6 35 09 be 56 99 54 be 17 a5 13 be aa a1 17 3e
       -0.13399467 -0.20761618 -0.14418446 0.14807764
0002e0 cb 0d fe bd f5 a1 13 3e 6a 6c 9b 3d 4b 9b d8 3d
       -0.124049746 0.1441725 0.07589038 0.10576495
0002f0 c6 da b7 3c 9b 57 11 3e 08 7b ff 3d 5f 56 7b 3d
       0.022443186 0.14193575 0.12474638 0.061361667
000300 6c a2 82 bb b0 73 f9 3d d9 43 7b bd 1d b1 06 3c
       -0.0039866474 0.12180269 -0.061344 0.008220938
000310 44 56 bc 3d 53 98 cb bd 3f 90 d9 3d 36 e1 e4 bd
       0.09196141 -0.09941163 0.10623216 -0.11175768
000320 5c 1c 00 3e 8b 87 15 3e e9 ab 1a be 11 ea e5 3d
       0.12510818 0.14602487 -0.15104641 0.11226285
000330 e5 5b 9c bc ec 15 9c bd 47 5f 3b 3e 42 fb 9d bc
       -0.019086787 -0.07621369 0.18298064 -0.019284848
000340 a3 ab 88 bd e1 e3 dd 3c b9 d8 f0 bd 56 55 d8 bd
       -0.06673362 0.0270862 -0.117600866 -0.105631515
000350 17 20 18 bd 8f 77 03 3e 2f 17 47 3d 23 d4 10 be
       -0.03713998 0.12838577 0.048606094 -0.14143424
000360 22 b2 9a 3d fd e0 7a 3d 2b 78 22 be ca b2 df 3c
       0.075535074 0.06124972 -0.15866153 0.027306933
000370 30 4d 1f 3e 38 21 80 3c de 9c 48 3d e7 d9 01 3d
       0.15556788 0.01564084 0.048977725 0.03170195
000380 e5 73 b5 bb b1 d1 38 3e 3e c8 b4 bd dc a6 0b bd
       -0.0055374973 0.18048741 -0.08827256 -0.034094676
000390 53 af f8 3d f0 cc 78 bd 85 bc 80 bc cd 34 4f 3e
       0.121428154 -0.06074232 -0.015714893 0.20234986
0003a0 99 2a c9 3b 0e 65 ba bd 34 0e fb 3c e0 20 d3 bd
       0.0061391112 -0.09101306 0.030646421 -0.10309005
0003b0 6e 84 07 3e 57 b1 12 be 80 cb e5 3c 51 66 8f be
       0.13234112 -0.14325462 0.028051138 -0.2800775
0003c0 c3 b5 fb 3d b7 c4 b5 bd 06 cc 24 be 61 00 75 3d
       0.12290528 -0.08875411 -0.16093454 0.059814814
0003d0 9b af 12 be c3 74 42 3e b6 f3 05 3e d0 3e 38 3d
       -0.143248 0.18989854 0.1308125 0.044981778
0003e0 49 ef 1b bd da 27 83 bc 4b 4e eb bd e0 ad 09 3e
       -0.038069997 -0.016010214 -0.114895426 0.13445234
0003f0 32 37 17 3e c9 ca 20 be 6c 88 d2 bc a2 13 cf bd
       0.14767149 -0.15702356 -0.025699817 -0.101111665

critic.4.weight f4 [1, 256]
000000 ed 7d 08 40 d0 65 06 c0 81 59 05 40 d6 3b 07 40
       2.132686 -2.0999641 2.083588 2.113027
000010 3c 4f 02 c0 21 0c 09 c0 69 b0 07 40 f3 19 01 40
       -2.036086 -2.1413653 2.1201422 2.0172088
000020 a5 a6 02 c0 a0 ac fa bf 31 77 01 c0 20 ab 05 c0
       -2.0414212 -1.9583931 -2.0228999 -2.0885696
000030 dd d4 07 40 eb 56 06 c0 3b 9b 05 40 5c 6c 06 40
       2.1223671 -2.099055 2.0875995 2.1003637
000040 49 f6 05 40 a9 ac 07 c0 dd b2 07 c0 5a 2a 07 40
       2.093157 -2.1199133 -2.120292 2.11196
000050 e5 96 06 40 db a9 02 40 9f 31 0d 40 4f 14 04 c0
       2.1029599 2.0416172 2.2061536 -2.0637395
000060 4b 30 03 c0 80 f8 17 40 87 cc 04 c0 29 cf 08 c0
       -2.0498226 2.3745422 -2.0749834 -2.137644
000070 58 66 09 40 1c 18 03 40 6f e4 02 c0 78 24 02 40
       2.1468716 2.0483465 -2.0451925 2.0334759
000080 43 d3 0c 40 00 83 08 c0 44 e5 05 c0 a5 07 07 c0
       2.2003944 -2.1329956 -2.0921183 -2.1098416
000090 06 fc 03 c0 59 48 20 c0 1a 0b 03 c0 fc 72 06 c0
       -2.0622573 -2.5044158 -2.0475526 -2.100768
0000a0 65 71 fd 3f 22 9e 04 40 1e a9 0b 40 91 7a 06 c0
       1.980023 2.0721517 2.182197 -2.1012309
0000b0 db 2c 01 40 df c9 08 40 d0 f1 06 c0 dd f4 01 c0
       2.0183628 2.1373212 -2.108509 -2.0305703
0000c0 80 fb 06 c0 86 11 09 40 5a ec 06 c0 58 a3 07 c0
       -2.1091003 2.1416945 -2.1081758 -2.1193447
0000d0 c2 2d 05 40 ca a1 18 c0 a1 37 01 40 cf cb 07 c0
       2.0809178 -2.3848748 2.0190203 -2.1218145
0000e0 7c 6d 05 c0 ff 22 06 c0 9c b6 0b c0 2e e3 01 c0
       -2.0848074 -2.095886 -2.1830206 -2.029491
0000f0 f5 50 18 40 08 3f 04 40 6a 1b 05 c0 1c 9a 07 c0
       2.3799412 2.0663471 -2.0797982 -2.118781
000100 14 04 04 40 ba 64 05 40 15 84 09 c0 6d cc 07 c0
       2.062749 2.0842729 -2.1486866 -2.1218522
000110 88 f1 03 40 7c 72 16 40 f7 c7 06 40 bb be fd 3f
       2.061617 2.3507376 2.105955 1.9823831
000120 67 f1 1d c0 3a 34 0a 40 57 ca 09 c0 47 3a 08 40
       -2.467859 2.1594377 -2.1529748 2.128557
000130 1e ed 07 40 14 cc 05 40 5c da 03 40 ca ea 06 c0
       2.1238475 2.090581 2.0602026 -2.1080804
000140 68 75 05 40 a3 ee 01 40 b5 f4 05 c0 89 f6 05 40
       2.085291 2.0301902 -2.0930607 2.0931723
000150 b1 25 0c c0 31 82 05 40 b8 61 13 40 41 0e 03 c0
       -2.1898005 2.0860713 2.3028393 -2.047745
000160 b0 4d 07 c0 61 8b 07 c0 a5 2f 05 40 67 c5 0e c0
       -2.1141167 -2.117882 2.081033 -2.2307985
000170 83 ae 07 c0 f9 fc 05 c0 70 b3 ff 3f b3 39 04 c0
       -2.1200264 -2.0935652 1.9976635 -2.0660217
000180 9c ea 11 40 44 51 06 c0 e8 28 0c 40 fc 05 07 40
       2.2799444 -2.09871 2.1899967 2.1097403
000190 dc 6f 09 40 7c eb 0d c0 14 40 02 c0 0e 75 06 40
       2.1474524 -2.2174978 -2.035161 2.1008945
0001a0 d8 1d 0a 40 2a 8b 01 c0 10 6c fe bf 11 68 05 c0
       2.1580715 -2.024119 -1.9876728 -2.0844767
0001b0 d5 13 07 40 21 3c 08 c0 06 fc 00 c0 ef fb 0f 40
       2.1105855 -2.12867 -2.0153823 2.2497518
0001c0 92 50 02 40 f3 67 05 c0 f0 ec 06 c0 a8 c6 06 40
       2.0361676 -2.0844696 -2.1082115 2.105875
0001d0 32 20 09 40 6f 53 04 40 41 53 07 c0 62 60 08 c0
       2.14259 2.0675924 -2.1144564 -2.1308827
0001e0 12 28 07 40 12 d4 09 40 6c 13 00 40 0f 9d 09 40
       2.1118207 2.1535687 2.0011854 2.150211
0001f0 35 56 08 40 68 6d 07 40 29 3f 06 c0 ab be 04 c0
       2.1302617 2.1160526 -2.097605 -2.0741374
000200 7e 5f 03 40 57 5b f7 bf af 95 06 40 9d 5c 07 40
       2.0527034 -1.932475 2.102886 2.1150277
000210 ae b7 06 c0 7e 97 04 40 4f e8 08 40 04 ea 05 40
       -2.104961 2.0717463 2.139179 2.0924082
000220 96 62 05 40 85 e0 01 40 2d be 05 c0 3e d3 07 c0
       2.0841422 2.0293286 -2.0897324 -2.1222682
000230 49 a7 ff bf 95 2c 0b c0 01 60 04 40 73 91 05 c0
       -1.9972926 -2.174596 2.0683596 -2.0870025
000240 18 44 08 c0 5d 4a 05 40 19 7c 07 c0 cd de 14 c0
       -2.129156 2.0826638 -2.1169493 -2.3260987
000250 2e c1 08 c0 aa b8 07 40 34 9c 0b c0 5a ce 08 40
       -2.1367908 2.120646 -2.181409 2.1375947
000260 d7 9f 06 40 4c 8b 0a 40 30 84 01 c0 d3 c9 03 c0
       2.1035058 2.164752 -2.023693 -2.0591934
000270 43 ea 08 40 e4 a5 05 c0 bc 5b 05 40 2e a4 0b 40
       2.1392982 -2.0882502 2.083724 2.1818957
000280 9c 5c 08 c0 05 c6 06 40 e3 41 08 40 73 b5 05 40
       -2.1306524 2.1058362 2.1290214 2.0891998
000290 a4 db fe 3f b2 25 07 c0 5e 26 0c 40 84 91 0a c0
       1.9910779 -2.1116757 2.1898417 -2.1651316
0002a0 b7 96 08 c0 b4 06 02 40 da 36 05 40 2e 9d 07 40
       -2.134199 2.0316591 2.0814729 2.1189685
0002b0 3d e5 00 40 c1 47 09 c0 28 e3 09 40 37 22 09 40
       2.0139916 -2.1450045 2.1544895 2.1427133
0002c0 09 6c 04 40 bf 38 08 c0 89 af 05 40 ca e0 09 40
       2.069094 -2.1284635 2.0888388 2.154345
0002d0 d5 85 04 c0 00 25 00 c0 cf c9 02 c0 e9 97 07 40
       -2.0706685 -2.0022583 -2.0435674 2.1186469
0002e0 42 d6 00 c0 e5 af 05 40 63 eb 15 40 73 a9 05 40
       -2.0130773 2.0888608 2.3424919 2.0884674
0002f0 5a 6f 0b 40 9a b7 05 40 19 6a 04 40 77 a0 06 40
       2.1786714 2.0893312 2.0689757 2.103544
000300 e7 3f 18 c0 ed dd 04 40 a5 c1 07 c0 52 78 09 40
       -2.3789003 2.0760453 -2.1211941 2.1479688
000310 bc 25 08 40 ee c8 04 c0 ca 09 04 40 4f df 05 c0
       2.1273031 -2.0747638 2.0630975 -2.0917547
000320 13 b4 02 40 d3 2c 04 40 89 7e 03 c0 e8 9b 03 40
       2.0422409 2.0652359 -2.054598 2.0563908
000330 1b 74 05 c0 28 d6 04 c0 d8 90 f8 3f a6 eb 0c c0
       -2.0852115 -2.075571 1.9419203 -2.2018828
000340 09 58 05 c0 e5 e2 09 40 b0 10 0a c0 33 64 04 c0
       -2.0834982 2.1544735 -2.1572685 -2.0686157
000350 0c 18 01 c0 bb 9e 03 40 6b 9f 06 40 9a 58 15 c0
       -2.0170927 2.0565631 2.10348 -2.3335328
000360 b6 d5 05 40 9b c8 09 40 7d a2 0b c0 0f 54 07 40
       2.0911689 2.152869 -2.1817925 2.1145055
000370 b3 84 04 40 3e cb 07 40 1f 84 03 40 fc 14 09 40
       2.0705993 2.12178 2.054939 2.1419058
000380 3d 7c 0b 40 d5 b5 06 40 30 7b 09 c0 89 0e 0a c0
       2.179458 2.1048481 -2.1481438 -2.1571372
000390 89 e9 05 40 0c 73 1e c0 c7 83 07 c0 71 43 fb bf
       2.0923789 -2.475772 -2.117418 -1.9629956
0003a0 11 11 0a 40 25 d7 08 c0 14 bf 01 40 34 84 0c c0
       2.1572917 -2.1381314 2.0272875 -2.195569
0003b0 89 88 05 40 66 36 06 c0 c7 58 23 c0 fd ee f9 bf
       2.0864584 -2.0970702 -2.5522935 -1.9526058
0003c0 13 65 03 40 ae ec 05 c0 2d 21 04 c0 19 c9 06 40
       2.053044 -2.0925708 -2.064525 2.106024
0003d0 08 7e f6 bf 46 9b ff 3f f8 44 05 40 5c d4 04 40
       -1.9257212 1.9969261 2.0823345 2.0754614
0003e0 cb 5d 0b c0 ad 1a 16 40 1b 26 08 c0 2b 4a 13 40
       -2.1775997 2.3453782 -2.1273258 2.3014019
0003f0 77 aa 02 40 56 23 08 c0 5e 97 08 c0 25 40 0a c0
       2.0416543 -2.1271567 -2.1342387 -2.160165

actor_mean.0.weight f4 [256, 13]
000000 c1 98 89 3b a7 86 06 be 06 bb 63 bd 47 cd 66 3e
       0.004199118 -0.13137303 -0.05559828 0.22539245
000010 ac 4b 1e 3e 92 d5 38 3e a6 bc 57 3b c3 1a 98 3d
       0.15458554 0.1805022 0.003291884 0.074269794
000020 54 08 60 bd fb 9d a8 3b 24 3e 5c 3c 0c c4 99 3d
       -0.054695442 0.005145786 0.01344255 0.07508096
000030 a3 a5 19 3e a7 80 15 bb 47 14 90 bd 0d a4 ad bd
       0.15004592 -0.0022812278 -0.070351176 -0.08478556
000040 b0 6c 38 3d f9 03 9b bd dc f0 d2 3d 05 b4 07 bd
       0.045025527 -0.07569117 0.102998465 -0.033130664
000050 2e c7 90 bd 07 95 46 bd 3c 96 fa 3c 57 b6 c6 3d
       -0.070692405 -0.048481967 0.030589215 0.09702747
000060 ff 98 5a 3d 21 03 b7 ba c6 6f 76 be 5b 00 d2 3b
       0.053368565 -0.0013962724 -0.24066076 0.006408734
000070 88 34 bf bd 00 04 31 3d 95 cf 9f bd 62 a7 c2 bd
       -0.093361914 0.043216705 -0.07803265 -0.09504582
000080 81 db 53 bb 88 f4 61 be 37 10 58 bc 74 10 06 be
       -0.003232688 -0.22065938 -0.01318746 -0.13092214
000090 01 8b 85 bc 64 8e ca bb 30 4f 5c bd fb 6b f1 bd
       -0.016301634 -0.006181525 -0.053786457 -0.11788174
0000a0 71 3c 0b 3c f5 47 e5 bd 30 c0 71 3d 48 e6 fc bd
       0.008498297 -0.11195365 0.059021175 -0.1234861
0000b0 a5 fc 2f bd cb e6 d2 3d 1a a5 b3 3c 67 41 14 3c
       -0.04296555 0.102979265 0.021929312 0.009048796
0000c0 ce 15 e6 bd ec c0 80 bd ec cc 58 bd 9b 75 e2 bd
       -0.11234628 -0.06286797 -0.052929804 -0.11057588
0000d0 e4 20 c7 3c 76 69 4e 3d a8 19 ba 3c b8 ba 3e bc
       0.024307676 0.050393544 0.022717312 -0.011641197
0000e0 c0 56 fb bd 45 8f 2c bd f5 df 18 3e dc f9 5f be
       -0.122724056 -0.04212882 0.14929183 -0.21872658
0000f0 fb 96 71 3e 9d 04 0e 3d ae a6 cc bd dd 06 05 be
       0.2359275 0.03467237 -0.09992729 -0.129909
000100 90 12 d5 3d 6c 0d 54 bd fe 6c 4f 3e 3f 70 2d bd
       0.10403931 -0.051770613 0.20256421 -0.042343374
000110 44 42 d7 3c 03 34 8b bc b4 dd 19 3d cf bb 45 39
       0.026276715 -0.016992575 0.03756495 0.00018857348
000120 08 10 27 bd 57 3f 90 3d 64 1b 70 3d b7 92 e3 3a
       -0.040786773 0.07043331 0.05861987 0.001736245
000130 b4 7c 61 3d 62 8b 3a 3d 85 14 1a 3b 53 67 32 bc
       0.055050567 0.045543082 0.0023510766 -0.010888892
000140 0c 72 1b 3e b0 ac 8c 3d 15 b8 41 3d f6 07 00 3d
       0.15180224 0.06868875 0.047294695 0.031257592
000150 ba 43 4b 3d 1a 34 7b 3d 2e ef f1 3d 43 ad da 3c
       0.049625136 0.061328985 0.11813198 0.026693946
000160 21 9c 39 bd e7 4e 50 3c c2 1f 75 3c 59 e6 b7 3d
       -0.04531491 0.012714124 0.014961185 0.08979482
000170 39 e2 67 3c d4 3a 1f 3e 11 c0 f1 3c bd 13 fb 3d
       0.014153057 0.15549785 0.02951053 0.12259624
000180 20 ef 0b 3c 21 1d 43 bb 71 99 cd bd 31 fb 09 be
       0.008540899 -0.0029772 -0.10039032 -0.13474728
000190 9c ef 25 3e 61 81 53 bd b7 1f 40 bd dc 5d 0b bd
       0.16204685 -0.051637057 -0.046905246 -0.03402506
0001a0 76 7e f1 3c f6 06 ab bb 5e 33 db bd 19 28 90 bd
       0.029479247 -0.0052193357 -0.10703157 -0.07038898
0001b0 ec 0a ed bc a9 3b c0 bd ea 12 8e bd 5b d6 0b 3d
       -0.028935872 -0.09386379 -0.06937201 0.034139972
0001c0 84 04 38 3d 05 8c b9 bd 04 25 e6 bc 60 b4 08 3e
       0.04492618 -0.0905991 -0.028093822 0.13350058
0001d0 15 69 a1 bd 42 d2 81 3e 40 3a b0 bd 39 51 a2 bd
       -0.07881371 0.25355726 -0.0860486 -0.07925648
0001e0 78 63 ab bd 0c f7 4d 3e c5 7e eb 3d 2a 29 36 bd
       -0.083685815 0.20113772 0.11498789 -0.04447285
0001f0 66 8b 39 3e 2d fd 67 bc d5 57 45 3d 7d fe a8 3c
       0.18119583 -0.014159483 0.048179466 0.020629162
000200 08 52 fa 3c 07 26 2a 3e 1d 32 84 bd 50 14 93 bc
       0.030556694 0.16616069 -0.06454871 -0.017954022
000210 e3 c4 60 3c 5d 24 5d bd 7c 54 a9 bd b5 88 32 3d
       0.013718816 -0.053989757 -0.08268067 0.043587405
000220 4a 73 f8 3d bc 2e 61 bd 7f aa d2 3d 84 a3 a4 3c
       0.12131365 -0.05497621 0.10286426 0.020097502
000230 5e ef 44 be 4c 68 e5 bd bd e6 e5 ba e9 59 0c 3d
       -0.19231936 -0.11201534 -0.0017540079 0.034265433
000240 77 33 6d bd 60 77 26 3e 69 e8 25 bd 3d e6 8d bd
       -0.05791041 0.16256475 -0.040504847 -0.0692868
000250 37 9b d8 3a f0 f4 02 3d e4 96 c1 3d c8 4c f3 bd
       0.001652575 0.03197187 0.09452608 -0.11879879
000260 9e 14 8e 3d 42 d9 b2 3d 22 0c 6b 3c 8c 04 75 be
       0.06937526 0.08732845 0.014346154 -0.23927516
000270 b3 bb 3a 3c f4 26 e6 3b bf 0c 28 be 58 4f 2d 3d
       0.01139729 0.0070236865 -0.16411112 0.042311996
000280 41 54 6a bd ee 43 a9 bd bf 28 30 bd fb de c2 bd
       -0.057209257 -0.0826491 -0.04300761 -0.095151864
000290 7b d8 da 3c bf 13 2a be 1b d7 93 ba 17 5e 47 bd
       0.026714554 -0.16609095 -0.0011279316 -0.048673715
0002a0 a5 e2 aa 3c d2 1f 95 bc 50 f1 36 3c 65 e1 bb bb
       0.020860026 -0.01820365 0.011165932 -0.005733656
0002b0 bf 72 70 3d 46 a0 61 bd a5 11 de 3a dd 7f 47 bd
       0.05870318 -0.05508449 0.0016942514 -0.048705924
0002c0 3e 9c 41 bc 2b ed 31 bd 48 cd 38 3d c9 70 23 bc
       -0.011817036 -0.04343907 0.045117646 -0.009975621
0002d0 a5 3c 39 3d 7e da 6d 3e 18 0e 56 bd d8 dc 0c bd
       0.04522385 0.2322788 -0.052259535 -0.0343903
0002e0 25 d9 27 bc b2 99 cf 3b 24 13 31 3d 82 88 25 3e
       -0.010244642 0.0063354606 0.043231145 0.16165355
0002f0 ca 98 cb bd ba 56 21 be 1c da 30 3d b3 dc e7 3c
       -0.099412516 -0.1575574 0.043176755 0.02830348
000300 e5 06 98 3d dd 54 a6 bc b0 e9 da 3c 15 f6 4d be
       0.0742319 -0.020304138 0.026722759 -0.20113404
000310 a6 03 c4 bb 37 e9 8e bd 85 f9 9f be c6 c1 07 be
       -0.0059818802 -0.06978076 -0.31245056 -0.13257512
000320 49 76 9e 3d f9 bd f2 3c d8 af 36 3d 86 06 27 3d
       0.07737405 0.029631602 0.04460129 0.040777706
000330 6a 80 94 3d b3 5e ca 3d 37 d5 1b bc 1b b1 2b 3e
       0.072510555 0.09881344 -0.009511284 0.16766779
000340 21 dd ab bc 72 ef 9f bd 34 16 c5 bb e6 aa 41 3e
       -0.020979466 -0.078093424 -0.0060146097 0.18912849
000350 b2 4c 7d 3d 46 11 9a 3e 45 b3 48 3d 9e 5d 81 3d
       0.06184072 0.30091304 0.04899909 0.06316684
000360 75 5c 61 be 9e fe 95 bd d2 42 74 3d fc 11 06 bd
       -0.22007926 -0.07323955 0.059634037 -0.032731995
000370 f5 43 04 3e e1 57 59 be ba 22 e8 3d 69 34 32 bd
       0.12916549 -0.2122493 0.113347486 -0.043507013
000380 49 d8 73 3d 5a 2a 11 3d b6 40 6a bd 81 5e 5d 3c
       0.059532437 0.03544078 -0.05719062 0.013511301
000390 ec 2b 42 be de a6 34 bd 35 56 ad bd 4a ab e6 bd
       -0.18962067 -0.04410445 -0.08463708 -0.112631395
0003a0 a1 43 8b bd 37 bc cd bd d5 03 21 bb 8f a0 ca 3b
       -0.068000086 -0.10045665 -0.0024568934 0.006183691
0003b0 d4 f1 3d be 06 a5 46 3d 7e 20 24 bd 54 ca 05 be
       -0.18549281 0.048497222 -0.04007005 -0.13065463
0003c0 cb 10 9a bc d7 7a 38 bd 83 b5 34 3c 9e 10 ca bd
       -0.018806836 -0.045039024 0.011029604 -0.09866451
0003d0 04 31 e8 3b f8 4f 82 3d 0b b2 85 3c 78 f1 d2 3c
       0.0070859212 0.06362909 0.016320249 0.025749907
0003e0 bf 35 a2 3d e9 5a cc 3d bb f7 3e be 3a f0 6b 3d
       0.079204075 0.09978277 -0.18649189 0.057602145
0003f0 e4 6e ac bc cc c4 70 bd ca cc 57 3d 61 8a 47 3d
       -0.02104897 -0.05878143 0.052685536 0.048715953

actor_mean.0.bias f4 [256]
000000 eb 3b 4f 3c d7 f5 35 bc 3e 3f c6 bc 87 ee cc 3c
       0.012648563 -0.011105976 -0.024200078 0.025016082
000010 c1 78 e2 bc 9f ea a2 3c 99 28 62 bc ec 28 d2 bc
       -0.02764547 0.019887267 -0.013803625 -0.025654279
000020 61 e2 32 3c 5b e1 92 3b 0a 9c 30 3c 88 c6 9d bb
       0.010918231 0.004482431 0.01077939 -0.0048149265
000030 36 ff ef 3c 5b ce 1f ba c7 81 e5 3c 58 f9 bc 3b
       0.029296499 -0.0006096118 0.028015984 0.005767029
000040 76 b8 3d 3b ec 8e c6 3c c6 db 1b bc 2f 0d 8f 3b
       0.0028949059 0.024238072 -0.009512847 0.0043655853
000050 cb c7 2b bc 6f b0 65 bd a8 ca 9d 3c d4 e5 39 bd
       -0.010484646 -0.056076463 0.019261673 -0.045385197
000060 de ae a7 3c 35 b5 4e bc fa 4d e8 bc bb b1 cd bc
       0.020469125 -0.012616445 -0.028357495 -0.025109163
000070 b5 c2 73 bc 5b 80 0d bd 38 a6 37 bd 7c 31 a7 bc
       -0.014877965 -0.034546237 -0.044836253 -0.020409338
000080 39 df 17 bb 38 d6 12 3d 11 73 c9 3c 4a 64 0c bd
       -0.0023173823 0.035848826 0.024591 -0.03427533
000090 67 93 19 3d 83 56 75 3d 10 47 5d 3c 9f a5 aa 3c
       0.03749409 0.059896957 0.013505712 0.020830927
0000a0 03 be 4c 3b d5 f3 8c 3c 09 11 f8 3c ed a7 1e bd
       0.0031241185 0.017206112 0.03028156 -0.038734365
0000b0 78 8e 05 bd d5 3d 2c bd 3f 9b d3 ba 41 b7 58 3c
       -0.032606572 -0.042051155 -0.0016144289 0.013227285
0000c0 33 14 47 3d f0 fe 38 3d 18 e6 3f 3d f6 4d 59 3b
       0.048603248 0.045165002 0.046850294 0.003315804
0000d0 3e 91 3d bb 93 aa e7 bc bd c4 3f bd 77 fd fe 3c
       -0.0028925682 -0.028279578 -0.046818484 0.03112672
0000e0 5d a1 77 bc fb bd 5a 3c 59 aa 20 bc 1e 95 a2 bc
       -0.015114156 0.013350959 -0.009806239 -0.019846495
0000f0 d6 c9 49 bc 0a 66 56 bc a2 90 7d 3c 8d c8 80 3b
       -0.012316188 -0.013085851 0.015476378 0.0039301575
000100 dd 1b bf bb 24 0f 10 bc 91 9c 80 3c e1 3c f1 3c
       -0.005832179 -0.008792672 0.015699657 0.029447975
000110 d2 56 58 3b 65 77 19 bd bd a6 25 bd 89 06 07 3c
       0.0033010733 -0.03746738 -0.040442217 0.008241304
000120 17 46 54 bc 8e 04 a4 b7 e5 07 34 3d 1f 1b a8 3c
       -0.012956164 -1.9552444e-05 0.04395284 0.020520745
000130 27 c3 04 3b c9 67 01 3d 3c f1 33 bc 09 e6 a5 3c
       0.0020257921 0.031593118 -0.010982808 0.02025129
000140 60 88 1b 3d 0e 9e a1 3c b9 1e 57 3c f9 4b 0c 3c
       0.037971854 0.019728687 0.013129883 0.008563035
000150 ee aa cd 3b 27 2c 51 bc 67 43 db 3c a5 ed 80 3d
       0.00627648 -0.012766874 0.026765538 0.06295327
000160 d7 b4 7e 3a cf cf 11 3d cf 2d 12 3d 73 54 9b 3c
       0.00097162783 0.035598572 0.035688218 0.018961167
000170 54 6e 9a bc 42 a8 a8 3a 08 68 a4 39 04 dc 1a 3d
       -0.018851437 0.0012867528 0.00031358027 0.03780748
000180 6f 65 70 bc a2 fd e4 bc 93 b7 2b 3d 02 65 32 3c
       -0.014672621 -0.027952973 0.041923117 0.01088834
000190 03 1d dc 3b 5c a4 c8 3b 61 ed 9c 3c 36 70 1b bc
       0.0067173257 0.006123109 0.01915616 -0.009487202
0001a0 6d 78 0a bb 76 1a 20 3c 2b 75 be 3c 0b 38 52 3c
       -0.0021128908 0.009771934 0.02324923 0.0128307445
0001b0 92 ce 72 38 36 a9 8d ba e2 38 14 bb bf c8 e0 bb
       5.788968e-05 -0.0010807875 -0.0022616913 -0.0068598683
0001c0 c1 ee 35 3c 65 30 bf 3c de 51 b0 bb b1 8a 12 bd
       0.011104287 0.023338506 -0.005380853 -0.035776798
0001d0 ec 31 93 3c 89 fd da bc d1 f2 09 bc 74 ec a0 bb
       0.01796814 -0.026732223 -0.008419708 -0.004911
0001e0 a2 df e3 3a 65 54 8d bc b1 75 2f bc 65 e8 20 bb
       0.0017385373 -0.017252157 -0.010709212 -0.002455258
0001f0 52 65 15 bd f5 30 51 3a f6 0f 16 bc b8 06 8a bc
       -0.03647358 0.00079800125 -0.009159079 -0.016848907
000200 10 83 df bc a3 1a d1 3c 75 a9 76 3c 42 1d 24 bd
       -0.027284175 0.025525397 0.01505505 -0.040066965
000210 08 23 21 bd cd 1f 57 bd e9 c2 db 3b aa 3b 08 bb
       -0.03934005 -0.052520562 0.0067065847 -0.0020787516
000220 9a 7d 07 3d 25 cd 89 3a 9a d0 30 bd 85 6a 94 bc
       0.033078767 0.0010513408 -0.043167688 -0.018117199
000230 4e 14 e5 3c 11 d1 6b bd 05 ff 2f bc 76 dd 23 bd
       0.027963784 -0.057572428 -0.010741954 -0.040006123
000240 5f e9 6c bc 1f 56 d9 bc 49 0a 80 b9 15 be bd 3a
       -0.014459937 -0.026530324 -0.00024421726 0.0014476205
000250 94 28 1b 3c 69 00 4d 3b ab b7 6a 3c ea fc 3b 3d
       0.009470124 0.0031280762 0.014326016 0.045895495
000260 fa 4c 9f bc 14 93 a6 3c 8d 9c 7a bd 17 77 45 bd
       -0.019445885 0.020333804 -0.061184455 -0.048209276
000270 2d 8c 94 3b c4 a0 6c bc d5 a2 7e bc 66 c6 24 bd
       0.004533312 -0.014442626 -0.015541752 -0.04022827
000280 f1 bd 5a 3d 42 d3 90 3c 02 45 cb bb db b7 6d bc
       0.0534038 0.01767886 -0.0062032947 -0.014509167
000290 86 1d 95 3a e3 8a ef ba 70 f0 b0 bc c4 59 53 bc
       0.0011376597 -0.0018275644 -0.021599025 -0.01289982
0002a0 2e fa 3d 3d 42 4e 8a bc be 87 ac bb 6e 6f a0 bb
       0.046381168 -0.01688302 -0.005265205 -0.004896096
0002b0 e7 d4 32 3d 16 96 59 3d 26 d7 30 3c de 0d ad 3c
       0.04366007 0.05312165 0.010793483 0.021124776
0002c0 9d 53 0c 3d 72 7d 17 bd a3 07 82 bb 74 64 0f 3c
       0.034259427 -0.03698487 -0.0039681955 0.008751977
0002d0 b7 91 9a bb 77 f3 e4 3b 94 46 04 bd 78 6f ac 3b
       -0.0047170776 0.006987031 -0.03229387 0.0052623115
0002e0 e0 c2 68 3c 89 76 3d 3d 8f a8 e2 bc 9f fc b9 bc
       0.014206618 0.046255622 -0.027668266 -0.022703467
0002f0 e1 8e 8f bc 25 a4 00 bc 9f da 78 3d 11 b2 30 3b
       -0.017524185 -0.007851635 0.06075537 0.0026961605
000300 b5 b8 98 3c 58 b3 30 3c 9f 80 3f bc 07 e2 0a 3d
       0.018642763 0.010784946 -0.0116883805 0.033906963
000310 8c 59 09 3c 83 d2 9e bc 45 a9 d4 3c 7a d0 d1 bc
       0.008383166 -0.01938749 0.02595962 -0.025612105
000320 23 1d 2b 3d df ca dd ba 98 39 9d 3b f9 b0 bf bb
       0.041775834 -0.0016921422 0.0047981255 -0.005849954
000330 3c d4 33 bd 80 ea 06 bd fa ac 25 bc 80 99 97 bc
       -0.043903574 -0.03293848 -0.010112042 -0.018505812
000340 6f ed 26 bd 1e c9 5a bc b6 7d 48 bd fb bc b6 bc
       -0.040753778 -0.013353614 -0.048948012 -0.02230691
000350 9f d8 14 bc b5 0e 1a 3d 3c 60 44 bd 63 38 a1 3a
       -0.00908485 0.037611682 -0.04794334 0.001230013
000360 f0 ae b1 ba 56 76 96 bc 29 4d fb bc c0 ee 05 bc
       -0.0013556164 -0.018366974 -0.030676441 -0.008174598
000370 31 b7 2d bb 61 20 60 bd c0 99 3e 3c 7c cc ed bb
       -0.0026506896 -0.05471838 0.011633337 -0.0072570425
000380 ae 75 a4 bc 47 dd 23 bd f7 fd 83 bc 71 b8 85 bc
       -0.020075645 -0.04000595 -0.01611231 -0.0163233
000390 2e be e0 3b fe b5 6b bd 27 e2 42 3d 0a 89 8d bc
       0.0068586087 -0.05754661 0.047578957 -0.01727726
0003a0 17 1b 98 3c 2e 9b fc 3b d9 c0 5d 3d 11 38 0d bd
       0.018567605 0.0077089285 0.054138992 -0.034477297
0003b0 b6 3a 00 3d 88 7d c2 39 a7 69 48 3b 77 f5 ac bc
       0.03130599 0.00037096092 0.0030580552 -0.02111314
0003c0 50 a6 43 3d 16 f1 44 3d 8a b9 20 3d 8a 45 8f 3c
       0.04776603 0.04808148 0.039239444 0.017489213
0003d0 7e 77 15 bd 63 78 22 bd 1c 74 8c bb f5 29 a5 bc
       -0.03649091 -0.03966559 -0.0042863023 -0.020161608
0003e0 d3 94 9a 3c be 6c 7d bd 00 ef e5 bb be fc ad 3c
       0.018869793 -0.061871283 -0.0070170164 0.02123868
0003f0 95 af 86 3c fa 5b eb 3c 23 ef dc bc e3 ee 0a bd
       0.016441146 0.028730381 -0.026969498 -0.033919226
