mete_aerial_gym_simulator/rl_training/cleanrl/runs/quad__ppo_continuous_action__1__1688986211/latest_model.pth (torch, 564158 bytes, 12 tensors)

actor_logstd f4 [1, 4]
000000 99 aa 5c be 31 e7 29 be e3 e5 5d 39 6f 91 bd 3c
       -0.21549453 -0.16592099 0.00021161842 0.023140637

critic.0.weight f4 [256, 13]
000000 dd d3 2d 3c 36 b1 9d 3c 49 8d 32 be dc 8a b9 3d
       0.010609594 0.01924954 -0.17436709 0.090596884
000010 11 1d e1 be 41 d0 23 bd f9 5f 0b be d1 9b 1a be
       -0.43967488 -0.03999353 -0.1361083 -0.15098502
000020 b6 ab 7f 3d b4 af 20 bc c8 cf 1d bd 3d 6e 97 bd
       0.062419616 -0.009807516 -0.038528234 -0.07394073
000030 c1 ec 09 3e d3 ef b4 bc 5d 08 54 bb 79 be 18 3e
       0.1346922 -0.022087013 -0.0032353618 0.1491641
000040 7e a0 5c 3c 80 7d 7b 3e 72 85 c2 bc e7 23 80 bd
       0.013465999 0.24559593 -0.023745272 -0.06256848
000050 9d 4e 93 3d b8 6c 93 bd 19 2e 5a bb c3 80 cc bd
       0.07192729 -0.07198471 -0.0033291637 -0.09985497
000060 a1 7b 28 3d 60 7f 3a bc 63 58 58 3d 18 f0 4b be
       0.041133527 -0.011382908 0.052818667 -0.19915807
000070 fe 10 b8 3c fc 95 40 3e 4c 00 07 3e f9 7e 3b be
       0.02246904 0.18807214 0.13183707 -0.18310155
000080 c2 c5 e5 3d a5 41 c1 3d 0f 49 74 be 2f 8b 0f be
       0.1121936 0.09436349 -0.23855995 -0.14017938
000090 50 3a 8f bc be f6 88 3c f0 b2 c5 bc 48 c2 1b 3d
       -0.01748386 0.016719218 -0.024133176 0.038027078
0000a0 8d f9 18 3e c8 64 79 3d 84 ce 2d be c8 e7 10 3d
       0.14938946 0.060887128 -0.1697331 0.035377294
0000b0 c6 c5 b4 bd d0 28 18 be bc 9d 34 bd ff a7 29 3e
       -0.08826785 -0.14859319 -0.04409574 0.16567992
0000c0 03 2e 12 3c 8e ab ff 3c 57 87 70 3d a1 ba 97 3b
       0.008922103 0.031209733 0.05872282 0.004630402
0000d0 20 61 c1 bc 99 3c 6c 3e dd 93 70 3b 26 f9 d9 be
       -0.023605883 0.23069991 0.0036709227 -0.42572898
0000e0 b0 e8 d9 3d 36 13 2c 3e c4 25 16 be 09 eb cf bd
       0.10640085 0.16804203 -0.14662844 -0.10152251
0000f0 86 b3 f8 3d e3 55 37 3e ed e2 15 bc 67 21 11 3c
       0.121436164 0.17903857 -0.009148342 0.008858061
000100 76 6b e3 3c ef 62 84 3d 8b 0e 3f 3e f2 ca 34 bd
       0.027761202 0.064641826 0.18657891 -0.044138856
000110 a7 aa e2 3c b5 23 3e 3e 41 af 2a 3d e4 b3 7c be
       0.027669264 0.18568309 0.04167104 -0.24677998
000120 40 d8 4f 3d 89 8e 46 be 40 aa d5 bc 75 0d 93 bc
       0.05074334 -0.1939031 -0.026082158 -0.017950753
000130 1c 40 86 3d 3f fc 07 be 95 46 de 3d b6 40 09 be
       0.06555197 -0.13279818 0.10853306 -0.13403592
000140 d3 9d ae 3d 68 9b f2 3d ec 77 23 3e 7f 07 15 be
       0.08526196 0.11846048 0.15963715 -0.14553641
000150 af b3 ab bd b1 8d 43 3d a1 0e 7a bd 9d 1a 11 3e
       -0.08383881 0.04774255 -0.061049107 0.14170308
000160 b0 d0 95 ba 1c 1a 9b bb 4d f9 80 3c a2 fe 10 3e
       -0.0011429992 -0.004733337 0.015743876 0.14159635
000170 45 53 b1 3d e2 ab 12 3d 17 6f e5 3c b0 d4 08 bd
       0.086584605 0.03580845 0.028007073 -0.03340596
000180 17 54 db 3c ca 4a c9 bd 7d 70 81 bd e4 45 1e 3d
       0.026773496 -0.09828718 -0.063202836 0.03864087
000190 75 15 dd bc b4 c9 be 3d 2e ff 8b 3d ef ba 3d 3e
       -0.02698777 0.093158156 0.06835781 0.18528341
0001a0 87 4f e4 bd 2f b1 a2 3d 80 de 87 bd 3c d1 e7 3d
       -0.11147981 0.07943951 -0.066342354 0.11319205
0001b0 d3 b4 cc bd e0 8e 04 bd c3 5c 24 be 57 81 2d bd
       -0.09995427 -0.03236282 -0.16051011 -0.042359676
0001c0 5e 3b 35 be 2b 39 be bc 59 4f af 3c 1f f1 11 bd
       -0.17698428 -0.02322062 0.02140014 -0.03563034
0001d0 fe 65 c3 3d e0 c6 d4 bd 46 70 b6 3d ca 2e 5f 3d
       0.09540938 -0.10389495 0.08908133 0.05448798
0001e0 ab 09 25 be b2 7b 48 bd fe 3e 9e 3d 22 4b 72 be
       -0.1611697 -0.04894609 0.077268586 -0.23661473
0001f0 9e 7e d9 bd 9c 5d 6b 3d f1 62 02 3d 30 9f dc ba
       -0.106198534 0.05746232 0.03183264 -0.001683211
000200 49 38 cd bc 94 29 99 3d 18 2b 26 be 36 82 b7 bd
       -0.025051253 0.074786335 -0.16227376 -0.08960383
000210 32 87 b4 bd ea 07 31 3e 33 8f dd 3c 8f 48 66 3d
       -0.08814849 0.17288175 0.027045822 0.05622154
000220 83 2f 28 3e 4d 7f dc 3d 52 46 b5 3a a6 49 e5 3c
       0.16424374 0.10766468 0.0013830161 0.02798922
000230 0b 71 9b ba 5b 1c f2 3d 26 ea bb 3d 01 a8 61 be
       -0.0011859251 0.118218146 0.0917552 -0.22036745
000240 fe 6e 08 be 88 45 bb 3d ee 74 ff 3d 87 68 8b be
       -0.1332359 0.091441214 0.124734744 -0.27228186
000250 ed 6d 63 bd 6a bf c7 bc 18 53 fe bc 78 6c 51 3d
       -0.055524755 -0.024383266 -0.031045482 0.051128834
000260 dd e8 c5 3d 71 2b 1a bd da c2 e8 bc a8 6f d9 bd
       0.09663556 -0.037639085 -0.028413225 -0.10617
000270 c5 b2 ce bd f8 35 86 3d 61 f7 b3 3d 7a 19 1d 3e
       -0.10092691 0.065532625 0.08787418 0.1534175
000280 db bc 1b be 5d 8e d0 3b 8f c7 29 be c7 4f a1 bd
       -0.15208761 0.0063646273 -0.16580032 -0.078765444
000290 23 7a 9b bd ea b7 6a 3c 34 ba 00 bd 54 25 96 3c
       -0.07591655 0.014326075 -0.031427577 0.018328346
0002a0 6b fd 66 bb ef bd c8 3d f7 e6 a6 3d 40 38 8b 3d
       -0.0035246264 0.09801852 0.08149522 0.06797838
0002b0 1e c3 3b be c0 a3 81 3e d7 fc 0f 3e 24 1a e7 bd
       -0.1833615 0.25320244 0.14061294 -0.11284283
0002c0 9f 74 80 3d dc 3b cf 3d 05 e8 75 3e 62 ba 10 be
       0.06272244 0.10118839 0.2401429 -0.141336
0002d0 6c 50 0d 3e a5 84 2e bd 24 0e 75 3b 14 98 1c 3e
       0.1380021 -0.04260697 0.0037392462 0.15292388
0002e0 33 3e f9 bc fc 0a b0 bd e7 2d 4d be 99 cb ce 3d
       -0.030425167 -0.08595845 -0.20037042 0.10097427
0002f0 0b e3 00 be 19 ce 8a bd a2 7b 0e 3e b3 60 3a ba
       -0.1258661 -0.06777591 0.1391435 -0.0007109746
000300 bc d4 bc bc 09 43 07 3c 2a a7 50 3d ae 03 47 3d
       -0.023050658 0.0082557285 0.05094067 0.048587494
000310 4b a5 1d 3e b6 8c 02 bd 18 7b d3 bd 6b 78 0e 3e
       0.15395086 -0.031872474 -0.10326213 0.13913123
000320 56 eb 90 3c 58 f1 18 be d4 15 d2 3c b9 d0 a7 bd
       0.017690342 -0.14935815 0.025645174 -0.081941076
000330 1f 17 08 bc 30 9e cf 3c 94 e1 2d bc fb 6a 1f bd
       -0.008306294 0.025343984 -0.010612864 -0.038920384
000340 5d ff d5 bd f6 a2 16 3e af 9f 8e 3d 38 ec 51 be
       -0.10449097 0.14710602 0.06964051 -0.20500267
000350 37 87 ea bc f8 7d d3 3d 3a b2 4e be 3a 4b 8e bd
       -0.028628929 0.10326761 -0.20185176 -0.06947942
000360 19 90 29 3e 54 b9 65 3d 37 06 82 bc 13 15 89 3c
       0.16558875 0.056084946 -0.015872104 0.016733682
000370 c3 17 ac 3d 3c 77 a9 3d f6 ff 21 3e 72 b6 9a 3d
       0.0840297 0.08274695 0.15820298 0.0755433
000380 2f 0c dc bd cb 69 10 3e 68 3c df 3d 50 e4 77 be
       -0.10744511 0.14102857 0.109001935 -0.24208188
000390 06 aa b0 bd b2 b5 06 3d fa 40 89 bd ca 55 48 3d
       -0.086261794 0.032888122 -0.067018464 0.04890994
0003a0 7d 0e ba bc c8 da 8b 3e f9 da 0c 3e dd b6 a5 be
       -0.022711987 0.27315354 0.13755406 -0.32366076
0003b0 04 d2 2d bd ef 2d b5 3e a3 f5 0d 3d 3e 43 2d be
       -0.042436615 0.35386607 0.034658086 -0.16920182
0003c0 18 95 c5 3d 9d 3f b7 3c a8 aa aa bd 0c 06 0d bd
       0.09647578 0.0223692 -0.08333331 -0.034429595
0003d0 10 95 b6 3d 91 c2 b4 3c cb 79 19 bd 1e a4 55 3d
       0.0891515 0.022065433 -0.037469666 0.052158467
0003e0 e7 07 81 be f4 58 6c 3e 36 d4 b6 3d f3 81 b0 3e
       -0.25201342 0.23080808 0.08927195 0.34474143
0003f0 ba 51 92 be 4a b6 c5 3d 89 46 ec bb a1 f9 0e be
       -0.28577977 0.096539095 -0.007210557 -0.13962413

critic.0.bias f4 [256]
000000 f8 cc db bd e6 a5 89 bd 66 0d af 3d 2e 73 c2 bd
       -0.10732454 -0.06721096 0.085474774 -0.09494625
000010 d0 b4 93 bd 61 34 cc bd e3 df c3 bd d2 0c ad bb
       -0.072122216 -0.09970928 -0.095641874 -0.0052810693
000020 9a b1 e9 bd 5b 58 90 bd ee cb 99 3d 94 e9 49 bd
       -0.11410828 -0.070481025 0.075095996 -0.049295023
000030 b9 f7 95 bd 5c f8 ae bd 57 19 9e bd 0f 38 a9 bd
       -0.0732264 -0.085434645 -0.07719677 -0.082626455
000040 78 00 ab bd f2 e4 72 bd 8a 28 50 3d eb cc 35 3d
       -0.08349699 -0.05930037 0.05081991 0.044384878
000050 b9 67 b0 bc 81 19 cf bd 2c d0 f1 bd 9c 31 e9 bd
       -0.021533834 -0.10112286 -0.11807284 -0.11386415
000060 0c 0e be bd 56 93 39 bd 21 53 89 3d f5 7e b1 bd
       -0.09280023 -0.045306526 0.06705309 -0.08666793
000070 c8 03 f1 3d 47 61 aa 3d 5b 8f d5 bd 75 fe 04 be
       0.11768299 0.083193354 -0.104277335 -0.12987693
000080 fb b6 ab 3d 71 b6 c0 bd a9 d0 c4 bd 8c 8c e5 3d
       0.0838451 -0.09409798 -0.09610111 0.11208448
000090 65 63 06 be af 7b 99 3d dd 29 d4 bd b9 17 26 be
       -0.13123854 0.07494294 -0.10359547 -0.16219987
0000a0 f9 71 e2 bd 30 a2 eb bd 02 40 d6 bd 75 1d e0 bc
       -0.11056895 -0.11505544 -0.10461427 -0.027357796
0000b0 b4 66 a4 bd c8 4a c3 bd 6b 7a 03 3d 5c d8 02 3e
       -0.080274016 -0.09535748 0.03209917 0.12777847
0000c0 ba c4 d0 bc 31 64 7c 3e 60 71 97 bd 8d 85 d1 3d
       -0.025484432 0.24647595 -0.073946714 0.10230551
0000d0 ce 7a b8 bd d7 fb 61 bd eb 5b 02 be c4 b6 86 3d
       -0.09007798 -0.055171814 -0.12730376 0.065778285
0000e0 a6 a2 ae bd 38 06 07 be ef 7e 19 bd d3 4c 2c bd
       -0.085271165 -0.13185966 -0.03747457 -0.042065453
0000f0 65 2a f2 bd d6 c5 b8 3d 37 34 cc 3b 18 c5 84 3d
       -0.11824492 0.09022109 0.0062318104 0.06482905
000100 ef b1 ae 3d f7 73 bf 3d 5d 1f 00 3e df 0a 99 bd
       0.08530032 0.093482904 0.12511964 -0.074727766
000110 0b 55 3a 3d e1 6e b3 bd e8 1c e4 3d ed a6 b5 3d
       0.04549126 -0.08761383 0.11138326 0.08869729
000120 0e 45 11 3e 54 51 cf bd 0e 2b c1 bd 49 f5 20 bd
       0.14186499 -0.10122934 -0.0943204 -0.039296422
000130 d0 a2 71 3d 15 12 ab bd d3 d4 c7 bd c4 53 df bd
       0.05899316 -0.08353058 -0.0975739 -0.10904649
000140 7a 70 d4 bd 89 d2 0f be 33 37 f7 bd 83 3e ac bd
       -0.10373016 -0.14045157 -0.12071075 -0.08410361
000150 65 2a f0 3d d6 86 cf 3d 86 87 f8 bd 41 db a0 3d
       0.11726836 0.1013314 -0.12135224 0.07854319
000160 81 78 c1 bd 25 ce 68 bd 61 5a 1a 3d e0 79 9e 3d
       -0.094468124 -0.05683722 0.03768385 0.077380896
000170 c3 95 cc 3d 16 ba 07 be 69 1a 04 be 3e 2e e6 bd
       0.09989502 -0.1325458 -0.129007 -0.11239289
000180 86 b8 ef 3d 6b 16 5a bd 27 67 58 3d 20 5d bf 3d
       0.11705117 -0.053244036 0.05283275 0.09343934
000190 61 37 10 3c 6c c4 98 3d c7 55 e4 3d 2f 36 75 3d
       0.008802266 0.074593395 0.11149173 0.059866127
0001a0 2d df 8f bd 9c 68 ca 3d 37 4b c6 3d bf e1 d2 bd
       -0.07024989 0.09883234 0.09682315 -0.10296964
0001b0 9d f6 7e bd ee 03 0e bd c5 63 b3 bd fe f3 05 be
       -0.062246908 -0.034671716 -0.08759264 -0.13081357
0001c0 13 c9 bb bd d5 6a 3d 3c 5c d2 be 3d fd 36 95 bd
       -0.09169211 0.011561115 0.093174666 -0.07285879
0001d0 b0 d2 d2 3d 83 64 be 3d f6 fc f0 3d c1 8e 1a be
       0.10294092 0.09296515 0.117669985 -0.15093519
0001e0 41 ee 0f 3e 21 05 9c 3d 63 a2 9d 3d b0 da 8d 3d
       0.1405573 0.07618166 0.076969884 0.06926477
0001f0 58 34 bf 3d cd 0e df 3d 85 93 e4 bd cc 91 a9 bd
       0.09336156 0.10891495 -0.111609496 -0.08279762
000200 45 da 14 3e 20 60 dd 3d 94 65 a6 bd c6 81 a2 3d
       0.14536388 0.1080935 -0.08124843 0.079349086
000210 11 25 19 be ac c2 7e bd 32 17 b0 bd c8 6d cd bd
       -0.14955546 -0.062197372 -0.08598174 -0.10030705
000220 c5 8b 22 3e 94 69 9f bd ea 22 1c bd ca 35 09 be
       0.1587363 -0.07783809 -0.038119234 -0.13399425
000230 4d 9a cf bd 55 9d 99 3d 29 25 02 be b5 f2 85 bd
       -0.101368524 0.07500712 -0.12709488 -0.06540433
000240 56 1d 6e 3d b7 e6 13 be 1f 06 8d 3d 27 22 1b be
       0.058133446 -0.1444348 0.06885933 -0.15149747
000250 ff ce e4 bd 26 24 12 be 33 53 a9 3d 1a 4b a2 bd
       -0.11172294 -0.14271602 0.08267822 -0.07924481
000260 ce 3c 8b bd 6c 0a 81 3d 8a a2 8d bd 7b 92 a0 3d
       -0.06798707 0.06300816 -0.069157675 0.07840439
000270 e3 f0 d1 bd db 0f f5 3d 0a d1 76 3d 02 aa 04 3e
       -0.102510236 0.11965915 0.06025795 0.12955478
000280 07 16 16 3e 7c 21 54 3d ac 8f 93 bd 4d fc be 3d
       0.1465684 0.051789746 -0.072051376 0.09325466
000290 ea af c0 bd 42 b0 bd bd f5 59 c7 bd 22 4c a4 bd
       -0.09408553 -0.09262134 -0.09733955 -0.08022334
0002a0 d3 ce c5 bd ae 46 8f bd a4 01 0c bd 90 43 9f 3d
       -0.09658589 -0.06995903 -0.034181252 0.077765584
0002b0 96 a9 bb 3d 94 5d d7 bd cc ca ca bd 40 1d e6 3d
       0.09163205 -0.105158955 -0.09901962 0.11236048
0002c0 b6 ab 0e 3e f5 00 e2 3d 22 b3 4c ba 05 f8 d0 bd
       0.1393269 0.11035339 -0.0007808675 -0.10203556
0002d0 40 80 1e bd 08 05 af bd 59 b0 85 3d b5 3a b0 bd
       -0.038696527 -0.085458815 0.06527776 -0.086049475
0002e0 fc 25 ca bd 5d 17 b4 bd b8 f7 27 be e3 49 dd bd
       -0.09870526 -0.08793519 -0.16403091 -0.108051084
0002f0 ce a1 8f 3d d8 c2 bd 3d c9 c1 a6 bc 64 07 a6 bd
       0.07013284 0.09265679 -0.020356076 -0.081068784
000300 cf 09 a1 bd db 30 07 be f3 8b 23 3d 44 54 2e 3e
       -0.07863199 -0.1320223 0.039928388 0.17024332
000310 30 fa b8 b8 fe 5e bb bd 63 35 0e 3e 3d 80 a4 bd
       -8.820405e-05 -0.09148978 0.13887553 -0.08032272
000320 ae 71 9a 3d 3f 1e 7b 3d 48 21 8a 3d 8f c6 a0 3d
       0.07541214 0.06130814 0.06744629 0.07850372
000330 99 c2 b5 bd bc 0e 4d 3d 9e 60 07 be 39 39 0a be
       -0.08875007 0.05006288 -0.1322045 -0.13498391
000340 a6 7b d2 bd 7f f8 be 3d 71 cd fb 3d 9d c0 0c 3c
       -0.1027749 0.093247406 0.12295044 0.008590844
000350 08 d2 58 bd d3 3d e0 3d 8e 45 97 3d b2 88 d3 3d
       -0.052934676 0.10949292 0.073863134 0.10328807
000360 1d 73 00 3e 2b 34 96 bd 44 65 de 3d 5e 51 b9 3c
       0.12543912 -0.07334169 0.10859159 0.022621807
000370 4d 0c 0b be 43 9f 03 3d aa 63 c2 bd 9b 2b 96 bd
       -0.13578911 0.032134306 -0.09491666 -0.07332536
000380 47 42 e8 3d 8b 93 e7 bd ab 26 bc 3d 60 f5 b3 bd
       0.113407664 -0.113074385 0.09187063 -0.08787036
000390 78 d8 21 bd 08 d3 93 bd 46 24 95 3d d6 cf f4 bd
       -0.03951308 -0.072179854 0.07282309 -0.11953704
0003a0 82 b7 6d bd d3 e4 27 3d 16 b9 0e be f9 40 9c bd
       -0.058036335 0.04098971 -0.13937792 -0.0762958
0003b0 52 36 c2 3d b5 b0 93 bd 8f 1f 9e 3d 45 ce b6 3d
       0.09483017 -0.072114386 0.07720863 0.089260615
0003c0 4f f1 e8 3d e5 28 c9 bd 76 ad 09 3d ca 01 18 3e
       0.11374151 -0.09822253 0.03361269 0.14844432
0003d0 0b cd c2 3c 2b 34 05 be f6 34 a5 bd 88 6b 82 bd
       0.023779413 -0.13008182 -0.08066742 -0.06368166
0003e0 8b b5 b0 bd 49 ca 96 bd 8a 44 bf bd 85 70 1d 3e
       -0.086283766 -0.073628016 -0.09339245 0.15374954
0003f0 7c cf 9e bd 6f 37 a4 3d 6c 05 a4 bd bd 96 72 bd
       -0.07754418 0.080183856 -0.08008847 -0.059225786

critic.2.weight f4 [256, 256]
000000 c3 aa 04 be 14 fd 7d bd f5 62 b0 3d 30 db f7 bc
       -0.12955765 -0.062008932 0.086126246 -0.030255884
000010 5d ae 6f be 98 5e cc bd 58 12 62 bd 1b ed 47 3d
       -0.23406358 -0.0997898 -0.055193275 0.048810106
000020 fb 2a 7a be 65 bb 27 bd 16 e0 31 bd 25 08 06 be
       -0.24430458 -0.040950198 -0.043426596 -0.13089044
000030 15 39 0d be 31 fc 41 be 24 57 02 be 83 89 14 3d
       -0.13791306 -0.1894386 -0.12728554 0.036263954
000040 e5 69 38 be 0a ec 36 bd 68 74 a7 3c ba f6 03 3e
       -0.18009146 -0.0446587 0.020441249 0.12887087
000050 42 75 50 bc 0e 63 d8 bb b6 a4 88 bd 5f 6c 59 bc
       -0.012723269 -0.006603605 -0.06672041 -0.013270467
000060 35 e0 87 be 0c 4c 4e 3c 89 5e 02 bd 75 d9 8e be
       -0.26538244 0.012591373 -0.031828437 -0.27900282
000070 ef a3 02 3e b4 48 13 3e 2e af 9a bd 6c be c1 bb
       0.12757848 0.14383203 -0.07552944 -0.0059125926
000080 60 10 bf bd 17 b3 35 bc 3f fa e5 bb 82 b5 9e 3d
       -0.09329295 -0.011090062 -0.007018357 0.077494636
000090 e0 d0 22 bc 58 27 48 3d ab f4 0a 3d 20 ab 8c bc
       -0.009937495 0.048865646 0.03392474 -0.017171443
0000a0 d9 ef 25 be 5a 1a 2c 3c 69 be a3 3b ea a3 fc 3d
       -0.16204776 0.01050433 0.004997064 0.123359516
0000b0 da 22 60 bd 96 29 ee bd 8c b8 25 bd 0f 4a d8 bd
       -0.054720737 -0.11629026 -0.0404592 -0.105610006
0000c0 fe 8f eb bd 25 7f a0 3d 12 55 94 bc 76 10 09 3e
       -0.11502074 0.07836751 -0.018106971 0.13385186
0000d0 53 29 ce bd 57 9d 8a bc 10 a4 90 be e1 9e 83 3d
       -0.10066476 -0.016920729 -0.2825017 0.06426788
0000e0 55 bf 93 3d 99 56 9c bd 47 9d 7a bd 4c 43 ac 3c
       0.07214228 -0.07633705 -0.061185148 0.021028183
0000f0 97 6d f2 bd 23 8f 4b 3b 79 05 0f 3e 36 89 87 3e
       -0.11837309 0.0031060658 0.13966931 0.2647187
000100 69 c9 52 3e 3a 6a ce 3d b1 08 86 3e 0d 0c 95 bd
       0.20584644 0.10078855 0.26178506 -0.07277689
000110 49 2b 8e bc bb 79 42 3d 50 89 26 3e 7e 03 87 3e
       -0.017354624 0.047479372 0.16263318 0.26369852
000120 28 6b 2a bd c2 53 6a be 46 8c 02 be c4 9a 8b be
       -0.0416061 -0.22883514 -0.12748823 -0.27266514
000130 68 c4 cf 3c 9c 96 c1 bd 15 6f 71 bd 18 10 6b bb
       0.025362208 -0.094525546 -0.058943827 -0.0035867747
000140 f3 6b cb bd 18 86 20 be 8c ed 8f bd 2a 4a 96 be
       -0.09932699 -0.15676153 -0.0702773 -0.29353458
000150 da 34 6f bd bb b3 91 ba 13 eb bc bc a2 45 88 bd
       -0.058400013 -0.0011116186 -0.02306131 -0.066539064
000160 d5 0d 14 be 83 cf 6a 3d 0a 3a 1a 3e a2 7f d0 bb
       -0.14458402 0.057326805 0.15061203 -0.0063628713
000170 d8 61 a1 3e ba 6b 4f bd e1 31 ac be dc 87 9f bd
       0.3151996 -0.050639845 -0.33631805 -0.07789585
000180 f8 5b 9c 3d 30 fe 3c be 39 40 60 be e6 3c aa bb
       0.07634729 -0.1845634 -0.21899499 -0.005195248
000190 4c ea 54 bc 61 21 c5 bc e4 1d 7d bd d1 5b 83 3e
       -0.012995314 -0.024063768 -0.061796084 0.25655988
0001a0 f2 53 ac bd 4b 0c 37 bd ae ab 0f 3e fd e8 3a be
       -0.08414449 -0.044689458 0.14030334 -0.1825294
0001b0 67 08 c5 3b bb 49 8f 3d 41 3d 87 be 80 6c 0a be
       0.0060129645 0.06996485 -0.2641392 -0.13517952
0001c0 b2 98 ef bd 77 7a ce bc 94 05 06 3e ab e0 db bd
       -0.11699046 -0.02520488 0.13088065 -0.107362114
0001d0 0e e2 1e 3e f8 d7 95 3d 4d 6c 5c 3e f1 6b 17 be
       0.1551592 0.073165834 0.21525688 -0.1478727
0001e0 8f 58 ae 3e 55 e2 e2 3c c8 47 07 3e c2 a1 54 3e
       0.3405194 0.027695814 0.13210976 0.2076483
0001f0 b7 e3 d2 bd 1d 22 7b 3d 5f 11 ee bd ea 77 11 3d
       -0.102973394 0.06131183 -0.11624407 0.03551475
000200 3e 3b 9d bd 85 68 2c bd 03 93 71 3c e1 0c a6 3c
       -0.07677315 -0.042091865 0.014744523 0.020269813
000210 70 a0 fe bd d1 ac ef bd 4f 02 0b be 89 e5 8e 3c
       -0.12432945 -0.11702884 -0.135751 0.017443435
000220 ce f8 06 3e 8b 04 38 3c 5e 45 58 3d 90 55 38 be
       0.13180849 0.011231552 0.05280053 -0.1800139
000230 49 f4 9d bc 3b 56 35 bb 08 6e 6f bd 3e a3 b8 3d
       -0.019281523 -0.0027669806 -0.058454543 0.09015511
000240 14 07 06 3e 31 76 2f be d7 5c 3d 3e 9b c6 85 be
       0.13088638 -0.1713493 0.18492447 -0.26128086
000250 59 4b 9d be 0f 63 db bd 42 84 f5 3c 72 2a be bc
       -0.30721548 -0.10712253 0.029970292 -0.023213599
000260 00 d4 cc 3d 83 7c a1 3d 94 7a 44 be 65 4e 93 b8
       0.10001373 0.07885077 -0.19187385 -7.024108e-05
000270 35 eb 7b 3d c4 fe 44 3e 02 48 fc bd 69 70 cc 3d
       0.061503608 0.1923781 -0.12318422 0.09982378
000280 2f 2e 27 3d ea a0 46 3e fd b4 85 bd 62 fc 03 3e
       0.04081553 0.19397321 -0.065286614 0.12889245
000290 6b 98 73 be 32 4d b0 bc be 98 00 3c 50 99 5c 3d
       -0.23788612 -0.021521185 0.007848917 0.053857148
0002a0 16 45 36 3e be 19 cc bd 07 e6 e3 3c 59 b6 98 3e
       0.17799792 -0.099658474 0.027819647 0.2982662
0002b0 8f c3 b9 3e df f9 29 be b6 39 bd bc ea 80 08 3d
       0.36282012 -0.16599225 -0.023098808 0.033326067
0002c0 1b 96 33 3e df f7 3c 3d 2d cc dd 3d 44 1f 9d be
       0.1753773 0.046134826 0.10829959 -0.30687916
0002d0 c9 f2 9c bd 9a 6c 38 be 9e 59 e3 3d 23 da 95 be
       -0.07663495 -0.18010178 0.111010775 -0.29267988
0002e0 39 f6 11 3d 07 e8 b8 ba e1 f9 b6 bd 77 c2 88 be
       0.035635207 -0.0014107235 -0.08934379 -0.26710865
0002f0 ec b2 d1 3c de 48 9d 3e 2b ec 2e bd c6 5c 12 be
       0.025598012 0.30719656 -0.042705696 -0.14293203
000300 a2 12 f0 3d 32 f7 3e bd cc 63 cf 3d 8e aa f2 bd
       0.11722304 -0.046622463 0.101264566 -0.11848937
000310 b8 8e 99 3d 7e 0c 0c bd 33 54 08 3d a2 9d d0 bd
       0.074979246 -0.0341916 0.033283424 -0.10186316
000320 eb d1 f3 3d b6 df e7 bd ad 05 56 3e f7 18 2d 3e
       0.11905273 -0.11321966 0.20900603 0.16904055
000330 59 14 43 be 8c ac f3 3c ba a0 dc 3c 72 5d 6c be
       -0.19050731 0.029745363 0.02693211 -0.23082522
000340 78 39 18 be c6 14 fd bc 6e 81 ec 3d 5c 0c ac 3d
       -0.14865673 -0.030893695 0.11548124 0.08400795
000350 a4 5c 1c be 72 6c b3 3d 50 a4 2f 3e c1 b9 3d 3d
       -0.15269715 0.08760919 0.17152524 0.046319727
000360 64 8d 92 3e 2b 52 86 3c 52 e0 2a 3e 48 e8 86 3d
       0.28623497 0.016396603 0.16687134 0.06587273
000370 f5 4a 1f be 3e 42 8b 3d f9 da 1f be 5e bd fc bc
       -0.15555938 0.06799744 -0.15610875 -0.030852016
000380 bd 97 18 3d 8e 75 5d be a1 ca d9 3d 66 7f 90 be
       0.037254084 -0.21626875 0.106343515 -0.28222197
000390 36 6b c8 bc 5a 25 b0 bd 3d df 2e 3e 86 20 59 3c
       -0.024465185 -0.08600874 0.17077346 0.013252383
0003a0 38 a9 03 be 3b 55 c1 3d df 83 10 bb 15 b1 29 bd
       -0.1285752 0.094400845 -0.0022051258 -0.041428644
0003b0 fa f1 a6 3d 32 ff f1 bd e8 01 d4 3d 4d f6 81 3e
       0.08151622 -0.11816253 0.10351926 0.25383225
0003c0 41 56 60 3c 25 79 f7 bd 21 bf 87 3d fd 3c 09 be
       0.0136924395 -0.12083653 0.06628252 -0.13402171
0003d0 ad 3d a5 bd 3e 4c ce bb 65 61 9d bd 2e de 18 bc
       -0.08068404 -0.00629571 -0.07684592 -0.0093303155
0003e0 ed 19 01 be 55 53 89 be be d1 c2 bd 8b 03 83 bc
       -0.12607546 -0.2682139 -0.095126614 -0.0159929
0003f0 f9 75 b1 bc 6f 3f 89 3d fb 5d 19 be 92 3d fe bd
       -0.021662699 0.06701552 -0.14977257 -0.12414087

critic.2.bias f4 [256]
000000 2f 0d 9d 3d aa 5f 91 bd d5 5d 99 3d 6a ec bb 3c
       0.0766853 -0.070983246 0.074886 0.02293988
000010 b8 9e 53 bd 8a bd 96 bd b5 c1 66 3d 96 cb d7 3d
       -0.051665038 -0.073603705 0.056337077 0.10536878
000020 d9 93 e3 bd 7f 62 2e be 39 9a 91 be cb 03 c0 bd
       -0.11112184 -0.17029761 -0.28437975 -0.093757235
000030 73 0d 84 3d a2 1b 51 bd c3 f2 13 3d 32 c2 de 3d
       0.06447878 -0.051051743 0.036120187 0.108768836
000040 0a d7 26 3d 0f f8 65 bd 1f 8e 31 bd 3c 86 51 3d
       0.04073242 -0.05614477 -0.043348428 0.051153407
000050 d3 d1 34 3c 0b 9f 66 3d e4 03 b9 3c a6 e6 d9 bd
       0.011036354 0.05630402 0.022584863 -0.10639696
000060 89 5c 36 bd 7a 3f b0 3d 82 74 92 bd 6f ea 52 bd
       -0.044521842 0.08605857 -0.07151128 -0.051493105
000070 2b 45 77 3d 45 e5 cf 3d 87 1e 68 bd c1 3d 05 3e
       0.060368698 0.101511516 -0.05666974 0.13011838
000080 f6 f8 0f 3d 74 19 b2 bd c3 53 e7 bd aa 47 56 bd
       0.035149537 -0.08696261 -0.11295273 -0.052314438
000090 0c 9b 29 bd 23 da a8 bc 61 41 8e bd bf 2a 5d bd
       -0.04140763 -0.020611828 -0.06946064 -0.053995844
0000a0 93 75 cd 3d 3f 64 a5 3d a3 80 6e 3d 52 67 d6 bc
       0.10032191 0.08075761 0.058228146 -0.026172314
0000b0 08 3d 60 3d 97 e9 72 3c 3c f3 78 bd f2 4a 0c be
       0.054745704 0.0148262 -0.06077884 -0.13700464
0000c0 eb 37 00 bd 36 a7 4c 3d 80 be 40 bd c8 48 5e bd
       -0.031303328 0.049964152 -0.047056675 -0.05426863
0000d0 ed 6c 91 3d 79 d3 8d bd 70 e4 cf 3c 86 19 c4 bd
       0.07100854 -0.06925101 0.025377482 -0.09575181
0000e0 2a 71 b0 bd 72 6b 25 bd c7 13 3f bd 78 15 ac bd
       -0.08615334 -0.04038567 -0.04664972 -0.08402532
0000f0 10 c6 a2 3d 1b 6b 9a 3d 3b ac 98 bd ef 4d 5d bd
       0.07947934 0.0753996 -0.07454725 -0.0540294
000100 20 f0 91 3d f8 dc fd bb a5 cb 20 bd 74 35 4b bd
       0.07125878 -0.007747289 -0.03925671 -0.049611524
000110 8f f5 b7 3d cf e4 93 3d b6 8a a5 3d 32 eb 23 3e
       0.089823835 0.07221376 0.08083098 0.16007689
000120 ea 74 33 bd 3f c0 ac 3d 27 42 0e bd 77 d9 93 3d
       -0.04381267 0.084351055 -0.034731057 0.072192125
000130 b1 96 5f 3d a1 f2 04 39 85 27 21 3d de 0f 56 bd
       0.05458707 0.00012678887 0.03934433 -0.052261226
000140 50 49 83 3d b1 1b ca 3d 23 b4 a5 bd a6 c0 b5 3d
       0.064104676 0.09868563 -0.08090999 0.088746354
000150 ba d1 a8 bd 26 a5 58 3d f9 fd 4c 3b e6 d1 8b bd
       -0.08243127 0.052891873 0.003127931 -0.06827144
000160 97 f1 8a bd bc da 3b bd f5 1f 7f 3d 29 28 42 bd
       -0.06784361 -0.0458629 0.062286336 -0.04740158
000170 e8 15 06 bd 48 82 a7 bc 25 1d 09 3e 61 8f 52 bd
       -0.032735735 -0.020447865 0.13390024 -0.051406268
000180 f8 5c 9a 3d e6 12 85 bd f3 46 95 3d bd 01 f0 3b
       0.07537264 -0.06497745 0.07288923 0.007324426
000190 b6 cd 3b 3d 1f 4f 04 3d 48 5e 7c bd 00 0c 88 3c
       0.045850478 0.03230202 -0.06161335 0.016607285
0001a0 6e d7 fd 3d d4 c9 b6 bd cf 19 2f be 35 f2 9b bd
       0.123946056 -0.089252144 -0.17099689 -0.07614557
0001b0 17 3b 7a 3d 30 cb 66 bd 9c 53 b6 bc 91 30 a9 3c
       0.06109151 -0.05634612 -0.022256665 0.020653041
0001c0 f1 bf f9 3c 11 94 54 be 48 d6 8e bd ff c9 41 3d
       0.030487033 -0.20759608 -0.06974465 0.04731178
0001d0 1e 34 76 3d 47 88 0d 3d 41 93 d7 bc 19 12 5c bd
       0.060108297 0.034553792 -0.026315333 -0.053728197
0001e0 08 16 08 3d 39 31 21 3d 5b 9b 9b 3d 64 4e a4 3c
       0.033224136 0.039353583 0.07597991 0.02005691
0001f0 bb a7 45 3d 3e f8 0b 3d a3 52 2c bb 9e 34 c2 3b
       0.048255663 0.03417229 -0.0026294373 0.0059266826
000200 d1 4a ac 3d e9 a8 02 bd b5 95 4d 3d e7 1b bc 3d
       0.084127076 -0.031899367 0.0501916 0.091850094
000210 7d 6b 4a bd 04 37 82 3d 59 9d 81 3d 7a 7a 8b 3d
       -0.049418915 0.0635815 0.0632884 0.0681047
000220 f0 c3 5f 3d 6b e2 d7 3c 2c 33 b9 bd e3 4e 16 bc
       0.05463022 0.026353082 -0.090429634 -0.0091740815
000230 96 cc 35 bd db e6 d2 3c 4c 97 58 3d 6c 2f 66 bd
       -0.04438456 0.025744846 0.052878663 -0.05619757
000240 39 cc 6c bd a9 54 47 3d 2a b4 75 bd d0 13 db bc
       -0.05781195 0.048664723 -0.05998627 -0.026742846
000250 45 fe 7b bd f6 a3 42 3d 90 6d 28 bc c2 9d 28 3d
       -0.061521787 0.047519647 -0.010280028 0.041166075
000260 49 0f 63 3d bc da 88 3d 83 39 c7 bd 21 a3 c4 bd
       0.0554345 0.06682345 -0.09727766 -0.09601427
000270 cf 1b 60 3d 5c 61 af bc c8 d1 77 3c 21 d1 c2 3d
       0.05471402 -0.02140873 0.015125699 0.095125444
000280 9e e7 a2 bd 2c a0 24 3d 15 08 29 3d f9 4f 7c 3d
       -0.07954334 0.040191814 0.041267473 0.061599705
000290 89 57 94 3d f8 ac ff bc 74 8d 04 3d 63 db 53 bd
       0.072432585 -0.031210408 0.032361463 -0.051722895
0002a0 1f 08 11 bd c9 22 dc 3d 18 ce f7 3d 52 89 30 3d
       -0.035408136 0.10748822 0.12099856 0.04309971
0002b0 57 f7 72 3d 65 71 ed bc b0 a8 6b 3d df 8f 93 3d
       0.059317913 -0.028984735 0.05753392 0.072051756
0002c0 8b 55 72 3d b5 5f d1 bc dd 29 39 3d d2 41 46 3d
       0.05916361 -0.025558332 0.04520594 0.048402615
0002d0 3b 13 0f be 54 ae 80 bd 90 6b e1 bd 59 d9 2c 3d
       -0.1397218 -0.062832505 -0.11006844 0.042199466
0002e0 1d 21 81 bd 1f 94 ec 3d a4 49 a8 3d cf e7 51 3d
       -0.06305144 0.11551689 0.08217171 0.05124646
0002f0 6e ec 97 3d 9c 79 ba 3d 04 18 5d 3d 0d 23 50 3d
       0.07418142 0.091052264 0.05397798 0.050814677
000300 a9 59 0d bd 7a db 1a 3d 34 a4 36 bc b6 87 cb 3c
       -0.034509335 0.037806965 -0.0111475475 0.024844985
000310 09 70 8a 3d 80 8f 93 bd 9d 8c da 3d ec 76 83 bd
       0.0675965 -0.07205105 0.10671351 -0.06419167
000320 33 15 c0 3d 52 76 63 3d 33 7b 16 be 3d f2 56 3d
       0.093790434 0.05553276 -0.14695434 0.05247711
000330 98 30 dd bc 7d 5b 4a bd 12 02 0a 3e a4 a3 52 bd
       -0.02700071 -0.049403656 0.13477352 -0.05142559
000340 e8 bf 8b bd 60 15 99 3d 14 3f 5e bd b2 80 35 bd
       -0.068237126 0.0747478 -0.054259375 -0.044312187
000350 94 c2 26 bd 2e 50 02 3e 89 7e 4b 3d 16 ec 80 bd
       -0.040712908 0.12725899 0.04968122 -0.0629503
000360 ac 6e 97 3d bd 62 d9 3c 7d 4c 43 bd ac 3d 79 3d
       0.07394156 0.02653634 -0.047680367 0.06084983
000370 25 5a 17 3e 2c 57 59 3d 2d ac bd 3c 6a aa c6 3c
       0.14780481 0.05306165 0.023153389 0.024251182
000380 f7 86 1f 3d ba ea 5f 3d 2d ff a9 bd 79 c7 d9 bc
       0.038947072 0.054667212 -0.08300624 -0.026584374
000390 49 b0 88 3d 63 ad e1 bc 08 1a 3b bd ea 76 e2 ba
       0.06674249 -0.027548498 -0.045679122 -0.0017277871
0003a0 e4 fb 3c 3d d1 8c 3e bd ef 2d 07 3d 1f 20 3c bd
       0.04613866 -0.04652101 0.03300279 -0.04592907
0003b0 f9 b4 80 3d 19 6d bf bc 7c fb 9e 3c 7e af 59 be
       0.06284518 -0.023367452 0.019407026 -0.21258351
0003c0 a6 df 6f 3d fb 2f 99 bc b6 bf 26 bd 50 26 8e b9
       0.058562897 -0.018699637 -0.040710174 -0.00027112896
0003d0 7e 60 15 bd 76 3a 41 3e dc 66 3a 3d 50 76 21 3d
       -0.036468975 0.18869957 0.04550825 0.039419472
0003e0 3e cc bf bc a9 29 3a 3d be 10 87 bd 37 0a 81 3d
       -0.02341282 0.045449886 -0.0659499 0.063007765
0003f0 4b e4 f2 3d ae f3 98 bd 92 75 2c bd cf c4 52 bd
       0.1185995 -0.07468353 -0.04210431 -0.051457223

critic.4.weight f4 [1, 256]
000000 dd 08 8e 3f 44 55 8b bf c3 f8 87 3f bb 6b 87 3f
       1.1096455 -1.0885396 1.0622791 1.0579752
000010 df 48 82 bf 4f b8 8d bf e9 d6 8c 3f 0f bd 80 3f
       -1.0178488 -1.1071872 1.1003085 1.0057696
000020 25 dd 82 bf 94 a0 70 bf 4f 08 80 bf ce 48 88 bf
       -1.0223738 -0.9399502 -1.0002536 -1.0647218
000030 3a 4e 8a 3f cc 68 88 bf ad ed 84 3f 0e ba 89 3f
       1.0805123 -1.0656981 1.0385033 1.0759904
000040 3a 51 87 3f 33 b5 88 bf 5c 3a 85 bf 25 18 85 3f
       1.0571663 -1.0680298 -1.0408435 1.0397993
000050 d9 9a 87 3f 7b 91 86 3f f7 2d 8f 3f 48 45 87 bf
       1.0594131 1.0513147 1.1185902 -1.0568018
000060 94 19 85 bf 9d eb 89 3f d8 af 83 bf 56 12 90 bf
       -1.0398431 1.0775028 -1.0288038 -1.1255596
000070 54 12 90 3f e3 e0 84 3f da 93 85 bf cc 43 82 3f
       1.1255593 1.038113 -1.0435746 1.017694
000080 72 5d 90 3f 2e 2d 86 bf 12 f4 84 bf 8e f1 83 bf
       1.1278517 -1.0482538 -1.0386984 -1.0308092
000090 26 2a 86 bf b5 22 89 bf f0 a9 83 bf cb 71 86 bf
       -1.0481613 -1.0713717 -1.0286236 -1.0503477
0000a0 2a 50 78 3f fb 32 87 3f d2 4d 8d 3f c3 70 87 bf
       0.9699732 1.0562433 1.1039374 -1.0581287
0000b0 b5 a1 80 3f 72 37 8a 3f b3 2b 83 bf 59 e0 82 bf
       1.0049349 1.079817 -1.0247711 -1.0224715
0000c0 18 5e 86 bf f4 22 8d 3f f4 5e 8d bf 66 f6 8c bf
       -1.0497465 1.1026292 -1.1044602 -1.1012695
0000d0 07 c0 87 3f 6d af 8b bf 08 1c 80 3f b6 4d 85 bf
       1.0605477 -1.0912911 1.0008554 -1.041434
0000e0 15 80 87 bf 15 65 84 bf 5f 0e 94 bf 43 09 83 bf
       -1.0585963 -1.0343348 -1.1566886 -1.0237201
0000f0 72 83 87 3f ee 64 84 3f 99 db 82 bf dd 34 8b bf
       1.0586989 1.0343301 -1.0223266 -1.0875508
000100 65 f0 82 3f 11 85 85 3f 8d ca 8e bf 27 13 8d bf
       1.0229613 1.0431234 -1.1155564 -1.102147
000110 5a 3c 85 3f 4e 6f 84 3f 21 7c 8b 3f 9e 4f 79 3f
       1.0409043 1.0346467 1.0897256 0.9738711
000120 7f 2d 8b bf 7b e3 8e 3f 22 fa 8a bf a7 3d 89 3f
       -1.0873259 1.1163172 -1.0857584 1.072194
000130 e5 71 8c 3f e4 21 84 3f 37 a4 82 3f ce cb 88 bf
       1.0972258 1.0322843 1.0206364 -1.0687196
000140 b4 ac 89 3f 3f ca 84 3f 64 bb 85 bf ea cf 86 3f
       1.075583 1.0374221 -1.0447812 1.05322
000150 eb e2 8a bf 21 8f 85 3f b2 25 82 3f 96 d7 83 bf
       -1.08505 1.0434304 1.0167754 -1.0300167
000160 1a e7 89 bf e5 13 8b bf 4d e7 83 3f 82 41 90 bf
       -1.0773652 -1.0865446 1.0304962 -1.1269991
000170 10 6b 89 bf c9 72 87 bf 62 b8 7e 3f c4 98 85 bf
       -1.0735798 -1.0581905 0.99500096 -1.0437245
000180 13 f1 84 3f 0c 6f 84 bf fd 1c 8b 3f 26 a0 89 3f
       1.038607 -1.0346389 1.0868222 1.0751998
000190 74 e3 89 3f cf 6a 8b bf 26 36 83 bf 60 42 87 3f
       1.0772538 -1.089197 -1.02509 1.0567131
0001a0 be 49 8b 3f d3 e7 7e bf e2 a7 7a bf 17 f4 86 bf
       1.0881879 -0.99572486 -0.9791242 -1.054324
0001b0 df ef 87 3f cb 5b 88 bf 2d fc 80 bf ab ad 8a 3f
       1.0620078 -1.0653013 -1.0076958 1.0834249
0001c0 db 3f 84 3f 65 6e 82 bf 60 97 86 bf 5c b3 87 3f
       1.0331987 -1.018994 -1.0514946 1.0601611
0001d0 6f fc 91 3f 43 56 84 3f e4 75 84 bf f7 1c 89 bf
       1.1405162 1.0338825 -1.0348477 -1.0711964
0001e0 8b 2e 89 3f 72 cb 89 3f ba 46 80 3f 96 8e 85 3f
       1.0717329 1.0765212 1.0021584 1.0434139
0001f0 95 e6 89 3f 7c 3a 8c 3f 6e ae 85 bf 29 9a 86 bf
       1.0773493 1.0955348 -1.0443857 -1.0515796
000200 d9 45 85 3f 61 54 78 bf 78 29 8a 3f 30 c1 86 3f
       1.0411941 -0.9700375 1.0793905 1.0527706
000210 f8 d3 87 bf 7b bf 89 3f 9d 37 8b 3f f2 46 86 3f
       -1.0611563 1.076156 1.0876347 1.0490401
000220 89 7e 86 3f 08 fc 81 3f c5 ae 86 bf 1d 06 8a bf
       1.0507365 1.0155039 -1.0522085 -1.0783116
000230 9a e2 79 bf 06 16 88 bf 56 84 85 3f 36 2f 88 bf
       -0.9761139 -1.0631721 1.0431011 -1.0639408
000240 ba d2 8a bf ec d1 81 3f 6c 5c 82 bf a8 f5 87 bf
       -1.0845559 1.0142188 -1.0184455 -1.0621843
000250 8c 13 89 bf a9 8d 85 3f fd 9e 89 bf ba 72 8c 3f
       -1.070909 1.0433856 -1.0751644 1.0972512
000260 93 ff 87 3f d0 cf 8d 3f 75 7e 81 bf 9b a7 85 bf
       1.062487 1.1079044 -1.0116717 -1.0441774
000270 2c 67 89 3f f2 15 88 bf 97 96 84 3f 16 cd 8b 3f
       1.073461 -1.0631697 1.0358456 1.0921962
000280 7a 6f 85 bf 4a 41 84 3f 18 bc 8c 3f f2 26 86 3f
       -1.0424645 1.0332425 1.0994902 1.0480635
000290 22 30 7e 3f f3 b3 86 bf 1a df 8b 3f fd d9 94 bf
       0.99292195 -1.0523666 1.092746 -1.1629025
0002a0 10 b1 89 bf 22 91 82 3f 1c f2 86 3f 00 24 88 3f
       -1.075716 1.0200541 1.0542636 1.0635986
0002b0 ba 54 7e 3f af b6 89 bf c0 99 90 3f ed 5d 89 3f
       0.9934803 -1.0758876 1.1296921 1.0731789
0002c0 05 fb 84 3f 72 4b 88 bf 55 7b 88 3f 14 ff 8f 3f
       1.0389105 -1.0648024 1.0662638 1.1249719
0002d0 9f 65 81 bf 88 b0 7a bf fd 54 82 bf cf 41 8a 3f
       -1.0109137 -0.97925615 -1.0182186 1.0801333
0002e0 d8 43 80 bf fb 5f 82 3f 43 6a 89 3f 31 d4 87 3f
       -1.0020704 1.0185541 1.0735554 1.0611631
0002f0 28 2f 8c 3f 9e ea 86 3f 94 95 88 3f 4b 77 8b 3f
       1.0951891 1.054035 1.0670648 1.089578
000300 68 95 8a bf 6b a6 85 3f ce d0 86 bf 78 7d 8a 3f
       -1.0826845 1.0441412 -1.0532472 1.081954
000310 58 2f 8e 3f f7 be 86 bf fd 4d 86 3f 43 aa 8a bf
       1.1108198 -1.0527028 1.049255 -1.083321
000320 72 de 81 3f 4b 02 84 3f f9 97 85 bf 94 02 85 3f
       1.014601 1.03132 -1.0437003 1.0391412
000330 cc ad 86 bf 08 79 89 bf 04 fe 71 3f c8 2e 94 bf
       -1.0521789 -1.0740061 0.9452822 -1.1576777
000340 38 d0 8a bf e9 fb 8e 3f 6d 4e 8c bf e6 83 84 bf
       -1.0844793 1.1170627 -1.0961434 -1.0352752
000350 76 89 80 bf a8 f3 83 3f 4b 5e 86 3f 6b 86 88 bf
       -1.004195 1.0308733 1.0497526 -1.0666021
000360 6f 43 87 3f 0d f9 87 3f e7 10 8e bf 02 4c 88 3f
       1.0567454 1.0622879 -1.1098908 1.0648196
000370 fb d0 86 3f c3 34 8a 3f c6 ff 80 3f fd c9 85 3f
       1.0532526 1.0797352 1.0078056 1.0452267
000380 af 85 91 3f 1e 42 86 3f 9c ea 8f bf 87 d6 8c bf
       1.1368922 1.0488927 -1.1243472 -1.1002969
000390 11 e7 87 3f 7e ef 89 bf 18 56 8a bf 8a 09 86 bf
       1.0617391 -1.0776212 -1.0807524 -1.0471661
0003a0 f3 d5 90 3f b1 84 90 bf e0 1d 83 3f f2 7d 95 bf
       1.1315292 -1.1290494 1.0243492 -1.167906
0003b0 e5 a6 85 3f 4e b6 83 bf 72 4e 8a bf 26 89 76 bf
       1.0441557 -1.029001 -1.080519 -0.9630302
0003c0 d1 2f 84 3f 04 0e 88 bf 5f b0 83 bf 92 69 86 3f
       1.0327092 -1.0629277 -1.0288199 1.0500968
0003d0 0c ad 6c bf 91 a8 7a 3f 56 2d 83 3f de 6c 86 3f
       -0.9245155 0.9791346 1.024821 1.0501974
0003e0 6c 5a 90 bf 96 95 8a 3f fd 7b 87 bf 17 db 85 3f
       -1.1277595 1.08269 -1.0584713 1.0457486
0003f0 3f 7c 82 3f 8b 1b 8c bf e9 df 85 bf e9 16 91 bf
       1.0194167 -1.0945905 -1.0458957 -1.1335117

actor_mean.0.weight f4 [256, 13]
000000 71 24 d0 bc 75 5b d7 bd 5f b4 45 bd 36 3d 48 3e
       -0.025408002 -0.10515491 -0.04826772 0.195546
000010 9c eb 02 3e f3 59 0b 3e 6c 54 49 3d 4d e9 dc bb
       0.1278519 0.13608532 0.049152777 -0.006741679
000020 8e 33 c8 bb ad 80 07 3d 0a c0 12 3d da f7 b4 3d
       -0.0061096614 0.0330817 0.035827674 0.088363364
000030 2a 03 8b 3d 5a ff 39 bb ea 5f 93 bd 71 37 9f bd
       0.06787713 -0.002838096 -0.071960285 -0.077742465
000040 2c 2d 86 3a 49 e1 4e bd 4e 55 a3 3d 6b 6d 30 bd
       0.0010236851 -0.050507817 0.07975255 -0.0430731
000050 76 f0 c3 bd 71 c7 b9 bc 52 a7 3c 3d da 74 e9 3d
       -0.09567349 -0.022678109 0.046058007 0.11399241
000060 dc 91 7b 3d 68 c3 c6 3a 3b 5b 71 be ed 53 68 bc
       0.0614184 0.0015164437 -0.23569958 -0.014180166
000070 11 a4 a8 bd 7b a8 98 3c 7d 39 db bb b1 3c 06 be
       -0.08234418 0.018635025 -0.0066902027 -0.1310909
000080 e2 f8 bc bc f9 5c 61 be a9 65 84 3a 63 1f 08 be
       -0.023067895 -0.22008123 0.0010101098 -0.13293223
000090 7b 02 9c bc c4 42 7a bc 7b 6c 7f bd 33 a5 e7 bd
       -0.019044152 -0.015274707 -0.062359314 -0.11310806
0000a0 ea a4 a8 bb 44 d1 84 bd b6 8f 7c 3d 73 76 26 be
       -0.0051466124 -0.06485227 0.06166049 -0.16256122
0000b0 c7 bb c2 3b f9 cd fa 3d 50 f9 9f 3c 92 3c e7 3a
       0.005942795 0.122463174 0.019528061 0.0017641953
0000c0 a1 c7 65 bd 66 1c 36 bd e4 9a c9 bd 6b c2 b0 bd
       -0.056098584 -0.044460677 -0.09843996 -0.08630832
0000d0 f8 2a 9b 3d 7a c7 0c 3d 30 fa bb 3c a4 b0 d1 3c
       0.07576555 0.034369923 0.022946447 0.025596924
0000e0 9a 7e c1 bc 81 5c 82 bd 7d 73 11 3e b2 35 25 be
       -0.023619939 -0.063653 0.14204212 -0.16133764
0000f0 c5 d8 52 3e 21 e5 a6 3b c6 82 97 bd 13 47 10 be
       0.20590504 0.0050932323 -0.0739799 -0.14089613
000100 38 ee fa 3d fc 86 33 bd d0 07 62 3e 9c ed 28 bd
       0.12252468 -0.043829903 0.22073293 -0.041242227
000110 23 0f 82 3d 77 89 56 3c 73 71 8e 3c 66 79 4b 3c
       0.06350543 0.013094298 0.017388081 0.01241908
000120 3d df c5 bc e7 65 5d 3d e6 0a 85 3d a7 86 f1 3c
       -0.0241543 0.05405226 0.06496219 0.029483153
000130 4b 69 75 3d f9 28 e8 3c ee 1a 00 3c 9d c2 2f 3c
       0.05991487 0.02833985 0.007818921 0.010727552
000140 dd fc 0c 3e a2 51 db 3d 42 07 36 3d 9b 23 24 3d
       0.13768335 0.107089296 0.044440515 0.04007302
000150 5d 6d 84 3d 71 f7 a2 3d 81 d0 df 3d fb aa 61 3b
       0.06466172 0.07957352 0.10928441 0.0034434188
000160 a0 64 07 bd 01 ee 6a 3c 1a 2b 3d 3c da fd b1 3d
       -0.033054948 0.014338971 0.011545921 0.086909965
000170 22 87 39 3d 26 c6 c7 3d 7e 75 2c 3c f7 2c 33 3e
       0.04529489 0.09754591 0.010526059 0.17497621
000180 1c 6b 8c bd 47 c3 2e 3c 59 2e bc bd 0c ed f9 bd
       -0.06856367 0.010666675 -0.091885276 -0.12203416
000190 b0 f4 d3 3d 42 77 ae bd 82 46 10 bc 95 32 48 bd
       0.10349405 -0.085188404 -0.008805873 -0.048876364
0001a0 60 d5 d0 3c 74 ec 17 bd a0 69 ad bd c6 c5 21 bd
       0.02549237 -0.037090734 -0.08467412 -0.039495252
0001b0 4f 7c 8d bd bf 53 0a bd 63 f9 c2 bd 40 26 aa 3c
       -0.069084756 -0.033771273 -0.09520223 0.020770192
0001c0 b9 a8 14 3d 31 70 8e bd 48 8c b8 bc a1 fc 0b 3e
       0.03629372 -0.069549926 -0.022527829 0.13670589
0001d0 f1 af 66 bd ba 87 65 3e 24 08 a2 bd 41 58 8e bd
       -0.056320135 0.22415057 -0.07911709 -0.06950427
0001e0 b2 1a 94 bd 4d c9 d2 3d 92 3e 12 3e 7c 96 39 bd
       -0.07231654 0.10292301 0.14281681 -0.04530953
0001f0 0a 44 15 3e 75 28 57 bc 32 bb 88 3d cd 0b e5 3c
       0.14576736 -0.013132204 0.0667633 0.027959729
000200 15 b6 da 3c f4 31 0e 3e 4c 5b 37 bd 44 9b 87 bc
       0.026698152 0.13886243 -0.0447648 -0.016553529
000210 46 da c6 3c 5c 76 e4 bc 9d 32 74 bd 91 2a 23 3d
       0.024274003 -0.02788847 -0.05961858 0.039835516
000220 8d 8e f2 3d d1 5d f3 bc 9c 09 96 3d 07 f5 cd 3c
       0.11843596 -0.029707821 0.073260516 0.025141252
000230 04 c6 4e be a4 4d 21 be 42 df 9d bc 97 f0 b1 3c
       -0.20192724 -0.15752274 -0.019271497 0.021721167
000240 87 e9 cc bc 52 3d e3 3d 52 2e 8c bd 00 ad 6b bd
       -0.025013698 0.1109568 -0.068447724 -0.057538033
000250 f4 d8 f8 3b ed 48 69 3d 68 12 b7 3d 89 3c e2 bd
       0.007594222 0.056954313 0.089390576 -0.110467024
000260 f6 a5 dc 3c 00 46 4c 3d fc da 05 3d 0f 4f 46 be
       0.026934605 0.049871445 0.032679543 -0.19366096
000270 2b 25 c8 3c dc 4d f6 bc 63 b8 d6 bd e4 b8 2c 3d
       0.024431786 -0.030066423 -0.10484388 0.042168513
000280 55 38 97 bd e8 31 33 bd c4 58 80 bd 8a 18 d8 bd
       -0.07383791 -0.043748766 -0.06266931 -0.105515555
000290 cf 72 bf 3c 34 82 03 be b9 e4 c6 3c 02 dc a3 bd
       0.023370175 -0.12842637 0.024278985 -0.080009475
0002a0 d3 80 47 3d 99 68 b4 bc 70 fd da 3c 6c 0a 66 bb
       0.04870684 -0.022022532 0.026732177 -0.0035101427
0002b0 d8 a9 45 3d a8 68 3f bd 8c 74 86 bd 39 28 38 bd
       0.04825768 -0.046730667 -0.06565198 -0.044960234
0002c0 35 9d e2 bc 66 35 18 bd 81 18 6c 3d e9 18 45 bb
       -0.027662853 -0.0371603 0.057640556 -0.0030074662
0002d0 c4 92 45 3d c9 cc 11 3e bf ef 3a bd c1 7b cb bc
       0.04823567 0.14238276 -0.045638796 -0.024839284
0002e0 96 4d fa bc ea 88 49 bc 60 6c de 3d 71 a1 e8 3d
       -0.030554574 -0.012300709 0.10860515 0.113589175
0002f0 36 30 f3 bd 40 15 15 be 92 22 a3 3d 81 c3 9e 3c
       -0.1187443 -0.14558887 0.07965578 0.019380333
000300 68 69 e2 3d da 21 36 bc d0 89 ac bc 57 55 4a be
       0.11055261 -0.011116469 -0.021061808 -0.19759117
000310 64 a7 d6 bb ad 50 99 bd 58 e7 9a be fe b6 ae bd
       -0.0065507162 -0.07486091 -0.30254626 -0.08530997
000320 f6 2b 83 3c 9d 6e aa 3c 63 1a a2 3d e7 26 62 3d
       0.016012173 0.020804698 0.07915189 0.05521288
000330 d8 06 a5 3d 00 fb e3 3d 34 09 0f bd de a1 a1 3d
       0.08057946 0.11131859 -0.034920886 0.07892202
000340 ec 99 63 bd 98 6a 37 bd fe 4d 29 bb 13 df ce 3d
       -0.055566713 -0.04477939 -0.002583384 0.10101142
000350 70 94 88 3d 7e c8 63 3e f1 f8 b1 3d c7 b7 91 3c
       0.06668937 0.2224445 0.0869006 0.017787827
000360 8b 0f 34 be c3 f5 82 bd ea d1 10 3d 36 ad 5a bd
       -0.17584054 -0.063945316 0.03535644 -0.053387843
000370 ab bd af 3d 8a d1 4c be 6f d5 c2 3d 3b ed 03 bd
       0.08581098 -0.20001808 0.095133655 -0.032208662
000380 10 d0 94 3d 6c 08 9e 3d 15 28 0e bd b2 fd 6a 3b
       0.07266247 0.0771645 -0.034706194 0.003585678
000390 15 3a 31 be 43 00 79 bd cf b7 96 bd 92 5d f8 bd
       -0.17307313 -0.060791265 -0.073592775 -0.12127222
0003a0 db 04 aa bd a3 c0 4f bd 1c 5b 05 3a be 15 a5 bc
       -0.08301707 -0.050720822 0.0005087124 -0.020151969
0003b0 d5 57 19 be 60 ba 61 3d 15 59 9c bd 32 83 c1 bd
       -0.14974912 0.05510938 -0.076341785 -0.09448852
0003c0 2e da e5 bc b6 22 9b bd 60 e2 81 3c 78 0c 5c bd
       -0.028058138 -0.0757498 0.015855014 -0.05372283
0003d0 ab fd 17 3d 03 1d 5d 3d b5 70 a1 3c 6a 9f 44 3c
       0.03710715 0.053982746 0.019707063 0.012000898
0003e0 f3 cd 7b 3d c1 67 a9 3d 74 bf 31 be fa 86 ab 3d
       0.061475705 0.082717426 -0.1735819 0.08375354
0003f0 81 97 83 3b 3a 45 90 bd 90 52 87 3d 07 06 06 3d
       0.0040158634 -0.07044454 0.066075444 0.032720592

actor_mean.0.bias f4 [256]
000000 7c ce 74 3d ea e8 c4 bc 21 3e 36 bd 95 d6 fd 3c
       0.05976723 -0.024036843 -0.044492844 0.03098611
000010 3f 77 0f bd b2 e1 03 3d 2e d4 9b 3b c0 d9 9c 3b
       -0.03502583 0.03219766 0.0047555184 0.0047867
000020 20 72 b3 bc 8d af fb 39 f3 fd 6d 3b fa 8c e3 3c
       -0.021905005 0.00048005246 0.0036314696 0.027777184
000030 42 5d 50 bb 67 9e f3 3b 3f 06 4e 3c 04 33 59 bb
       -0.0031793867 0.0074346545 0.012574731 -0.003314198
000040 62 17 35 3d 3e 25 3f 3c bc 3f dd bc 0f ff 8a bb
       0.044211753 0.011666594 -0.02700793 -0.004241831
000050 f3 f7 10 bd b3 80 f4 bc a1 7e f9 3c da 5c 11 bd
       -0.035392713 -0.029846525 0.03045589 -0.03548894
000060 22 1f 88 3a e0 4b 0e bd 9c e2 98 bc e0 6e 21 bd
       0.0010385255 -0.03474033 -0.018662743 -0.03941238
000070 f1 9c 1f 3b 7b 79 34 bd 9d cc 7f bd be 30 5d 3a
       0.002435502 -0.044061165 -0.062450994 0.0008437744
000080 e3 1c b7 3c fd 8a c5 bb cf 59 1a bc e2 f8 2a bd
       0.022352641 -0.0060285316 -0.009420826 -0.04174126
000090 89 37 cc 3c fd bc 62 3d 98 ec 05 3d 02 37 07 3d
       0.024928825 0.055356015 0.032696337 0.033011444
0000a0 72 08 47 3c 07 8a 8d 3d cf 0a ef 3c 6c cb 43 bc
       0.01214801 0.06911092 0.029179959 -0.011950355
0000b0 1d 89 1e bc c3 2f 02 bd 86 36 f4 ba c1 56 db bb
       -0.009676245 -0.03178383 -0.0018631972 -0.0066936915
0000c0 0f cd b1 3c 77 0d d8 3c 80 84 5e 3d 78 4e 0e 3d
       0.021704225 0.026373608 0.05432558 0.034742802
0000d0 c8 01 bb bc c9 ae cd bc cc fe 88 bd 4e 23 0e 3c
       -0.022827998 -0.025107758 -0.06689224 0.0086754095
0000e0 bc cb a3 3c 5f 17 00 3d 74 84 8e bc ac 67 7f bd
       0.019994609 0.03127229 -0.017397143 -0.06235473
0000f0 ad 7c 0e bc 6e 41 05 bc 06 30 d7 3c ea 63 e4 3b
       -0.008696717 -0.008133275 0.026268017 0.0069699185
000100 9d 4c 1a bc ca 0c 9e 3c 08 be 9e 3c 14 a3 cf 3b
       -0.00941768 0.019293208 0.019377723 0.006336579
000110 44 2e eb bb 2a 2e a7 bc 7d 3c 79 bd 0a bd 83 3b
       -0.007177146 -0.020407755 -0.0608487 0.004020338
000120 49 e7 1c 3d 59 a7 93 3c a4 a2 96 3d 8a 8e 3b 3d
       0.03830651 0.018024134 0.0735524 0.045790233
000130 7d 88 82 bc 82 72 38 3c f6 5c bf 3b 1a 60 d7 3c
       -0.015934223 0.01125777 0.005839939 0.026290942
000140 ed 55 24 3d b8 d9 1c 3d 0e bf 8b 3c 1b b4 fd 3c
       0.040121008 0.03829357 0.017058875 0.03096967
000150 00 0e 42 3d 68 59 8c 3c dc 89 c7 3c 0e 2c 11 3d
       0.047376633 0.017132476 0.024357729 0.035442404
000160 09 d2 20 3c a4 dc 39 3d e3 c8 18 3d bf 5d 0a 3d
       0.009815701 0.045376435 0.037300956 0.03378081
000170 49 5d e2 3a 14 37 2f 3d 39 97 21 bb 77 4c 13 3b
       0.0017270233 0.042777136 -0.0024656786 0.0022475997
000180 b0 95 5d bb 34 b9 24 bd 22 6a e2 ba cc 41 9d 3c
       -0.0033811145 -0.040215686 -0.0017274062 0.019196413
000190 a7 ff 19 3c 03 3e d8 bc b8 f2 ae 3b 41 65 25 bc
       0.009399331 -0.026396757 0.005338993 -0.010094942
0001a0 20 03 17 3d 72 8a be 3c 8b ae 90 3c 4a 00 0b 3d
       0.036868215 0.023259375 0.017661354 0.033935823
0001b0 63 8c 6e bc 7c 55 dd bc 1e b0 c9 3c 9b cc 10 3d
       -0.014559838 -0.027018301 0.024620112 0.035351377
0001c0 f1 4a 3a bc e0 01 11 bc 86 da 6f bc 74 fb ac bc
       -0.0113704065 -0.008850545 -0.014639502 -0.021115996
0001d0 3e 4a 13 bc cd 9c 66 bc dc 14 17 bc 86 4b ca bc
       -0.008989869 -0.01407547 -0.009221282 -0.024694216
0001e0 15 6f d4 3b 6b 42 80 3c 3d f4 c8 bc e1 44 34 bd
       0.0064829686 0.01565667 -0.024530524 -0.044011
0001f0 ec ef 98 bb 5d f8 bd bc 6f 30 ce 3c 48 53 ee 3b
       -0.004667273 -0.023189718 0.02516958 0.0072731115
000200 29 e4 90 bc 9b 00 57 3c 26 56 62 39 6f 4e ba ba
       -0.01768692 0.013122703 0.00021585132 -0.0014214049
000210 65 d4 1f bd 91 79 70 bd 0c b7 7c 3c b4 b1 f4 bc
       -0.039020915 -0.058709685 0.015424501 -0.029869892
000220 62 e2 05 3c d7 74 f1 bc e2 6c 49 bd 8f 25 b1 bc
       0.00817165 -0.029474659 -0.049176104 -0.021624355
000230 36 9c b3 3c 59 80 17 bd 05 d7 28 bd d7 c7 13 bd
       0.021925073 -0.036987636 -0.041220684 -0.036079254
000240 d8 7e a9 bc 1d 56 80 bb bd 98 20 bd e3 63 a8 3b
       -0.020690367 -0.0039165155 -0.039208163 0.0051388605
000250 4a 78 8f bb 2d c2 46 3c 32 f3 70 3c 5a 38 4e 3d
       -0.0043783532 0.012131256 0.01470642 0.05034671
000260 64 a0 51 bd d6 e4 2c 3d cc cb 1e bc 83 95 57 bb
       -0.05117835 0.042210422 -0.009692144 -0.0032895512
000270 51 2a 81 bc 74 75 11 bc 68 e8 49 3b c2 cf 0b bd
       -0.015767248 -0.008878101 0.003080869 -0.03413368
000280 bf a4 b0 3d b1 44 c2 3b fb a8 da bc 26 38 98 bc
       0.08625173 0.005928599 -0.026691904 -0.018581461
000290 16 8d b9 3b 9a c3 df 3c 8e 66 ce bc b6 b0 9c bb
       0.0056625707 0.02731495 -0.025195386 -0.004781808
0002a0 a5 5d 9d 3c 90 f6 a7 bc dc 56 01 bd 1b e6 cc bb
       0.019209692 -0.020503312 -0.031576976 -0.0062530166
0002b0 8d c3 19 3d 8d 8b 14 3c dd 60 15 3d 89 78 27 3d
       0.037540007 0.009066475 0.03646933 0.040886436
0002c0 49 1f 2c 3d d4 74 94 bc 54 2d 21 bc a1 a5 c4 3c
       0.042022023 -0.018122114 -0.009837467 0.02400476
0002d0 48 0c 8d bc ea 61 ab 3c 28 d2 07 bd e4 be 1f bc
       -0.01721777 0.020920713 -0.033159405 -0.009750102
0002e0 d4 34 74 3b 5a 72 1e 3d 36 19 39 bd 58 4a fa bc
       0.0037262933 0.038683273 -0.04519006 -0.030553028
0002f0 43 52 f5 bc 26 b0 d2 3c 0f 72 3c 3d 6e 49 c6 3c
       -0.029946452 0.02571876 0.046007212 0.024204936
000300 d3 57 aa bb 00 50 34 3c c3 07 be bb 0f 31 83 3d
       -0.0051984577 0.011005402 -0.005799265 0.064058416
000310 1e 79 ca 3c 98 02 60 bc 35 2d 38 3d 12 28 32 bc
       0.024715956 -0.013672493 0.044964988 -0.010873811
000320 91 f4 3f 3d 60 46 9d bc dc 04 fe 3c 81 3c 97 3c
       0.046864096 -0.019198596 0.031008177 0.018461468
000330 b8 62 12 bd 66 01 50 bd 70 a0 f5 bc 7f 13 b0 bb
       -0.035738677 -0.050782584 -0.02998373 -0.005373418
000340 22 63 d1 bc 2e 92 8e bc d9 cd 35 bd f5 d6 b0 bc
       -0.025559966 -0.017403688 -0.044385765 -0.021586874
000350 51 5c ec 3b b2 59 e1 3c 9f 02 15 bd 94 fe df bb
       0.0072131534 0.02750859 -0.036379453 -0.006835768
000360 2b 99 db bb 70 a0 c4 bc 28 88 46 bd 89 e2 40 bc
       -0.0067016087 -0.024002284 -0.048469692 -0.01177276
000370 63 f3 10 bc a8 2c b1 bc 57 3c cf 3c 3c bb 49 bc
       -0.00884709 -0.02162774 0.025297327 -0.012312707
000380 9f 51 a3 bc fe e7 98 bc d6 91 06 bd ab 79 09 bd
       -0.01993638 -0.01866531 -0.032853924 -0.033563297
000390 1a 3d 31 3c 29 ea 0d bd 02 fa 53 3d 03 fd 94 bc
       0.01081779 -0.03464714 0.051752098 -0.018187052
0003a0 1c 8f b7 3b 3c a5 b0 3c 58 37 dd 3c 86 c1 32 bd
       0.0056017768 0.021563165 0.027003929 -0.04364159
0003b0 25 a1 da 3c 02 fb 4b bb fc be d0 3c 95 79 56 3c
       0.026688168 -0.0031124954 0.025481693 0.013090511
0003c0 3d 72 16 3d e8 e9 dd 3b 07 af 24 3d ca 4b 36 bd
       0.03673004 0.0067722686 0.04020598 -0.04450587
0003d0 90 79 6b bd b1 a1 df bc 23 9e d6 3b b8 37 b1 3c
       -0.057488978 -0.02729878 0.006549613 0.021633014
0003e0 8e 96 0c 3c 5d 1c 3a bd a5 38 19 bc 05 35 e4 bb
       0.008580817 -0.045437206 -0.009351884 -0.0069643282
0003f0 fa 7a 07 3d 44 88 95 3c 92 61 da bb 7a 46 ad bc
       0.033076264 0.018253453 -0.0066644633 -0.02115177
