mete_aerial_gym_simulator/rl_training/cleanrl/runs/quad__ppo_continuous_action__1__1686654492/latest_model.pth (torch, 564158 bytes, 12 tensors)

actor_logstd f4 [1, 4]
00000000: 378e 1ebd 76a9 82bd d754 b739 ce9a 063d
-0.038709845 -0.06379978 0.0003496769 0.032862477

critic.0.weight f4 [256, 13]
00000000: a810 343d 0541 b93d 841b 32be 2348 18be
00000010: 5b6b 2cbd 9581 b8bd 3206 ecbd e024 bcbd
00000020: 0e95 ba3d 48bf a1bc 8b63 37bd a96e b1bd
00000030: 10ee 0f3e af21 b73d d81a c4bd fc05 073d
00000040: 603f a63d ecc1 e23d 4114 0abe ebd7 f8bd
00000050: 8b94 fa3d e9b8 c739 21d1 02bd 50d2 02be
00000060: 3285 b83c d1b3 613b 7e28 13be fc93 11be
00000070: 8083 4b3d 5b4a 903d 1b93 85bd 61be 9ebd
00000080: ddc2 bd3d a7f3 75bd 9b2c 19be c993 7bbd
00000090: 392b dfbb 5157 9d3c b6f8 1cba 1b97 a83d
000000a0: ed76 6a3d cc62 6fbd 01dc 7fbd 6fd3 fc3a
000000b0: 15d2 16be f769 15be f813 0a3c f472 113e
000000c0: fb27 a2bd 4571 883c 2d17 1b3d 9fcf e43b
000000d0: 4eb4 2f3e 803f 2e3e ea90 0a3d 90af 30be
000000e0: bd8f a13e 10b7 223d d59b 19be 854a 373d
000000f0: ea6f fe3b 2a7f f63d 4e22 59bd b5e0 183d
00000100: 1d74 5dbd 02b1 83bd f755 c23d 7013 39bd
00000110: d80c 8fbb ba16 a03d ca48 9cbc 4df4 5dbe
00000120: ffed eeba 73b5 45be 0ce6 aebd afd4 b83c
00000130: 8f9d 6f3c 11a7 a8bc 539c 313e 664a 8dbc
00000140: 2189 2a3d 3d62 d63d 22ec f93d 2ea1 02be
00000150: acb2 eabd be8c d73d 1255 edbc 188c 363e
00000160: 7155 adbc 7c06 ba3d a355 8abc 7a10 5c3d
00000170: adaa cd3d 3072 a3bd d1a8 c83a f293 a33c
00000180: d6c8 3b3c 5cac 0ebe 6da2 1abd c76e 1e3d
00000190: c170 b2bd 99ee 643d 41ee 9a3d d8a8 9a3d
000001a0: 35ba 2cbe 610d 953d 9f0d 25bd 391f 1c3d
000001b0: c536 553d 1f64 5fbd 2c7d 15be 34b3 fbbc
000001c0: ca80 1ebe d4af 8ebc 5916 64ba 645f 92bc
000001d0: ce4e 0e3e 9e88 81bd 43a6 9a3d 5d20 513b
000001e0: 7ea6 cbbd ecbd 183d 0f22 8c3d 746c 85be
000001f0: e4b8 8abd 7062 be3d d865 f0bd 0642 c6bc
00000200: 298b 90bd 8b7e ca3d a038 32be 3014 c1bd
00000210: b161 94bd aef3 963d 0199 94bd 2acc 923d
00000220: 5975 463e 92a4 bf3c e479 68bc 0128 1cbd
00000230: 472d d7bc 15e0 ab3d 6de0 ae3d 11e3 6c3d
00000240: 8647 343d 505f 1e3d 2b0b b8bc 83bb 96bc
00000250: 6376 a93d 616c 76bd 28cc 6c3b 3a0e de3d
00000260: 126d b73d 842f 2cbd 01d2 a73b 4edc 05bc
00000270: 0ac7 d2bc 93cf cc3d 2929 8c3d 7ae4 433e
00000280: 6f43 d2bd 478c 4ebc c611 51be 3adc b2bd
00000290: 77a7 f73c 2abc 8d3b 6ce2 25bc ad46 883d
000002a0: 0e99 9dbc ffc6 613e f571 6d3d 06b5 31bc
000002b0: b5d5 8cbd 0c32 533e b43f 963d ee5a eabd
000002c0: 4efc 743e 5893 063e 7898 5f3d 0a50 31bd
000002d0: fd50 ae3d e1a6 95bd 192d 993c 5bcc 203d
000002e0: b0e2 a4bd cddc ecbb 2530 a3bd 5b60 b13d
000002f0: c8ce 08be eaf1 1dbc aa4e 8f3d a830 15be
00000300: 7fc8 38bd fb60 813b 3c88 9b3d 9c80 1fbd
00000310: 3c74 523c 9041 89bd 0514 4cbd 5f2a 0f3e
00000320: b692 80bd 6c94 14be 459e f33c e747 dcbd
00000330: cdb7 233b 4d3d 123d ca9f edb9 ec68 873b
00000340: c0b3 2c3d 26d5 223e 72c6 c23c dc7d 82bd
00000350: c61a c93c 1a39 803d 0e32 67be e8bb a8bb
00000360: f7bb 1f3e 50dd 8f3d 0ffd 63bd 374b bbbc
00000370: 58d9 a13d 111d f53d 029b 0b3e e320 af3c
00000380: bb10 fabd 2cc6 fd3d 2948 663c 4ed7 79be
00000390: b091 19bd 0b49 143d 96f9 c2bd d7e6 613c
000003a0: 3c42 a6bc 6080 0a3e bc13 023d 18a3 7cbe
000003b0: a44a 16be 45a5 e33c 5269 533c b35b b8bd
000003c0: 328c fb3d 4aaf c83c 09dc f0bc 9a61 abbc
000003d0: 6506 fe3d f6aa 843d 9ada 133c 9aff 563e
000003e0: 5c5d b7be 0b00 07bd 5db1 ec3c 5356 ea3d
000003f0: ff47 e6be b002 06bd 6692 6d3d 18b9 0abd
0.043961197 0.090456046 -0.17393309 -0.14871268 -0.04209457 -0.09009091 -0.11524619 -0.09186721
0.09110461 -0.01974453 -0.044772666 -0.08663685 0.14055657 0.089419715 -0.095754325 0.03296469
0.081175566 0.11072144 -0.13484289 -0.12150558 0.122353636 0.00038094007 -0.031937722 -0.1277554
0.02252445 0.0034439454 -0.14370915 -0.14216608 0.049685955 0.07045432 -0.06522199 -0.07751156
0.09265683 -0.060046818 -0.14958422 -0.061420236 -0.0068105725 0.019206675 -0.00059879886 0.08231946
0.057242323 -0.05844383 -0.06246567 0.0019289086 -0.14728577 -0.14591204 0.0084276125 0.14204007
-0.07917782 0.016655574 0.0378639 0.006982758 0.17158625 0.17016411 0.033829607 -0.17254472
0.31554976 0.039725363 -0.15000851 0.0447488 0.007764806 0.12035973 -0.05301123 0.037323672
-0.054065812 -0.06430246 0.09489053 -0.045184553 -0.0043655448 0.07816835 -0.019077677 -0.21675225
-0.0018228887 -0.19307499 -0.08539972 0.022562353 0.014624967 -0.020587476 0.17344789 -0.01724739
0.041634683 0.10467956 0.12203242 -0.12756798 -0.1145986 0.10524891 -0.028971229 0.17826879
-0.021158906 0.09083268 -0.016886538 0.05372665 0.100423194 -0.07980764 0.00153091 0.019968007
0.011461457 -0.13932937 -0.037752558 0.038679864 -0.08712912 0.055891607 0.075649746 0.07551736
-0.16867907 0.072779424 -0.040296193 0.038115714 0.052054185 -0.054538842 -0.1459853 -0.0307251
-0.15478817 -0.017417826 -0.000870084 -0.017867751 0.13897249 -0.06324886 0.07551243 0.003191016
-0.09943865 0.0372905 0.06842434 -0.26059306 -0.06773546 0.09296119 -0.11738175 -0.024201404
-0.07057793 0.098874174 -0.17404413 -0.094276786 -0.07245196 0.07370697 -0.07255746 0.071678475
0.19380702 0.023393903 -0.014189217 -0.03812409 -0.026266707 0.0839235 0.085388996 0.057833735
0.044013523 0.038665116 -0.022466263 -0.01839996 0.082745336 -0.060161952 0.0036132429 0.10842557
0.089563504 -0.042037502 0.00512147 -0.0081702005 -0.025729675 0.10000529 0.06843788 0.19130126
-0.10266768 -0.012606687 -0.20416936 -0.08733411 0.03023122 0.0043254094 -0.010124784 0.06654105
-0.019238021 0.22048567 0.057970006 -0.010846382 -0.06876699 0.2062456 0.07336369 -0.11443125
0.23924372 0.13142145 0.054588765 -0.04328922 0.08511541 -0.0730722 0.018698262 0.03925739
-0.0805105 -0.00722847 -0.07968167 0.086609565 -0.13360131 -0.009640196 0.06997426 -0.14569342
-0.045113083 0.0039483286 0.07594344 -0.03894101 0.012845095 -0.06701958 -0.04982378 0.13981007
-0.06277983 -0.14509743 0.029738555 -0.10755902 0.002498138 0.035702992 -0.00045323215 0.0041323807
0.04216361 0.15901622 0.023776267 -0.06371662 0.0245489 0.06260891 -0.22577688 -0.0051493533
0.15599047 0.07024634 -0.055661257 -0.022863014 0.07902783 0.119684346 0.1363335 0.021377986
-0.12210222 0.12391314 0.01405529 -0.24398538 -0.037492454 0.03620247 -0.09520261 0.013787947
-0.020295255 0.13525534 0.0317571 -0.2467159 -0.1467691 0.027788768 0.012903528 -0.09001865
0.122825995 0.024497647 -0.029401796 -0.020920563 0.124035634 0.06477921 0.009024287 0.20995942
-0.35813415 -0.032959025 0.028893167 0.11442246 -0.44976804 -0.032717407 0.058000945 -0.033867925

critic.0.bias f4 [256]
00000000: a83a a7bd 52bb dbbd 1af9 8d3d d052 b7bd
00000010: 588a 8fbd 43bc a5bd 5be2 e5bd a13a 75bd
00000020: 7b16 bcbd 73f2 97bd e656 cc3d 098d 33bd
00000030: fd49 b5bd bf1b adbd 6a45 aabd 694b a6bd
00000040: c411 cbbd feb6 97bd d346 b03d eab6 5fbd
00000050: 850a 243c 1200 ddbd f08b e0bd cf66 c0bd
00000060: a60d 05bd 6fc1 2bbd 93b7 a63d 80e9 acbd
00000070: 9210 b83d 5377 d03d 2894 b2bd 7e5b c4bd
00000080: fa4d b43d ce26 f1bd 3be0 bbbd f2d4 053e
00000090: 0fb3 05be 6503 ff3d 3cb1 abbd 1c8d 27bc
000000a0: e2e8 9bbd d94b e3bd 03e0 4dbd 1e1f 83bc
000000b0: e5de a6bd c97f dfbd 0bcb 013d b4ee 063e
000000c0: 7b5e 83bd 1373 fe3d 1986 f4bd f3b1 c43d
000000d0: 2bbe a2bd ef43 72bd 9b71 fabd 81df a53d
000000e0: 5615 d6bd 7eaf c9bd f780 8bbd d428 84bd
000000f0: 462b 1bbe 8f45 953d b022 623d ec47 903d
00000100: 761e 9c3d 7761 db3d 63f8 c63d d595 a9bd
00000110: f941 283d e192 9ebd 4153 ab3d 5231 a53d
00000120: af6d f63d ba75 c5bd 9833 b4bd d510 09bd
00000130: f0d8 00be 4dc4 5abd 7fbb cabd f0a5 fabd
00000140: 6bf4 eebd d47e 9bbd 5876 8abd eb5e b7bd
00000150: f91b 063e 9b79 c23d bfd1 c3bd 6cbf 2f3d
00000160: c0fd ebbd 49b7 eebd d41b 6c3d f517 c03d
00000170: e823 e83d dd9d dabd 5d82 a4bd 3ed9 e2bd
00000180: 8e72 dd3d d778 92bd 3371 9f3d a0f8 c33d
00000190: 24c3 e23c f642 ce3d 595e ee3d 3272 be3d
000001a0: ef59 c6bd 3c87 c43d e06b b53c f8c0 b0bd
000001b0: 1a61 99bd b1c5 1fbd 53e9 abbd 9c39 06be
000001c0: cb7b c2bd d37c 383d b6b9 403d ed69 b8bd
000001d0: bfa8 9a3d 0ba0 973d d936 e83d 49ec c9bd
000001e0: faad be3d cebc bf3d 5c6f dabb afda 543d
000001f0: d8b2 9e3d 096a cd3d a947 fdbd a688 eebd
00000200: 418f 8e3d a6d9 d03d 3276 adbd 379e d83d
00000210: 34bd bbbd 936f 05bd 466c 87bd da1c 02be
00000220: 27d6 e63d e9f0 89bd 155f b3bd dd43 10be
00000230: 4730 b5bd 3c84 ce3d 3651 f3bd cb95 94bd
00000240: 815c 913d fad2 a7bd d428 b33d 1db4 bebd
00000250: 8896 eabd 743e 04be e224 a83d d64c b1bd
00000260: e6d1 b5bd eec8 8d3d 1cda bcbd c77d a73d
00000270: 6dea d5bd acf9 e93d 2781 743d 60cf be3d
00000280: 7c7b de3d 5c91 db3b 2baa b1bd 3dd5 e33d
00000290: 0040 d9bd a7e8 8dbd 57fa d4bd dc5d 61bd
000002a0: 11a9 6dbd 862a a4bd 436b 07bd 39b9 a83d
000002b0: f4a5 b33d f92b 8bbd 6526 fdbd 8efc a53d
000002c0: 5334 a13d 4fce ab3d 4a75 423c e6a5 b7bd
000002d0: 51bf c9bc 70df c4bd 08b8 9e3d e935 c0bd
000002e0: 854b a8bd f1e4 d3bd 1709 003d c315 bfbd
000002f0: 584c 99bd 4e8c 073e 2960 8ebd 62d0 acbd
00000300: ba7e adbd 7b4e b1bd bd27 023e 5db7 8c3d
00000310: dd83 82bd 937a debd d456 f43d c3d4 06be
00000320: ef91 ba3d 7a7c b23d 963d d83d 64b6 bc3d
00000330: 4589 cbbd 30a6 643d 5312 f73d 511c b5bd
00000340: 5193 a6bd ba23 773d 92ec d43d 0feb d53c
00000350: d9b3 82bd 61ea 003e a3c3 cf3d ce79 e23d
00000360: 1db0 f83d e5f1 94bd 69be e03d f66e 873d
00000370: 4a59 b8bd 44c2 933c 2c1a 9fbd d9a6 d0bd
00000380: 0c00 d83d 57a4 c3bd a7e8 dc3d ef07 9ebd
00000390: 95bc 97bd 766b 9ebd dd5d 663d ee39 cbbd
000003a0: bf67 5cbd f868 733d 10b3 b5bd 6a54 b5bd
000003b0: 779c 9d3d cf61 afbd 41d2 ca3d 7e72 ad3d
000003c0: 0ad3 033e ec77 e3bd 3a8c 0d3d 25da 033e
000003d0: 646f 523d 7531 d5bd f17a 2abd a142 a6bd
000003e0: 55c2 ebbd 7274 96bd 6dcd a7bd 3f41 013e
000003f0: 4be4 92bd 1054 db3d 57c5 cbbd ad29 c7bd
-0.08165485 -0.10729088 0.06932278 -0.08951342 -0.07008809 -0.08092549 -0.112248145 -0.059870366
-0.09183975 -0.074192904 0.09977512 -0.043835673 -0.08852003 -0.08452558 -0.08314021 -0.08119852
-0.09915498 -0.0740795 0.08607259 -0.0546178 0.010012274 -0.10791029 -0.10964191 -0.09394609
-0.03248372 -0.04193252 0.08140483 -0.08442974 0.089875355 0.10179009 -0.08719665 -0.09587763
0.08803935 -0.117749795 -0.09173628 0.13069513 -0.13056587 0.12451819 -0.08383414 -0.010226514
-0.07612778 -0.11098451 -0.050262462 -0.016006049 -0.081479825 -0.10913045 0.031687777 0.13176996
-0.06414505 0.124242924 -0.119396396 0.096042536 -0.07946428 -0.059146818 -0.122287 0.080992706
-0.10453288 -0.098479256 -0.068117075 -0.064531 -0.15153226 0.07288658 0.05520886 0.07044968
0.076229975 0.10711949 0.09715345 -0.08280531 0.04107854 -0.07742859 0.08365489 0.08066048
0.12032639 -0.09641595 -0.08798903 -0.033463318 -0.12582755 -0.053409863 -0.09899043 -0.12238681
-0.11667713 -0.0759255 -0.067608535 -0.08953651 0.13096608 0.09495851 -0.0956149 0.042907164
-0.11523008 -0.116560526 0.057643726 0.093795694 0.113349736 -0.10674641 -0.08032677 -0.11076592
0.10812865 -0.071519546 0.07785263 0.09568906 0.02768094 0.100713655 0.11639089 0.09299125
-0.09685122 0.095961064 0.022146165 -0.08630556 -0.07489224 -0.039006893 -0.083941124 -0.13107914
-0.09496268 0.045040917 0.047052108 -0.09004579 0.07551717 0.07403573 0.11338586 -0.09859521
0.09310527 0.093621835 -0.006666107 0.051966365 0.077489555 0.1002999 -0.12367184 -0.11647157
0.06960917 0.10197763 -0.084698096 0.10577052 -0.09166947 -0.03257711 -0.066124484 -0.12706318
0.11271315 -0.06735403 -0.0875837 -0.14088388 -0.08847099 0.100838155 -0.11880724 -0.07255133
0.07097722 -0.081945375 0.08748022 -0.09311698 -0.11454493 -0.12914449 0.0821016 -0.086572334
-0.088779256 0.0692309 -0.092212886 0.08178287 -0.10445104 0.11424574 0.05969348 0.093168974
0.108633965 0.006700678 -0.08675035 0.11124656 -0.1060791 -0.069291405 -0.10399311 -0.055021152
-0.058022562 -0.08015923 -0.033061277 0.082384534 0.087718874 -0.067954965 -0.12360839 0.081048116
0.07871308 0.083889596 0.011868784 -0.089671895 -0.02462736 -0.0961293 0.07749945 -0.093852825
-0.08217529 -0.103464015 0.03125867 -0.093303226 -0.074852645 0.13237116 -0.06951935 -0.08438183
-0.08471437 -0.08657547 0.12710471 0.06870911 -0.06372807 -0.10863223 0.11930624 -0.131671
0.09109866 0.08715148 0.105586216 0.09214476 -0.099382915 0.05582255 0.12064042 -0.088432916
-0.08133567 0.060336806 0.10396685 0.026113061 -0.063819595 0.12589408 0.101447366 0.11058389
0.12142966 -0.072727 0.10973818 0.06612961 -0.090014055 0.018036969 -0.07768664 -0.10188074
0.10546884 -0.0955283 0.107865624 -0.07716357 -0.07409016 -0.0773534 0.05624186 -0.099231586
-0.053809877 0.059426278 -0.08872044 -0.08853991 0.07695859 -0.085635774 0.09903384 0.08469103
0.12873474 -0.11106858 0.03455756 0.12876184 0.05137576 -0.10409824 -0.041621152 -0.08118177
-0.11511675 -0.07346429 -0.08193479 0.12622546 -0.0717245 0.10709393 -0.09949749 -0.09724746

critic.2.weight f4 [256, 256]
00000000: a76a ffbc f91b b8bd 74d2 b4bd bb34 abbb
00000010: 3c6d 01be 5d04 d1bd e43c 22bd 47bc b03d
00000020: 70c5 50be 8eed bbbc 73b4 2fbd c871 87bd
00000030: c1bc b8bd 7935 c2bd 2a92 05bd b6f1 0d3d
00000040: ef5d 1abe 7ec4 04bd 81c4 47bb 6acb 063e
00000050: 6642 eaba 699b f63c df62 98bc 0b9d f13b
00000060: 6fa6 57be bb55 413d 7316 28bd bea0 f3bd
00000070: 1aad dc3d a028 7a3d 6193 003c 5330 a03d
00000080: eb66 1dbe b019 92bc 3684 903c 3810 b13d
00000090: 7d9e d2bc 7fd9 293d 89bd aa3d 56f0 8d3d
000000a0: ab7b 09be 2322 8d3d be87 ab3d 3ab0 383e
000000b0: 74c4 6abc bc40 2cbc 4f02 75bd cf0d ec3b
000000c0: 6abf 02be 5c84 e83d f791 c8bd 204f af3d
000000d0: 1811 8ebd 31b6 52b9 91f3 80be 5b17 073c
000000e0: a05d 833d a7d1 02bc 6824 d5bc 444a 8d3d
000000f0: 5b90 33be 3d48 9c3c 8107 fa3d 599f 923e
00000100: f5e5 653e 4fe9 123d 322c 833e 0bfe 71bd
00000110: 059b 21bd 5168 803d 808f eb3d a5cb 753e
00000120: f086 343c bbf8 88bd 9032 0abe 7fdb 73be
00000130: 6654 59bd 650a d8bb 6e04 0ebd 3985 b7bc
00000140: ab33 fabd 6645 b2bd 4933 69bd 131d 65be
00000150: 4661 38bc e5ec 87bd 08aa debc 9592 d6bd
00000160: fa35 0ebe 45be c93c fafa ff3c 9a85 8f3c
00000170: 8571 9a3e ae1e 11bc b560 36be 69ec 00be
00000180: 275e 773d 8bd7 21be c857 50be 44a4 b3bc
00000190: ce12 b8bb d08d 18bd 0378 22bd 3e4f 743e
000001a0: 8dba 6abd fe58 9bbc 8840 c33d e213 dcbd
000001b0: 3f2c 74bc d3cf a93d e0f5 a4bd 4fab 1abe
000001c0: 9327 a2bd 7b06 b3bd 8612 d53d 6707 d9bc
000001d0: 5c33 133e 71e7 4bbb fe19 6f3e 3c41 03be
000001e0: 3f7e a03e 2207 e73c 0563 a43d 2ac0 363d
000001f0: 1b70 44bd dfa0 023d 4fdb 31be 8c36 393d
00000200: 3394 7abd 67bf d3bd b1c1 97bc bc9d 593d
00000210: 839f b0bd 53ee 85bd e7bb e13c cb81 8ebd
00000220: e57f f63c ec86 4e3e 0e1f 143d b9de 3fbe
00000230: 9ce6 263d 1ea4 d5bc f77b 56bd e8cb a13d
00000240: 8d05 c73d f5bf 30be 2e4b 2d3e 98a6 4fbe
00000250: 396a a9be 915b d8bd b3dc 10bc 38ec 163b
00000260: 8bf6 db3d 7fb4 b13d 953a 4cbe 529f dabc
00000270: e4a0 b53d 827b 6d3e c50c 0abe 5f49 9a3d
00000280: 7c22 34bb f6f2 0e3e 93b4 88bd 9dcd db3d
00000290: 0324 1fbe e6cd 4fbc 3397 4a3c 25f7 773d
000002a0: 3da8 3c3e 7456 babd af61 e23c f98c 923e
000002b0: 74c6 a23e 9676 dabd 588d 0ebd d8a4 e83c
000002c0: 4799 a53d 9d92 c83c 06cb da3d 01cf 7ebe
000002d0: 4640 1f3d 4dd2 05be 9eb3 4a3d d0e5 80be
000002e0: dd09 843d b294 f2bb 1e8c b83c 0714 4abe
000002f0: c074 a23d a960 813e 396d a9bc 7b56 9fbd
00000300: 1dea f33d 6dd1 f7bc 28f6 d53d ed0d e9bd
00000310: 645b b83d 4893 e7bd 6cc8 48bc 5d1c 50bd
00000320: 1a3f 24bd a037 b8bd f137 633e e299 123e
00000330: 1dc3 c6bd a48f a23b 6052 433e 532e 32be
00000340: ca9e c9bd dd07 ddbd 3889 c23d f0e0 b53d
00000350: f4e4 cfbd 87d3 dc3d dccf 803e fd18 0b3d
00000360: d7c4 413e eb0d d13d b11b d03d 3760 033e
00000370: b45d 33be cbe7 3d3d 71b6 98bd 4c8c a0bc
00000380: 4ed1 293d 4ff3 75be 086e ad3d aa66 adbe
00000390: 1430 9b3c a8de abbd 10c7 083e 0ae2 993c
000003a0: 4d5b cabd 2b90 8d3d 8d66 1f3d 9649 8fbd
000003b0: a01d 193d 5bc6 a6bd a2a6 2d3d 4037 583e
000003c0: 2138 8a3d 9bcc 60bd 7715 6abd b9ed 8abd
000003d0: a01d 08be b37e 13bd c6f9 b33c 22b8 22bb
000003e0: 3afe 06be 0a39 7ebe c597 2abd c1b6 c93c
000003f0: b95f 353c dee8 963d 1a92 9ebd 0f71 0fbe
-0.031178785 -0.0898971 -0.08829203 -0.005224792 -0.12639326 -0.1020591 -0.03960885 0.08629661
-0.20387816 -0.022940423 -0.0428967 -0.06613499 -0.09020377 -0.09482855 -0.032610096 0.03465434
-0.15074895 -0.032413952 -0.0030482116 0.13163534 -0.0017872571 0.030103402 -0.018601833 0.0073734573
-0.21059583 0.0472009 -0.041037034 -0.118958935 0.10775204 0.0610739 0.007847638 0.07821717
-0.15371291 -0.017834514 0.017641168 0.086456716 -0.025710339 0.041467186 0.08336932 0.06930606
-0.13426082 0.06891277 0.083755 0.18035975 -0.014329065 -0.010513481 -0.059816655 0.0072037946
-0.12768331 0.113533705 -0.097934656 0.08560014 -0.06936854 -0.00020095032 -0.25185826 0.0082453145
0.06414342 -0.007984555 -0.026018336 0.06898931 -0.17535536 0.019077415 0.122084625 0.28637198
0.22451003 0.03586703 0.25619656 -0.059080165 -0.03945448 0.06269897 0.1150198 0.24003465
0.0110185 -0.066880666 -0.1349585 -0.238142 -0.053059004 -0.006593036 -0.034672193 -0.022402393
-0.12216886 -0.08704643 -0.056933675 -0.22374372 -0.011253661 -0.06636981 -0.027180687 -0.10477177
-0.13887778 0.02462686 0.031247605 0.01751976 0.30164734 -0.008857412 -0.17810328 -0.12590183
0.060392525 -0.1580488 -0.20345986 -0.021928914 -0.005617476 -0.037244618 -0.039665233 0.23858353
-0.057306815 -0.018963333 0.09533793 -0.1074598 -0.014903127 0.082915924 -0.080547094 -0.15104412
-0.079177044 -0.087414704 0.10403924 -0.026492788 0.14375061 -0.0031113292 0.23349759 -0.12817854
0.31346318 0.028201643 0.08026699 0.044616856 -0.047958475 0.0318917 -0.17368816 0.045218036
-0.06117649 -0.103392415 -0.018524976 0.053128943 -0.086241744 -0.06539597 0.02755542 -0.0695835
0.030090282 0.20168656 0.03616243 -0.18737306 0.04074727 -0.026079234 -0.052364316 0.0790022
0.097178556 -0.17260726 0.1692321 -0.20278394 -0.33088854 -0.1056434 -0.008841681 0.002302898
0.10740384 0.08677005 -0.19944222 -0.026687298 0.08868578 0.23191646 -0.13481434 0.07533526
-0.0027486375 0.1395987 -0.06675067 0.10732577 -0.15541081 -0.012683367 0.01236515 0.06053843
0.18423553 -0.09098521 0.02763447 0.2862318 0.31792033 -0.1066715 -0.034802765 0.028398916
0.08085876 0.024483973 0.10683255 -0.24883653 0.038879655 -0.13068505 0.049487703 -0.25175333
0.06447194 -0.00740298 0.02252775 -0.19734202 0.079324245 0.25269058 -0.020681964 -0.07780167
0.11909888 -0.03025123 0.10447341 -0.11379609 0.090018064 -0.113073885 -0.012254816 -0.0508083
-0.04009924 -0.089949846 0.22189309 0.14316514 -0.09705184 0.004960971 0.19074392 -0.17400484
-0.0984474 -0.107925154 0.09498829 0.08880794 -0.10151091 0.10782533 0.25158584 0.033959378
0.18922745 0.10207733 0.10161532 0.12829672 -0.17516214 0.046363633 -0.07456673 -0.019598149
0.041459374 -0.24018596 0.084682524 -0.3386739 0.018943824 -0.08392078 0.13357186 0.018784542
-0.098806955 0.069122635 0.03891616 -0.06996457 0.03738177 -0.08143302 0.04239524 0.21114826
0.06748987 -0.054882627 -0.057149377 -0.06783623 -0.13292551 -0.0360095 0.021969687 -0.002482899
-0.13182917 -0.24826446 -0.041648645 0.024623277 0.011070185 0.07368635 -0.077427104 -0.14007972

critic.2.bias f4 [256]
00000000: 41a9 7b3d f766 61bd b5da 5c3d f920 9a3d
00000010: db5a 72bd 7deb 82bd eb6f 803d f95f 763d
00000020: 32f3 a9bd 9ff4 89bd e7b1 4ebd 8f28 5fbd
00000030: e5ba 893d e480 5cbd 81f8 a33d 1389 373d
00000040: 3272 763d 8505 7fbd eeb0 7dbd 5360 c63d
00000050: 6de5 a43d 5b04 153d 7ecb 523d e1a6 90bd
00000060: 74fe 26bd 48ef 763d 56f7 80bd 3dea 63bd
00000070: ff78 5f3d 209a 8c3d 6a91 91bd 14ec 973d
00000080: c67c 533d 7f5a 8fbd 44cc 9cbd e403 6bbd
00000090: f584 6dbd 3111 2cbd e329 77bd 9313 71bd
000000a0: a950 623d c412 4e3d 471e 373d 4ba6 66bd
000000b0: ff92 8c3d 458b 3a3d 8f8b c0bd b1df 62bd
000000c0: 9bf6 34bd 079f 673d 2792 5bbd 8646 68bd
000000d0: 0c0a 6d3d 10f9 4bbd e67c 833d 7473 8fbd
000000e0: 91ef 61bd 24b3 2dbd b034 57bd 4e89 8dbd
000000f0: dd10 1d3d 8e85 9b3d 4869 7cbd ebd4 73bd
00000100: 1e8b 8b3d 8e56 853d 8eb8 56bd 0b1b 35bd
00000110: 8701 6f3d 8fae a43d 37df 6a3d a2a0 743d
00000120: f8db 4fbd 6308 503d a811 77bd cbe9 803d
00000130: cefc 2d3d ba83 973d 6fbd 3b3d 7fd3 78bd
00000140: 7cae 193d 0bd4 733d 130a 3ebd a94d 993d
00000150: 83ac 92bd 8eaa 963d 2fee 803d 15ba 4cbd
00000160: e895 5ebd f2f4 52bd d5af 5f3d 26b2 4abd
00000170: 3855 6bbd c9e6 43bd eb81 893d 0efb 4ebd
00000180: bf80 523d d085 edbc 1428 4c3d df82 423d
00000190: a5c2 4f3d 9e5a d13a a9af 66bd 5642 7d3d
000001a0: 1b18 db3d ea5f 9ebd ad29 53bd a778 74bd
000001b0: b612 4e3d 129c 56bd 0f9c 7fbd 01b8 883d
000001c0: 0ec9 653d ac88 f63d 63a9 bebd 408b 573d
000001d0: 2830 783d f0dc 493d 964b 4fbd 2f86 8abd
000001e0: 93f4 8f3d cb84 883d 8276 0c3d a1e6 5a3d
000001f0: eb47 6d3d a70a 5f3d 0497 c7bd 71e1 6fbd
00000200: 5bff 4f3d 84f9 2dbd a920 813d af1b 5e3d
00000210: cc27 99bd 9e75 223d c53b 623d a02d a53d
00000220: 97eb 5e3d 4034 753d 4d75 63bd f6fd 88bd
00000230: 1b72 41bd 2380 87bd a196 9a3d 70ae 2cbd
00000240: faae 54bd ce9e 983d 1c47 83bd ecbe 6ebd
00000250: 7a07 67bd 56a9 913d 95cc a9bd 2212 4b3d
00000260: c564 673d c9c1 003d cc24 7abd 9cc3 6fbd
00000270: 4327 5b3d 874b 30bd 5c04 233d 5113 6f3d
00000280: 55e6 73bd b187 843d 21aa 443d 9cd9 bd3d
00000290: 3567 2d3d f465 bcbd ede4 623d 514d 5ebd
000002a0: e897 80bd 1cfa 803d a5cc 6f3d 890d 393d
000002b0: b096 943d 61cb 65bd 8554 623d 58e7 813d
000002c0: 7e33 903d 96b1 86bd 82fc 833d f6e7 633d
000002d0: 69c6 c1bd a9ca 4ebd 75b9 93bd 10a7 883d
000002e0: 1459 6abd 8b71 833d ee82 7e3d 3865 353d
000002f0: c765 653d b6b3 773d c56a 573d a785 6f3d
00000300: 36cc 7cbd e6d2 a23d c46d 86bd 7f76 703d
00000310: 9dd9 4d3d 29c3 6bbd c68b 873d 72da 31bd
00000320: 3f17 883d 9341 943d dc58 77bd c178 713d
00000330: 40c3 47bd 430b d8bd c419 3a3d aa82 45bd
00000340: e6f8 53bd abc4 713d de81 b9bd 9a06 9fbd
00000350: 6859 5abd 22e9 573d 44bf 503d 28f5 82bd
00000360: 04d7 1a3d f7ab 823d 3b91 65bd 6f21 223d
00000370: 6089 b63d ac6f 443d 7e94 923d a9ee 8e3d
00000380: 23b6 503d 1ac6 8a3d 89b6 7dbd 0be2 63bd
00000390: 52e1 683d 9f59 55bd 289b 74bd da12 a4bd
000003a0: ce67 363d a222 6fbd 3782 2f3d 0990 4abd
000003b0: c97c 583d b0a6 82bd faef aabd 2c39 8dbd
000003c0: de7a 803d 5e89 d4bd d5d9 98bd 4691 223d
000003d0: d1d1 2abd 5b82 b13d 0870 8c3d 85a5 913d
000003e0: 4260 41bd db9d b93d 3cae 8fbd 94cd 8c3d
000003f0: 8dc6 883d 9703 92bd a507 bebd 3ed3 64bd
0.06144071 -0.055029836 0.053919513 0.0752582 -0.059168678 -0.06392572 0.06271347 0.06015012
-0.08298339 -0.06736111 -0.05046263 -0.05448204 0.067251004 -0.053833857 0.08006383 0.04480846
0.0601675 -0.062261123 -0.06193631 0.09686341 0.08051572 0.036381107 0.051463597 -0.070630796
-0.04077001 0.06028679 -0.062971756 -0.05564331 0.05455875 0.068653345 -0.07107814 0.07418075
0.051632665 -0.06999683 -0.07656148 -0.057376757 -0.057988126 -0.042008583 -0.06034268 -0.058856558
0.055252705 0.050310865 0.04470661 -0.056310933 0.06863975 0.045542974 -0.09401619 -0.05538911
-0.044180494 0.056548145 -0.05360618 -0.05670788 0.05787091 -0.04979807 0.06420307 -0.07004443
-0.05516011 -0.04240717 -0.05254048 -0.069109544 0.03834616 0.07593833 -0.06162384 -0.059529226
0.06813644 0.065106496 -0.0524221 -0.044215243 0.058351066 0.08041107 0.05734178 0.059723504
-0.050746888 0.05078925 -0.060319573 0.062945925 0.04247742 0.07398172 0.045834955 -0.060748573
0.037519917 0.05952839 -0.046396326 0.074855156 -0.0716181 0.073567495 0.0629543 -0.04998215
-0.05434218 -0.05150313 0.054611046 -0.0494863 -0.057454318 -0.047827516 0.06714233 -0.050532393
0.051392313 -0.02899447 0.04984291 0.04748809 0.050722737 0.0015972441 -0.056319866 0.06183084
0.10697957 -0.07733138 -0.051553417 -0.059685376 0.050310813 -0.052394934 -0.06240469 0.06675721
0.056099944 0.12037787 -0.09309652 0.052623034 0.0605928 0.049282968 -0.050609194 -0.06763875
0.07029071 0.06665953 0.034292705 0.0534426 0.057929914 0.05445352 -0.09745601 -0.058564607
0.050780635 -0.042474285 0.063050576 0.05422562 -0.07478294 0.03966295 0.055232782 0.08065343
0.054423895 0.059864283 -0.05553179 -0.06689064 -0.04722796 -0.06616237 0.075482614 -0.042158544
-0.051924683 0.074521646 -0.064100474 -0.058287546 -0.056403615 0.071123764 -0.08290974 0.04957784
0.056492586 0.031434808 -0.06107025 -0.058536157 0.05350424 -0.04304078 0.03979908 0.05836803
-0.059545834 0.064711936 0.04801381 0.09270021 0.042334754 -0.091991335 0.055394102 -0.054272953
-0.06278974 0.062977046 0.058544774 0.045178924 0.07255304 -0.05610216 0.055256385 0.063429534
0.07041071 -0.065768406 0.064446464 0.055641137 -0.09461672 -0.05048624 -0.072131075 0.0667249
-0.057213858 0.06418141 0.062136583 0.044285983 0.056005266 0.06047412 0.052592058 0.05847707
-0.06171819 0.07950382 -0.06563905 0.058706757 0.05025636 -0.057559166 0.066184565 -0.043421216
0.06645059 0.0723907 -0.060387477 0.05895305 -0.04877019 -0.10549023 0.04543473 -0.048220314
-0.05175104 0.059025448 -0.09057973 -0.07764931 -0.05330792 0.052712567 0.050963655 -0.06394416
0.03780271 0.06380456 -0.056046706 0.039582666 0.08912921 0.04795806 0.07157229 0.069791146
0.05095495 0.06776066 -0.061941657 -0.055635493 0.056855507 -0.052087422 -0.05971828 -0.08011408
0.04453259 -0.058382638 0.042848792 -0.04945377 0.05285338 -0.06379449 -0.08346553 -0.0689567
0.06273435 -0.10377763 -0.07463423 0.039689325 -0.041704003 0.086674415 0.06857306 0.071116485
-0.04721094 0.09063312 -0.070156544 0.068751484 0.066784956 -0.07129591 -0.09278802 -0.05586552

critic.4.weight f4 [1, 256]
00000000: dab8 4a3f 31b9 45bf 296a 403f c219 333f
00000010: b935 34bf e5e3 44bf d48e 423f e920 2e3f
00000020: 406c 2fbf b1b2 24bf aacb 31bf fe49 40bf
00000030: 2fbd 3c3f ea9c 3cbf e32d 353f e78d 423f
00000040: 8869 3b3f 9605 40bf 8e60 35bf 4b86 333f
00000050: 8cf5 2f3f d2c3 453f 7152 473f 933c 36bf
00000060: 6690 35bf e508 3d3f 2989 36bf cb13 40bf
00000070: f787 4a3f 9af5 343f 744f 32bf 02d6 343f
00000080: 05fb 4e3f e5ea 38bf 389b 30bf 08d1 38bf
00000090: 503f 3dbf 2ebe 3abf 466f 30bf 6224 33bf
000000a0: 6c4b 273f 7ed4 3a3f 785d 473f 768e 2ebf
000000b0: 6dbd 313f a13f 3d3f 1c2c 32bf 1a4b 3bbf
000000c0: 49ee 2fbf 5970 463f facb 40bf f58e 48bf
000000d0: 3ee2 363f 02b3 3ebf bbcb 2a3f a1af 31bf
000000e0: 8978 3ebf 177a 32bf 38cd 55bf a6f6 2bbf
000000f0: fa40 393f 8dd0 313f 5d6c 31bf 1432 43bf
00000100: 6106 303f 1b60 343f 1789 41bf ab0b 47bf
00000110: 866d 383f cd1f 323f 7439 493f cfea 2c3f
00000120: 5f55 46bf d642 463f 0856 3fbf 2e61 3d3f
00000130: 07ee 433f 4061 323f b0a1 373f 1885 40bf
00000140: 9685 423f 2718 3d3f 4e9a 3cbf 519a 353f
00000150: 6912 37bf 5147 343f f03f 2e3f e1e8 36bf
00000160: 1be2 3fbf c76e 3fbf dc5e 3d3f a079 4abf
00000170: 61eb 3dbf 0d48 39bf 6aef 2f3f 69d4 38bf
00000180: ef55 2f3f 006e 38bf 9ea5 383f ba9c 323f
00000190: 22b2 3a3f fd87 30bf 801e 36bf b64b 333f
000001a0: caee 363f cbe8 2ebf 2af7 2ebf 494c 3cbf
000001b0: fc7d 3c3f 5627 3cbf 43af 29bf 0d25 373f
000001c0: d15e 363f aab9 353f a157 33bf e3fb 3a3f
000001d0: a3fc 4d3f e348 323f d3c2 2ebf 4381 3cbf
000001e0: 056f 3c3f 7440 393f 478f 2c3f 9054 363f
000001f0: 0b79 3a3f 4aa6 413f c0ec 37bf fab1 33bf
00000200: d94f 3a3f 634d 2bbf 5365 3a3f 14a2 3c3f
00000210: 2ea0 35bf 2ba1 413f 5576 423f 6538 353f
00000220: 8631 3c3f 6721 313f 45d7 39bf 77f3 3cbf
00000230: f00d 28bf c038 34bf 85b8 363f 90b2 3ebf
00000240: 82dc 3dbf 1403 2b3f d998 32bf 880d 36bf
00000250: b002 40bf adba 343f 98f5 31bf 9db4 403f
00000260: 70f9 3a3f 2a34 393f 4979 32bf ab56 35bf
00000270: ed86 333f ded1 34bf 16cb 323f f0d0 473f
00000280: 9381 3bbf d713 363f 7b81 3d3f 9e46 363f
00000290: 40c4 353f f018 34bf e7c8 3c3f 991b 4fbf
000002a0: 523b 38bf bf3b 373f 670c 343f 0676 3b3f
000002b0: 4c28 2f3f 9ea3 38bf 8d75 503f 7b1c 363f
000002c0: 03cf 323f f475 3abf 502c 313f 3d34 493f
000002d0: f4a3 2cbf c139 2bbf e0a4 35bf 843d 433f
000002e0: 6850 35bf 14d6 2e3f 403c 3e3f 51b1 3c3f
000002f0: f64e 4a3f 7dab 3d3f 84f5 333f db41 453f
00000300: 3e86 33bf 5315 303f a56f 33bf f8b9 393f
00000310: 98c0 4b3f e82b 3dbf 7e1b 393f 0e85 35bf
00000320: 9f3e 313f 093b 343f 408f 33bf 6c1a 3b3f
00000330: d45a 3abf 92e5 35bf af2a 263f 6b44 52bf
00000340: 2e0e 4abf c3b1 483f a974 32bf 3f85 2fbf
00000350: 18fe 34bf 1a36 363f fdbd 333f 2bc6 3abf
00000360: 54f4 373f 44f9 333f 1fbc 47bf f3c3 3a3f
00000370: 9eff 313f f3e7 3d3f ccf3 2d3f e5e5 333f
00000380: 5aed 503f c180 393f c535 4bbf f6a7 44bf
00000390: 9695 3e3f a6fb 3abf b9ce 3cbf f8d4 33bf
000003a0: 0499 4f3f 18d3 49bf cb52 353f 0247 52bf
000003b0: 2499 363f 7de1 31bf 4e48 35bf 6f04 29bf
000003c0: 07ca 2c3f e939 35bf 7220 37bf f003 3b3f
000003d0: e5e8 1dbf a118 2d3f 91e2 343f 3088 343f
000003e0: 9403 4ebf 4e4e 343f 89b3 3cbf f59a 343f
000003f0: e4f4 373f ae4b 37bf 31df 32bf 3ae4 4cbf
0.7918831 -0.77235705 0.7516199 0.6996118 -0.70394474 -0.7691024 0.7599919 0.68018967
-0.6852455 -0.6433516 -0.6945139 -0.75112903 0.7372617 -0.7367693 0.7077314 0.75997776
0.732079 -0.75008523 -0.70850456 0.7012679 0.6873405 0.77251923 0.7786017 -0.7118618
-0.7092346 0.73841697 -0.7130304 -0.750302 0.79113716 0.7068726 -0.69652486 0.7063905
0.80851775 -0.7223342 -0.68986845 -0.72193956 -0.7392473 -0.7294644 -0.6891979 -0.6997739
0.6534946 0.7298049 0.77876997 -0.6818613 0.69429666 0.73925215 -0.69598556 -0.7316147
-0.6872297 0.7751518 -0.75311244 -0.78343135 0.7143897 -0.74491894 0.6671712 -0.69408613
-0.7440267 -0.69717544 -0.83516264 -0.6717323 0.7236477 0.6945885 -0.69305974 -0.7624829
0.68759733 0.70459145 -0.7559981 -0.7775218 0.7204212 0.69579774 0.7860329 0.6754579
-0.77474016 0.77445734 -0.7474065 0.7397641 0.76535076 0.6967964 0.7173109 -0.75203085
0.75985086 0.7386498 -0.7367295 0.70938593 -0.71512467 0.7042132 0.6806631 -0.71449095
-0.74954385 -0.7477841 0.7397287 -0.79091835 -0.74187285 -0.72375566 0.6872469 -0.7219911
0.684905 -0.72042847 0.7212771 0.69770396 0.7292806 -0.689575 -0.7114029 0.700374
0.71458113 -0.68323964 -0.6834589 -0.735539 0.73629737 -0.7349752 -0.66283053 0.7154091
0.7123843 0.70986426 -0.70055586 0.730406 0.8046362 0.69642466 -0.6826603 -0.7363474
0.736069 0.7236397 0.67406124 0.7122278 0.72840947 0.7564436 -0.71845627 -0.70193446
0.7277809 -0.6691496 0.7281086 0.7368481 -0.7094754 0.7563655 0.7596181 0.70789176
0.73513067 0.6919159 -0.725941 -0.73809 -0.65646267 -0.70399094 0.71375304 -0.74491215
-0.74164593 0.6680157 -0.69764477 -0.711144 -0.750041 0.70597345 -0.6951537 0.75275594
0.7303686 0.7234522 -0.69716316 -0.7083537 0.70127755 -0.7063273 0.69841135 0.7805319
-0.7324459 0.71124023 0.74025697 0.71201503 0.7100258 -0.7035055 0.7374405 -0.80901486
-0.71965516 0.7157554 0.70331424 0.73226964 0.68420863 -0.7212466 0.8142937 0.7113721
0.69847125 -0.7283623 0.6920824 0.78595334 -0.6743767 -0.66885 -0.70954704 0.7626574
-0.70825815 0.6829541 0.74310684 0.73708063 0.79026735 0.74089795 0.702965 0.7705361
-0.7012671 0.6878254 -0.7009223 0.7254939 0.7959075 -0.7389512 0.72307575 -0.7090615
0.6923618 0.7040258 -0.7014046 0.7308719 -0.7279484 -0.7105342 0.6490888 -0.8213565
-0.78927886 0.7839624 -0.6970926 -0.6856269 -0.70700216 0.711763 0.70211774 -0.7295863
0.7185719 0.70302224 -0.78021425 0.72955245 0.69530666 0.7418205 0.6795013 0.70272666
0.8161217 0.7246209 -0.7937892 -0.7681879 0.74447 -0.73040235 -0.73752934 -0.7024684
0.8109286 -0.7883773 0.7082946 -0.821396 0.71327424 -0.6948469 -0.70813453 -0.6602239
0.6749577 -0.7079149 -0.7153388 0.73052883 -0.61683494 0.67615706 0.7065821 0.70520306
-0.8047421 0.70431983 -0.7371145 0.70548946 0.7185805 -0.71599853 -0.69871813 -0.80035746

actor_mean.0.weight f4 [256, 13]
00000000: 91b8 06bd fd52 cabd f9dd 09bc fed4 433e
00000010: bf04 173e 3de7 063e d086 26bc b270 e43c
00000020: 6fe7 303c eff5 aa3c 2e3a cb3c a333 963d
00000030: 9fa1 903d 2369 453c 2727 18bd 07d2 34bd
00000040: 3c16 0dbb 6fc8 a2bc 5bbf b53d 73c3 a7bc
00000050: d624 b5bd c76d cb3c dc8b ac3d 7d9a 773d
00000060: 80e5 c63d c61d 16bd 3366 24be 593a bb3c
00000070: b21b c3bd 3df2 103c 489a 8f3d ad69 02be
00000080: eddc 373d ba77 18be 524d 573d 7254 1bbe
00000090: e2fa 95bc 70b3 a43d b45e 9bbd c126 00be
000000a0: 127a adbc c869 ddbc c702 4b3d 10f8 12be
000000b0: 780e 803c 6b51 c53d e2de 783d 9e4a ab3c
000000c0: ddad 71bd a7bb 8bbd 8f16 5ebd 5b90 cdbd
000000d0: 1f8c c83d b202 d73d 7433 c53b 744b 1c3d
000000e0: e052 2dbd 41af 8ebd 88f7 2c3e 30e6 27be
000000f0: bb38 733e f7da 223b ede5 6fbd 9ba1 0fbe
00000100: ed8c bf3d c1ef 3abd 9c1d 373e 67d9 fdbc
00000110: eeb1 8e3d ba8a c83a a2ab 9c3c 69e0 35bc
00000120: 5981 13bd 70b8 c6b9 774a dc3c 5f40 da3c
00000130: 2cc4 c73d 42b4 8c3c 1a3f d2bc bd09 68bd
00000140: 7a8d 083e 5393 f33d 59d2 9d3c 51b8 f33c
00000150: bb3e 8b3d bd96 6d3d 7224 243d bfcd 393c
00000160: f05d a7bc 002c c4bc ca5f 51bb da46 ef3d
00000170: 451b 903d cced 4b3d 1f68 d73b 089f 123e
00000180: 8e16 88bd 5aa6 c63c 7fdd e0bd 3e31 e3bd
00000190: b2bd bc3d de02 d3bd ecd8 04bd a429 ffbc
000001a0: 195c 573d 7671 93bb edfa 98bd f371 f2bc
000001b0: 4bef 06bd c172 05bd bc51 99bd b742 d93b
000001c0: a236 1f3d d8f1 2dbd 7d40 23bd 7752 2b3e
000001d0: 0787 7fbd b1dd 1f3e f6fa 2ebd a9e7 8cbd
000001e0: 030b 74bd ae02 763d eab7 0e3e 9507 5ebd
000001f0: 4210 953d df7e 00bd 4037 b33d 8c75 ef3b
00000200: 03d2 2abd dbd2 1f3e aef3 a0bb 363f df3b
00000210: 7e11 da3c cb0b f9bc c0e0 b0bd f1f3 083d
00000220: c141 063e 1676 543b b5a0 fd3d 4862 333c
00000230: c3f9 3bbe d4bf e2bd 64d1 22bd 0df2 4d3d
00000240: b41d 013d 5f53 d93c f017 aabd 432d 76bd
00000250: 6bab 8a3c 1c59 153d b600 2c3e 620a b3bd
00000260: 7514 c5bc b121 753d 165e 2c3d 1ddc 1cbe
00000270: 0090 c53c 0261 53bd 7792 0fbd bd7a 293d
00000280: 6df9 4fbd ba3f 17bd 6729 80bd a6fc 00be
00000290: e341 0e3d df5c 08be 8af2 9e3c 313c 46bd
000002a0: 77ea 213d 2a20 74bd 0f87 5ebd 35a1 9f3d
000002b0: d3ce 593d 2fe3 3abd 60a7 98bd d539 85bd
000002c0: 43bf 68bd 7de8 ccbd 4652 b83d 4954 febc
000002d0: 56e6 9f3d 1e2f 003e ba34 b8bd e0d5 2abc
000002e0: 2946 78bc 5f13 ebbb f795 e43d 57f3 e83d
000002f0: 07a6 cdbd f0ad 0abe cc2a da3d a129 fd3a
00000300: 870b cd3d 675b 813b 846b 5cbd aa4e 2dbe
00000310: 8174 43bc 7f76 babd 9213 95be 1f3c d5bd
00000320: 78b1 693c 23ac 143d 1710 0a3e 4bda 413d
00000330: 3a34 b33d 3abc e93d 8aa3 933b 0d1c 773d
00000340: a51f 8abd d872 b0bc 3fcc 4dbb 2917 ab3d
00000350: ffee ab3d 42fc 663e e707 7c3d ae4a 0e3d
00000360: dfec 15be f4db 91bd 36f7 063d 4b41 e3bb
00000370: 5ec6 e63d d0b9 09be 6e63 5e3d a774 c0bc
00000380: d723 8d3d 6146 0a3e b1a3 21bd f401 5c3c
00000390: cb51 afbd c424 6ebd 2c9d bfbd 1a27 1fbe
000003a0: 5794 0bbd 9eeb 3abd 7366 a03c d4c9 dcbc
000003b0: 8767 05be 6155 5c3d 3683 4ebd ac40 adbd
000003c0: 35b7 9ebc 6eb2 b0bd ce90 1ebc 4035 46bd
000003d0: d97e afbc dfb3 ca3d af20 b33c 7b57 653d
000003e0: 0d4e f23d 60d6 8e3d 856b 32be 4e5b cd3d
000003f0: 9ef3 96bb 44da 10bd 5a16 153e 8762 bd3d
-0.03289086 -0.0987911 -0.008414739 0.19124219 0.14747904 0.13174148 -0.010163978 0.027885769
0.010797366 0.020869223 0.024808016 0.07334068 0.07062077 0.012048992 -0.037146714 -0.04414561
-0.0021528145 -0.019870965 0.08874389 -0.02047894 -0.088449165 0.02483262 0.084251136 0.060450066
0.097117424 -0.036649488 -0.16054611 0.02285497 -0.09526767 0.008846817 0.07011849 -0.12735625
0.044888426 -0.14889422 0.052563973 -0.15168932 -0.018308107 0.080420375 -0.075864226 -0.12514783
-0.021176372 -0.02702798 0.049563196 -0.14352441 0.0156319 0.0963467 0.060759433 0.020909604
-0.0590037 -0.06822901 -0.054220732 -0.10037299 0.09792351 0.10498561 0.0060180966 0.038157895
-0.042315364 -0.06967021 0.168913 -0.16396403 0.2375211 0.0024849751 -0.058568884 -0.14026491
0.09353051 -0.045638803 0.17882389 -0.030987455 0.06967531 0.0015300133 0.01912481 -0.011100867
-0.036012027 -0.0003790292 0.026890976 0.026642023 0.09754214 0.017175797 -0.025664855 -0.056649912
0.13335219 0.11893334 0.01926534 0.029750975 0.06799074 0.058005083 0.04007382 0.011340558
-0.020430535 -0.023946762 -0.0031947964 0.11683436 0.07036451 0.049787328 0.0065736915 0.14318478
-0.06644927 0.024249244 -0.10979747 -0.110933766 0.09215869 -0.10303281 -0.032433435 -0.031147785
0.052578066 -0.0044996096 -0.07469735 -0.02959535 -0.03294305 -0.03258014 -0.07486293 0.0066302675
0.03887046 -0.04246697 -0.039856423 0.16730677 -0.06238463 0.15611912 -0.042719804 -0.06880123
-0.059580814 0.06006115 0.13937345 -0.05420645 0.072784916 -0.031370994 0.087507725 0.007307714
-0.04170419 0.15607779 -0.0049118614 0.0068129553 0.026619669 -0.030401131 -0.08636618 0.033435766
0.1311102 0.0032419018 0.12384168 0.010948725 -0.18356995 -0.110717446 -0.03975047 0.050279666
0.031522468 0.026529012 -0.08305347 -0.06010176 0.016927442 0.036461934 0.16797146 -0.08742215
-0.024057606 0.059846584 0.042081915 -0.15318342 0.024116516 -0.051606186 -0.03505179 0.041376818
-0.05077498 -0.03692601 -0.06257897 -0.12596378 0.034730803 -0.13316678 0.019402761 -0.048397247
0.039530244 -0.059600987 -0.05432802 0.0779442 0.05317576 -0.045626815 -0.07453799 -0.06505171
-0.056823026 -0.10005281 0.090000674 -0.03104605 0.07807605 0.12517974 -0.08994432 -0.010426968
-0.015153446 -0.00717394 0.11161416 0.113745384 -0.10041433 -0.13542914 0.10652694 0.0019314775
0.10011964 0.0039476636 -0.053813472 -0.16924539 -0.011929632 -0.091046326 -0.29116493 -0.10411858
0.014263503 0.036296975 0.134827 0.04732732 0.08750196 0.114128545 0.0045055794 0.060329486
-0.06744317 -0.021539137 -0.0031402258 0.08354027 0.08395194 0.22557166 0.061530974 0.03473919
-0.1464114 -0.07122031 0.032950602 -0.0069352738 0.11268304 -0.13449788 0.054294042 -0.023493124
0.068916015 0.1350341 -0.03946275 0.0134282 -0.08560523 -0.05814053 -0.0935615 -0.1554226
-0.034077015 -0.04563486 0.019580102 -0.026951708 -0.13027774 0.05379236 -0.0504181 -0.08459601
-0.01937447 -0.08627783 -0.009678079 -0.048390627 -0.02142279 0.09897589 0.02186617 0.05599163
0.11831293 0.069744825 -0.17423828 0.100271806 -0.004606678 -0.035364404 0.14559308 0.09247308

actor_mean.0.bias f4 [256]
00000000: 357d 81bb 7982 593b 4615 163d 072b ad3b
00000010: 8333 38bc e134 573c c1f2 44ba dc19 c63b
00000020: ec67 663c 0d6e 86bc 2101 703a bc6d 41bb
00000030: dcc8 fc3b 91f8 8cbc ae69 b83c ad31 e3b9
00000040: 8c11 3e3c e7e4 183d d185 e0bb 9f60 063d
00000050: 63ed ea3c cc92 d5bc 1f4a 133c 8c35 fa3b
00000060: 1284 893c 05cb 04bc ad7f 87bc 0d2e d13c
00000070: fe2e ddbb 2387 48bc 231a aabb 80cd 3b3b
00000080: 8f1f 603b 7dcf 9a3b 2a67 c4bc 59f7 a3bb
00000090: 4c45 253c 59d8 4b3a e717 683a 8851 ad3c
000000a0: 7dd8 0e3c 4c43 c6bc b1a7 433c 2fbd 6dbc
000000b0: 772b d03b 115d 19bc b1a2 67bb 245d 45bc
000000c0: 99e2 d33c 5afa ec3b e7af 503c 1a44 cabb
000000d0: a338 de3b 3fe4 bdbb 301d 0abb a22a f03b
000000e0: 7a49 9fbb ad1f e1ba 2519 853c 87c3 edbb
000000f0: 0eff 7fbc 6d08 95b9 05e2 cc3b 8715 013c
00000100: 0630 1ebc c646 8c3c 9b4e 213d 509b 2b3b
00000110: cf67 44bc feac e2bc 539f aa39 0640 22bc
00000120: 252a 6ebc afa9 2d3a 9832 343c 3411 90bc
00000130: 3521 2bbc 17e3 ab3c 3f01 a8bc 1d19 a8bc
00000140: 78a6 d5bb 9c54 393c 879b 003d 58fc 30bc
00000150: 847e a5ba 18ef 143c 8160 4c3b 369d 1f3c
00000160: 8b1b a03b f2bf 93bb 2202 ac3c 71fe 58bc
00000170: e02a d43b a732 89bb 50ab ef3b 9432 603c
00000180: e246 d7bc f225 913c 29c0 02bb dfee 53ba
00000190: 7f2a 8d3b 99b8 c83b 234a 1f3c 3b3f dabb
000001a0: d2b6 4cbc 72f5 41bc eed3 923b b145 0e3c
000001b0: c5ac bd3b ed22 b6bc c50b ad3b 6e65 e7bb
000001c0: 3af0 233c 43a5 463b 976d 1bbc 751e 08bc
000001d0: 5049 4bbb 969f 2cbb e2a2 9c3b a355 703c
000001e0: d13c c8bb f358 a2bc fe7e ceb9 59f9 073c
000001f0: ecec 12bc a480 7d3b 6a0d 90bc bbc3 893c
00000200: f44d 6abc 29b4 553c 66c1 1cbc 28e8 2ebd
00000210: f207 673b 422d d93a c5b1 fc3b 6bde 42bc
00000220: 31ea f439 dd7d 043d 9869 8b3c b898 00bc
00000230: d63d c3bb cfc4 e7bb dc60 10bb 2db7 973c
00000240: 8e83 a33b b38c 9eb9 bd04 2e3c 73d2 593b
00000250: e344 4a3b 2bde 3b3b 7b41 4b3c 375c 883b
00000260: 963f 693c b19c 38bb d7ec 8dbb 1c3f 18bc
00000270: 57c3 643c 2e34 8fbc 0b9d 11bc 339d 09bc
00000280: 7917 323b b152 9f3c 5560 8cbc c516 03bd
00000290: 98f6 413b 6b98 80bc 53b9 9e3c d6e9 9a3b
000002a0: bcaf 013d 23be 693c 8162 243c c863 8c3b
000002b0: 8b4d 893c 4797 723c 989c ac3c bd06 473c
000002c0: 51e0 793c 0b4d 843c 3c28 2f3c 9542 673c
000002d0: b2ac 61bc 4bd4 77bc b2b6 a8bc e928 1cbc
000002e0: 9da6 593b 1796 423c 114c 87bc 7628 d5bc
000002f0: 59d4 ca3c 9dfe 9e3a 6d08 d43c f489 4abb
00000300: 23f3 1b3c 931d 953b 1291 c93b 69eb 28bc
00000310: 66bc 8a3b 5f65 17bc c060 4f3c 1920 29bc
00000320: fbec a83c 6ae7 793c 2037 b93b d29a f3bc
00000330: 6dca 96bc 0987 f8bc 49e4 bc3c aa4a 3bbc
00000340: 034b 6f3b 77fb 7d3b 536e 8abc 846c 5fbc
00000350: 9c12 ad3c 6db9 8fbc a1f4 ef3a b9e3 0cbb
00000360: fe49 d83c 7e28 8f3a b0e6 81ba 7c33 45bb
00000370: cbc1 89bc a70f abbc e924 b33b 23f0 223c
00000380: 0847 03bc 8333 963c c692 e03b ee3b 1abc
00000390: 75af 96bc 48b4 04bc 09fd bb3c d466 49bc
000003a0: c7e1 23ba f9cb 9a3b fa57 b03c 5e02 e43b
000003b0: 2abc b23b 6810 733c cdef afbb c510 ae3c
000003c0: 00ca 7a38 3d27 793c 10e5 103c 70fe 7a3c
000003d0: f0fc 89bc 29a1 a5ba 66fa 0a3b 30ee 243c
000003e0: edaf 733c 1648 a6bc a3be 45bc 6eff 173c
000003f0: 3beb 273c 7d55 a5bc 261a b8bc cb7d bc3a
-0.0039516934 0.003318934 0.03664138 0.0052846703 -0.01124275 0.013135166 -0.000751298 0.006045563
0.014062863 -0.016409898 0.00091554417 -0.002951487 0.007714374 -0.01720837 0.02251133 -0.00043333825
0.011600863 0.037327673 -0.0068518897 0.03280699 0.028677648 -0.026070975 0.00898984 0.007635778
0.016786609 -0.008105044 -0.016540373 0.025534654 -0.0067499867 -0.01223925 -0.005191104 0.0028656423
0.0034198498 0.0047244416 -0.023974974 -0.0050038514 0.010087322 0.0007776074 0.00088536594 0.021157041
0.008718607 -0.024202012 0.011941836 -0.014510437 0.0063528377 -0.009360568 -0.0035344774 -0.012046132
0.025864886 0.0072319927 0.012737251 -0.006172669 0.006781654 -0.0057950313 -0.0021074526 0.007329301
-0.004861054 -0.0017175578 0.016247341 -0.0072559747 -0.015624775 -0.00028425772 0.0062525296 0.007878668
-0.009655004 0.017123591 0.039381605 0.0026185103 -0.0119876405 -0.02767038 0.00032543633 -0.00990296
-0.014536415 0.0006624711 0.010998391 -0.017586328 -0.010444929 0.020982308 -0.020508407 -0.020519787
-0.0065200888 0.011311676 0.031398322 -0.010802351 -0.0012626206 0.0090902075 0.003118545 0.009742072
0.004886096 -0.0045089656 0.02099711 -0.013244257 0.0064748377 -0.0041869464 0.007314123 0.013683934
-0.026278917 0.017718289 -0.0019950962 -0.0008084606 0.0043080444 0.0061255214 0.009722265 -0.0066603697
-0.01249476 -0.011838304 0.0044808304 0.008683608 0.005788418 -0.02223345 0.005280944 -0.007061652
0.010006005 0.0030310906 -0.0094865775 -0.008308043 -0.003101904 -0.0026340238 0.0047801593 0.014668855
-0.0061107655 -0.019817805 -0.00039385998 0.008299195 -0.008967619 0.0038681412 -0.017584521 0.016816964
-0.014300812 0.013043442 -0.009567594 -0.04270187 0.0035252539 0.0016569274 0.0077116215 -0.011893849
0.00046713793 0.032346595 0.017018124 -0.007848911 -0.005958299 -0.007073022 -0.002203039 0.018519962
0.004990048 -0.00030240937 0.010621247 0.003323701 0.0030863814 0.0028666358 0.0124057485 0.0041613835
0.0142363515 -0.0028169567 -0.004331212 -0.00929239 0.013962588 -0.017480936 -0.00888754 -0.008399296
0.0027174635 0.01944861 -0.017135778 -0.032004137 0.0029596444 -0.015697679 0.019375479 0.0047275824
0.031661734 0.0142665235 0.010033251 0.004284356 0.016760608 0.014806575 0.021070763 0.012147603
0.015251235 0.016150018 0.010690745 0.0141149955 -0.013774084 -0.015126298 -0.020594928 -0.009531238
0.0033210882 0.0118766045 -0.016515763 -0.02602027 0.024759458 0.0012130324 0.025882924 -0.003090498
0.0095184175 0.0045506447 0.006151327 -0.010310032 0.0042338846 -0.009240477 0.012657344 -0.010322594
0.020620814 0.015252927 0.0056523234 -0.02973691 -0.018407071 -0.030337827 0.023058074 -0.0114313755
0.0036513216 0.003875462 -0.01689831 -0.013636712 0.021127038 -0.017544473 0.0018307158 -0.0021498038
0.02640247 0.0010922102 -0.0009910669 -0.0030090502 -0.01681604 -0.020881487 0.0054670465 0.009944948
-0.008012541 0.01833511 0.0068534343 -0.009413702 -0.018394211 -0.008099623 0.022947805 -0.012292583
-0.00062516 0.0047240225 0.021526325 0.00695829 0.00545456 0.0148354545 -0.0053691627 0.02124823
5.9792772e-05 0.015207109 0.008843675 0.015319452 -0.016844243 -0.001263653 0.0021206378 0.010066554
0.014873487 -0.020298045 -0.012069377 0.009277208 0.010248954 -0.020182366 -0.022473406 0.0014380751

actor_mean.2.weight f4 [256, 256]
00000000: b7f6 0ebd 276b 4b3c f871 85bd e912 27bd
00000010: e9b2 fb3d 774d e6bd a948 833d 07ee 103e
00000020: a4aa 993c e644 0abe a0b1 723d d4ef 833e
00000030: 2ab8 303e 5bef 903d ef1a 27bd add6 41be
00000040: 40a4 74bd f86c 953d f180 093e 1e11 5cbd
00000050: 8018 123d f089 db3d 753b b33c a132 1b3c
00000060: 3ad7 b5bd 531d 6bbd 7459 493e c3a3 cabc
00000070: fccc 963c 739d d73d a902 20bd 3ac2 f6bd
00000080: a944 0c3d 3d16 30bd fb03 e03d 8b64 823a
00000090: d61a de3c d7be 0a3a d614 d6bd 07eb f43d
000000a0: 4d27 173e 653b 9e3d 6c42 b93d cc2c f1bd
000000b0: d620 273b 14fe 0b3d d6da 9a3c 15d7 2a3e
000000c0: feef 46bd 6ca2 cd3d f0e6 b13d b7d1 063d
000000d0: 4643 b2bc 1222 063d 5a48 023c 055c 3d3d
000000e0: c0b1 733d 420e 2c3d 1fce 033d 2ad8 6e3d
000000f0: 097b d6bd f62a 6dbd 88fb 3cbd f11a a53d
00000100: b597 35bc 6634 433e c2ee 9ebd a406 523e
00000110: f401 e03d 4d6c afbd 677e 34be 6d7b dbbd
00000120: 6087 08bd e641 693d 5cf0 ecbc 01ec 82bd
00000130: 6e78 223e 74ba d53d 41f3 82bc d939 88bc
00000140: f711 653e c512 563c 8140 0fbe 845b 94bd
00000150: 3338 c6bd 1043 d8bd 72f0 2fbe 4aec 0b3d
00000160: dfca 83bd 3def 043c e749 9f3d 7817 35bd
00000170: 5805 9bbc b496 32bd 7ab8 c03d fa93 a63d
00000180: a862 9f3d 0851 caba 5a2e a0bd ec77 86bd
00000190: 520c 5ebd 6b01 fbbd 66f3 843d 7bc7 fabd
000001a0: a494 6c3d 2917 41bd 2f7e a63d 3fe5 2f3d
000001b0: b647 58bd 97bd daba 2ed6 d5bc df44 aabd
000001c0: fe9d ce3c e9ce ee3d 29f8 e6bc 8887 743d
000001d0: b26b b2bc 2602 843c 97e4 84bd 4630 1fbe
000001e0: 29c9 2fbd b412 f63c de4b 5bbd f038 80bd
000001f0: 00f6 54bd cdbb ecbd 85f6 ecbd 2432 a2bb
00000200: 0afa df3c efb9 1a3e 3364 86bd 3704 d33c
00000210: 54b0 9a3d ff6a fc3c 4575 8bbe ebff 2cbd
00000220: 7d1c a2bd 9b59 57bd 1b35 df3d ab49 43bd
00000230: 8aeb ec3d a8b9 1b3d e67b 28bd 466a 5a3c
00000240: 306d c7bd 0505 78bd 71af abbd 6cfe 2cbd
00000250: 7314 99bd bb8b f3bd c6f1 8dbd 52be 3dbd
00000260: 6baf acbc 6970 d93b 3925 c2bd 12a6 d5bc
00000270: 3033 fb3d c897 5b3d 3943 4b3d 4e45 03be
00000280: 6359 f83d 3159 7bbd c502 85bc 5ee1 e2bd
00000290: 9d9a b7bd a6bc 9ebd 5c72 e0bd 40a3 e73c
000002a0: faab b23d 80c1 b23d 56fc bbbd 428e 8dbc
000002b0: 5122 913b 01f9 c23d 6a75 0f3d a17f 483d
000002c0: 1c3d adbb 37b1 9f3c 7a4f 6a3c 1d02 483d
000002d0: 5024 273e a587 533e 3038 90bd a22d 86bd
000002e0: 6a17 41be f0f2 f1bd 83b5 b93d 4b6f 93bb
000002f0: b49b 27bd 1ff6 443c 72ac 483d 5159 ecbc
00000300: 896b edbd dc03 5abd cced 5bbc f3a0 febc
00000310: 4ed9 0e3c a933 123d 2900 3ebd 96cd a13c
00000320: ab70 8c3d e4e7 793d 1804 34bc 2a42 f53c
00000330: 2b08 c6bc c6d0 303e 0ce5 833c ecde a1bd
00000340: b1cc 0cbd 8a92 8bbd 915d 883e c149 163d
00000350: 66f6 013d 1638 e93c 5214 6d3d 74db 543d
00000360: a78c 823d 8485 b93d 3e60 a23d 2189 d5bd
00000370: 6340 15be 19f9 73bd aff0 1ebe 9847 8fbd
00000380: 8fa2 103e c8d8 633d 81c2 083e b091 b63c
00000390: fce5 6b3e 5a2c 40bd 0d43 5b3d 491e b33d
000003a0: 8d77 9e3d 1462 fb3c f6c5 5c3d a602 e0bd
000003b0: 977e 863d 47a5 753d 3273 823d ad85 1fbd
000003c0: f038 cb3d 6f93 95bc 09bc a73b 509b 44be
000003d0: 6169 4b3c 77c7 523d 5019 4bbd 755f a9bc
000003e0: 4570 e9bd 3937 82bd 14a6 193c f3da f1bc
000003f0: c5be 17be e655 4e3d 3709 0f3d 1c5e 8b3d
-0.034903254 0.012415684 -0.065158784 -0.04078952 0.12289984 -0.11245244 0.06410343 0.141533
0.018758126 -0.13502845 0.059251428 0.25768912 0.17257753 0.070769034 -0.04079717 -0.18929549
-0.059726954 0.07296175 0.13428093 -0.05372726 0.035667896 0.10719669 0.021878937 0.00947252
-0.08878942 -0.057401013 0.1966303 -0.02473629 0.018408291 0.10528078 -0.039065037 -0.120487645
0.034245167 -0.042989958 0.10938259 0.0009948177 0.027112406 0.00052927196 -0.10453193 0.119588904
0.14761086 0.07726172 0.09045872 -0.117761225 0.002550175 0.034177855 0.018903177 0.1668361
-0.048568718 0.10040745 0.08686626 0.032914843 -0.021760594 0.032747336 0.00795182 0.046230335
0.059495687 0.042005785 0.032178994 0.05831162 -0.10472686 -0.0579023 -0.046138316 0.08061779
-0.011083533 0.19062957 -0.07760383 0.20510346 0.109378725 -0.085655786 -0.17626344 -0.10716901
-0.03333223 0.05694761 -0.028923206 -0.063926704 0.15866253 0.10435954 -0.015985133 -0.016629146
0.22370134 0.013065998 -0.1398945 -0.07244018 -0.09678688 -0.10559666 -0.17181566 0.03416089
-0.06435179 0.0081136795 0.07777768 -0.044211835 -0.018923447 -0.043600753 0.09410186 0.08133693
0.07782489 -0.0015435526 -0.07821341 -0.06565842 -0.05421097 -0.1225613 0.06491737 -0.12245079
0.057758942 -0.047141228 0.08129536 0.042943235 -0.052802764 -0.0016688582 -0.026103105 -0.08313917
0.02522182 0.11660559 -0.028194504 0.059699565 -0.021779869 0.016114306 -0.064889126 -0.15545759
-0.04291645 0.030038215 -0.05353915 -0.0626086 -0.051992416 -0.11559258 -0.11570457 -0.004949825
0.027340908 0.1510999 -0.0656208 0.025758846 0.07553163 0.030812738 -0.27237907 -0.04223625
-0.0791559 -0.05257569 0.10898801 -0.047677677 0.11568363 0.038018852 -0.041133784 0.013331002
-0.09737623 -0.060551662 -0.08383072 -0.042234823 -0.074746035 -0.11891886 -0.0693088 -0.04632408
-0.02107974 0.006635715 -0.09479756 -0.026080165 0.122656226 0.053611547 0.049624655 -0.12819406
0.12126424 -0.061364356 -0.016236672 -0.11078142 -0.08965037 -0.077508256 -0.10959312 0.028276086
0.08724208 0.087283134 -0.09178989 -0.017279748 0.0044291397 0.0952015 0.035024084 0.04894984
-0.005286826 0.019493682 0.014301175 0.04883014 0.16322446 0.20657213 -0.07041967 -0.065516725
-0.18856588 -0.11813915 0.09067824 -0.004499351 -0.040919974 0.0120215705 0.04899258 -0.028851183
-0.11592776 -0.053226337 -0.013423394 -0.031082606 0.008718802 0.0356938 -0.04638687 0.019751351
0.06857427 0.061012164 -0.010987304 0.029938776 -0.024173817 0.17267141 0.016100429 -0.07903847
-0.034374896 -0.068150595 0.26633886 0.03669143 0.031729124 0.028469127 0.057880707 0.0519671
0.063744836 0.09058669 0.07928513 -0.10426546 -0.14575343 -0.05956373 -0.15521501 -0.06996077
0.14124511 0.05562666 0.13355447 0.022286266 0.23036951 -0.046917297 0.05353074 0.08746011
0.07737646 0.030686416 0.053899728 -0.10938005 0.06567114 0.059972074 0.06369628 -0.038945843
0.09922969 -0.018258778 0.005118851 -0.19199872 0.012415261 0.051459756 -0.049584687 -0.0206754
-0.11398367 -0.06358189 0.009377975 -0.029523348 -0.14818867 0.050374888 0.034920897 0.06805059
