mete_aerial_gym_simulator/rl_training/cleanrl/runs/quad__ppo_continuous_action__1__1686633174/latest_model.pth (torch, 564158 bytes, 12 tensors)

actor_logstd f4 [1, 4]
-0.4889587 -0.74159616 -0.8676216 -0.91124886
00000000: cb58 fabe 3fd9 3dbf 731c 5ebf 9b47 69bf

critic.0.weight f4 [256, 13]
-0.14943261 -0.06953154 0.1324095 -1.2236353 -1.3759599 -1.2503734 0.5951521 -0.91769004
0.033014666 -0.18737286 -0.00028622866 -0.024730567 0.09039374 -0.14426905 0.057532422 -0.07332727
-0.66780835 -0.8867763 -0.12236513 0.7618629 -0.6391981 0.064188845 -0.116711095 0.3597609
-0.298147 -0.026842484 -0.22928315 0.104062915 -0.16598895 0.16936688 0.18106014 0.33817038
0.13978651 0.59613085 0.11421583 -0.53100425 -0.2979612 0.25307965 -0.3144738 0.7684523
0.30652913 -0.09167619 -1.339159 1.9621625 -1.5429689 -0.7015361 0.98185134 0.9464795
0.6357429 -0.048074838 0.13377288 0.08816561 -0.16697581 -0.13905415 0.19270551 0.67148376
0.76465374 1.8213942 0.21943483 -0.37100893 -0.070107356 -0.43836808 0.055525508 0.61662006
-0.22913629 -0.8342738 1.970576 -0.32420933 -0.630566 0.2000505 2.17812 -0.8675768
0.11068549 0.5933548 -0.19293827 -0.03324176 0.15739262 0.036864124 0.38988444 -0.53904
0.29424503 -0.22301158 -0.21387292 1.0826728 0.81757504 -0.11425678 0.028997656 -0.34404707
-0.19149515 -0.05569972 0.04511702 0.13332546 -0.12546389 0.120331354 -0.09758194 0.8959736
0.7221404 0.39734712 -0.43658668 -0.103413925 -0.5450426 -0.043149382 0.579164 -0.36403012
-0.02654871 0.71714807 0.023723865 -2.0108576 0.061726466 0.55906975 0.059739493 -0.55666924
0.5507218 -0.6155126 -0.45179504 -0.11234621 -0.24693123 -0.5867219 0.050616205 -0.4834202
0.1805784 1.4067054 1.8382341 -0.5419158 0.15784614 -0.19400379 -0.25300804 0.10948879
0.16775976 0.37162244 0.5579982 -0.23062195 -0.4141576 1.6347221 -0.4888188 0.12684295
0.44425395 -0.5271275 -1.019041 -0.015835648 0.22872756 0.44053638 0.499474 -0.6665625
0.42360562 0.13329409 -0.37443265 0.2274402 -1.5294579 0.99168426 -0.64344776 0.3225694
0.12634309 -0.10741759 -0.3710225 -0.0353069 -0.14355193 -0.23830718 0.14860958 -1.3384848
-0.9902021 -0.5331132 0.9737985 -0.5307454 0.23391137 -0.1295414 -0.14346847 -0.13534842
0.02157769 -0.3071344 -0.031059 -0.21441945 -0.031163476 2.7404735 -1.4138613 -0.5558322
0.85096234 0.14519416 0.44304514 -0.10363232 0.113725856 -0.25473595 0.2519754 -0.67847914
-1.0483048 0.0626501 0.7122052 1.842432 -0.5096126 0.30372494 -0.2046198 -0.11132074
-0.01943125 0.07462189 0.033641744 -0.7560896 0.40834275 0.3239052 0.15472448 -0.05182631
-2.609783 0.32747993 -0.75450146 -0.16119865 -0.4633834 -0.25408873 0.55245495 -0.24086434
-1.7176434 -1.1173759 -0.73249114 0.8006549 -0.9620616 -1.060547 -0.7232445 -0.61823314
-0.6793224 -0.36287594 0.071187854 0.028614827 -0.032234225 0.5331551 -1.9300201 -0.42236656
0.34892163 0.6632293 1.6854706 -0.65413517 -0.041945808 -0.29833922 -0.078257315 0.06542005
-0.04518148 -0.08333379 -0.08999002 1.0421889 -0.6130555 -0.582526 -0.9911901 -1.730612
0.72084296 -0.5995918 0.64688194 -0.33624646 -0.009055104 -0.09128146 -0.18517669 -0.15955651
-0.04866086 0.49771464 0.3749931 0.5276467 -3.472736 0.6003311 0.019386508 -0.60106343
00000000: dd04 19be 8d66 8ebd 5b96 073e 15a0 9cbf
00000010: 741f b0bf 3c0c a0bf e35b 183f bced 6abf
00000020: 633a 073d acde 3fbe f610 96b9 c297 cabc
00000030: 5a20 b93d 44bb 13be 1ea7 6b3d 9c2c 96bd
00000040: 7df5 2abf c603 63bf 929a fabd 7209 433f
00000050: 7da2 23bf 7175 833d 3a06 efbd 9532 b83e
00000060: b9a6 98be c5e4 dbbc 34c9 6abe f01e d53d
00000070: 02f9 29be 836e 2d3e d467 393e ab24 ad3e
00000080: 3224 0f3e 089c 183f fde9 e93d e5ef 07bf
00000090: 5f8e 98be a893 813e b602 a1be 4ab9 443f
000000a0: 63f1 9c3e bac0 bbbd 9069 abbf 2428 fb3f
000000b0: 0180 c5bf df97 33bf 9c5a 7b3f 7b4c 723f
000000c0: 0cc0 223f 1fea 44bd c2fb 083e 2c90 b43d
000000d0: b5fb 2abe 3664 0ebe 9854 453e 5ce6 2b3f
000000e0: 59c0 433f 7223 e93f 86b3 603e e2f4 bdbe
000000f0: 7294 8fbd c871 e0be b76e 633d d0da 1d3f
00000100: b4a2 6abe f892 55bf d63b fc3f c4fe a5be
00000110: c66c 21bf 0ada 4c3e 5166 0b40 8319 5ebf
00000120: 13af e23d 1ae6 173f 9c91 45be 8328 08bd
00000130: 882b 213e d6fe 163d ef9e c73e 87fe 09bf
00000140: 49a7 963e 265d 64be 8101 5bbe 0695 8a3f
00000150: 994c 513f 75ff e9bd 7e8c ed3c f026 b0be
00000160: 4e17 44be 6425 64bd a0cc 383d 7886 083e
00000170: 9b79 00be 4970 f63d 0ad9 c7bd 875e 653f
00000180: 31de 383f 1571 cb3e 4a88 dfbe aeca d3bd
00000190: e987 0bbf 68bd 30bd 1844 143f 2862 babe
000001a0: ae7c d9bc 0497 373f 8d58 c23c e4b1 00c0
000001b0: e4d4 7c3d 321f 0f3f 66b1 743d e081 0ebf
000001c0: 1bfc 0c3f 3c92 1dbf ae51 e7be c515 e6bd
000001d0: 8adb 7cbe 6833 16bf f052 4f3d da82 f7be
000001e0: 8be9 383e ec0e b43f 414b eb3f feba 0abf
000001f0: 6ba2 213e eea8 46be 458a 81be a93b e03d
00000200: 37c9 2b3e 4c45 be3e f8d8 0e3f 2928 6cbe
00000210: 770c d4be 933e d13f 7546 fabe 1ee3 013e
00000220: 4175 e33e d4f1 06bf ef6f 82bf c3b9 81bc
00000230: 8f37 6a3e fc8d e13e 0ebb ff3e d7a3 2abf
00000240: d6e2 d83e 3f7e 083e a3b5 bfbe 15e6 683e
00000250: 47c5 c3bf 05df 7d3f feb8 24bf d127 a53e
00000260: 1560 013e c1fd dbbd a9f6 bdbe f89d 10bd
00000270: 47ff 12be cc06 74be 1c2d 183e 7853 abbf
00000280: e37d 7dbf 1b7a 08bf dc4a 793f eede 07bf
00000290: 7686 6f3e 80a6 04be 66e9 12be c798 0abe
000002a0: b2c3 b03c b840 9dbe 726f febc c690 5bbe
000002b0: 8c4a ffbc eb63 2f40 68f9 b4bf 054b 0ebf
000002c0: abd8 593f c7ad 143e d0d6 e23e 2f3d d4bd
000002d0: 1ae9 e83d c06c 82be eb02 813e cfb0 2dbf
000002e0: da2e 86bf b24e 803d 1453 363f d0d4 eb3f
000002f0: f975 02bf d681 9b3e da87 51be 21fc e3bd
00000300: 492e 9fbc 5dd3 983d edcb 093d 178f 41bf
00000310: 4d12 d13e e7d6 a53e 1870 1e3e d347 54bd
00000320: af06 27c0 73ab a73e 0227 41bf 4211 25be
00000330: 9740 edbe eb17 82be b06d 0d3f 24a5 76be
00000340: bddb dbbf 2c06 8fbf 8a84 3bbf b8f7 4c3f
00000350: ab49 76bf 01c0 87bf 8d26 39bf 8744 1ebf
00000360: 13e8 2dbf e0ca b9be f0ca 913d a469 ea3c
00000370: 0908 04bd da7c 083f e60a f7bf 6e40 d8be
00000380: dba5 b23e 65c9 293f 80bd d73f 6775 27bf
00000390: 5ecf 2bbd ebbf 98be 5f45 a0bd f2fa 853d
000003a0: 3710 39bd e8aa aabd b04c b8bd 7266 853f
000003b0: 35f1 1cbf 6d20 15bf a2be 7dbf b284 ddbf
000003c0: 2a89 383f d97e 19bf 0e9a 253f 7f28 acbe
000003d0: dc5b 14bc c6f1 babd f59e 3dbe c862 23be
000003e0: 9c50 47bd 74d4 fe3e 18ff bf3e db13 073f
000003f0: 4e41 5ec0 4daf 193f 74d0 9e3c 4bdf 19bf

critic.0.bias f4 [256]
0.7548518 0.9613842 0.10770513 -0.59752977 0.403946 -0.49842367 1.0208999 0.5771716
0.2540543 -0.2632076 0.30795318 1.130472 1.248363 -0.4967429 -0.36971688 0.5107308
-0.5025311 -0.40120193 0.6999382 0.55306894 -0.17346217 1.6172822 -0.40808204 1.0908936
-0.2902841 -0.68827987 -0.6300467 -0.41787615 -0.49111062 -0.70956093 0.90826 -0.38471165
-0.3123285 -0.33752224 1.2528013 -0.050934445 -0.345465 -0.9435688 0.8039397 0.09778947
-0.062993415 1.0609863 -0.17150946 0.799357 1.111504 0.9366662 0.6810835 -0.115281925
-1.0894567 0.6824254 0.31793845 0.14837907 -0.16620655 0.15371893 0.60653955 -0.84685755
-0.5053291 -1.0773627 -0.3330632 1.2891341 0.84776264 0.23322925 0.013508277 -0.19273576
-0.84888864 -0.5980013 -1.042611 0.70327693 0.66670847 -0.7539014 -1.318049 0.49635494
-1.1640211 -0.590503 0.25649872 -0.5330628 0.6726922 -0.52456915 -1.7410452 -0.94401646
0.9672433 1.0786351 -0.32821485 -0.51536006 -1.0804205 -1.1224953 -0.29470682 0.31949818
1.2769475 -0.8985676 -0.76434076 0.87011915 0.1325044 2.1863165 0.7899056 1.1630838
0.6766854 1.854287 0.5779472 -1.0113521 0.011668206 0.04989651 -0.8477248 -1.0341132
0.87295544 -1.101206 -0.9588812 0.9769513 1.0990067 1.2467868 1.259269 -1.08233
0.009545217 -0.4043128 -0.19419824 -0.0009434234 0.31455615 -0.1806175 0.6160689 0.040657178
-0.86275923 0.026925456 0.8211516 -0.8226386 -0.3997633 0.5168739 1.0851622 -0.06185142
0.3984996 0.6771155 -0.05818852 -0.41748965 -0.31368127 -0.12244336 0.14730662 -0.45857853
0.6816232 -0.2901839 -0.5541618 -0.7122111 -0.20011137 -0.75762933 1.0528176 0.30711356
-0.91523045 0.08128707 0.6622308 1.0046768 -0.37458074 -0.27675995 -1.0313762 -1.1543462
-0.12610412 0.13578182 0.97049356 0.42033 -0.4421836 0.41630146 0.17275193 -0.286201
0.2280181 -0.35950395 0.26598778 -1.3577752 0.98398465 -0.36607552 -0.8022942 -0.1083569
-0.23889567 -0.06127739 0.08247773 -1.2209711 0.49024716 -0.79652554 -0.20322427 1.0013981
-0.28437337 0.33595142 0.16777077 1.7207047 0.8262186 0.23777737 0.6184988 0.71202207
-0.17117187 0.5445758 0.72805876 0.8052095 -0.25944462 0.5655769 0.6930483 0.29539925
-0.8036063 -0.9641967 0.9814911 -0.6839269 -0.16227116 0.0053618997 -0.9366566 -0.17581579
0.5177389 -0.45669666 0.3347349 -0.99680436 -0.15376535 -0.72369474 -0.95772845 0.5679638
-0.10824253 0.27907196 -0.88037276 0.10909983 -0.6086657 0.18730807 -0.18865128 -0.7248833
0.04102248 -0.3637891 -0.0470997 0.5579418 -0.28229538 0.49869943 2.254608 0.5817288
-1.1639723 -0.58156157 0.5301944 -0.4314623 -0.49132362 -0.37704977 -0.503315 0.6499584
0.68375546 -1.0468888 -0.06719628 -0.45846426 -0.84023625 0.49275202 -0.44794285 -0.98398817
-1.2458539 1.0413231 0.08066226 0.91448396 -1.0218102 -0.83640033 0.7605658 -1.0552573
-0.23545374 0.31143895 1.4454284 0.68580306 0.16313605 0.84998333 -0.40882072 -0.32765636
00000000: f83d 413f 461d 763f 8294 dc3d b6f7 18bf
00000010: 03d2 ce3e 6331 ffbe d9ac 823f 85c1 133f
00000020: 6813 823e 26c3 86be 0aac 9d3e 4eb3 903f
00000030: 5cca 9f3f 1655 febe 884b bdbe 41bf 023f
00000040: e1a5 00bf 576a cdbe 262f 333f ed95 0d3f
00000050: 11a0 31be 1a03 cf3f 21f0 d0be 67a2 8b3f
00000060: 1ea0 94be 1c33 30bf be4a 21bf ddf3 d5be
00000070: da72 fbbe c9a5 35bf ba83 683f edf8 c4be
00000080: 85e9 9fbe b7cf acbe cb5b a03f a3a0 50bd
00000090: cae0 b0be ba8d 71bf fece 4d3f d845 c83d
000000a0: b102 81bd 66ce 873f 2da0 2fbe a9a2 4c3f
000000b0: c345 8e3f 5bc9 6f3f 7d5b 2e3f ee18 ecbd
000000c0: 5173 8bbf 6eb3 2e3f d4c8 a23e aff0 173e
000000d0: 0d32 2abe 7f68 1d3e 2d46 1b3f a8cb 58bf
000000e0: 3f5d 01bf 05e7 89bf 4287 aabe 5902 a53f
000000f0: f906 593f a6d3 6e3e d251 5d3c 865c 45be
00000100: c450 59bf 9d16 19bf 4774 85bf f509 343f
00000110: 68ad 2a3f afff 40bf d4b5 a8bf 3c22 fe3e
00000120: a5fe 94bf 342b 17bf cd53 833e ce76 08bf
00000130: 8e35 2c3f 2a4a 06bf 92da debf 10ab 71bf
00000140: 429d 773f b710 8a3f c70b a8be a3ee 03bf
00000150: 384b 8abf edad 8fbf d0e3 96be 4495 a33e
00000160: 0473 a33f 8708 66bf d6ab 43bf 21c0 5e3f
00000170: 3caf 073e 9cec 0b40 4137 4a3f eedf 943f
00000180: 413b 2d3f 4759 ed3f 59f4 133f fc73 81bf
00000190: 012c 3f3c 4860 4c3d 7e04 59bf d25d 84bf
000001a0: 027a 5f3f 51f4 8cbf 3d79 75bf 7b19 7a3f
000001b0: 40ac 8c3f b696 9f3f ba2f a13f ca89 8abf
000001c0: 8b63 1c3c 1602 cfbe e7db 46be 1350 77ba
000001d0: 810d a13e cbf3 38be b1b6 1d3f 2488 263d
000001e0: cadd 5cbf c692 dc3c fe36 523f 7198 52bf
000001f0: c6ad ccbe d951 043f 98e6 8a3f ea57 7dbd
00000200: 2408 cc3e 7157 2d3f 1657 6ebd 34c1 d5be
00000210: d59a a0be 96c3 fabd 8cd7 163e ceca eabe
00000220: dc7e 2e3f fc92 94be 8cdd 0dbf 7753 36bf
00000230: ffe9 4cbe fff3 41bf bac2 863f fd3d 9d3e
00000240: 8b4c 6abf d679 a63d f587 293f 4099 803f
00000250: 0cc9 bfbe 7bb3 8dbe 2304 84bf 9ec1 93bf
00000260: 7021 01be 640a 0b3e 4472 783f 7e35 d73e
00000270: e465 e2be 7725 d53e e2e5 303e f088 92be
00000280: 947d 693e e710 b8be 8d2f 883e 94cb adbf
00000290: 6be6 7b3f 406e bbbe 2763 4dbf 39ea ddbd
000002a0: 11a1 74be 00fe 7abd 16ea a83d c848 9cbf
000002b0: ad01 fb3e 19e9 4bbf 061a 50be d02d 803f
000002c0: 6399 91be d301 ac3e 1acc 2b3e 0d40 dc3f
000002d0: 1083 533f e97b 733e f055 1e3f 1447 363f
000002e0: ae47 2fbe 5269 0b3f 0f62 3a3f 3622 4e3f
000002f0: edd5 84be a6c9 103f 9d6b 313f 923e 973e
00000300: 24b9 4dbf 98d5 76bf 0043 7b3f d515 2fbf
00000310: 692a 26be e0b2 af3b bac8 6fbf 0e09 34be
00000320: 898a 043f 25d4 e9be 5f62 ab3e 922e 7fbf
00000330: aa74 1dbe 0f44 39bf b12d 75bf 1366 113f
00000340: 42ae ddbd 85e2 8e3e 1c60 61bf bb6f df3d
00000350: 84d1 1bbf b0cd 3f3e cd2d 41be f491 39bf
00000360: 3007 283d 9142 babe 9deb 40bd 46d5 0e3f
00000370: 0589 90be 8855 ff3e 7f4b 1040 2eec 143f
00000380: 0bfd 94bf 38e1 14bf d2ba 073f a0e8 dcbe
00000390: c58e fbbe ab0c c1be 40d9 00bf ac63 263f
000003a0: 990a 2f3f 7400 86bf 349e 89bd d4bb eabe
000003b0: b919 57bf fe49 fc3e c458 e5be a6e6 7bbf
000003c0: 2478 9fbf 134a 853f 4132 a53d 9f1b 6a3f
000003d0: adca 82bf 551e 56bf 71b4 423f ac12 87bf
000003e0: c91a 71be ed74 9f3e cc03 b93f ca90 2f3f
000003f0: 230d 273e 8298 593f f350 d1be 93c2 a7be

critic.2.weight f4 [256, 256]
-0.06604459 -0.43369317 -0.10279303 -0.5035785 0.049289044 -0.69127446 0.28440917 -0.2748587
-0.5169281 -0.31718108 0.29711035 0.34198934 -0.2848049 -0.2079032 -0.4596454 -0.23538487
-0.50519097 -0.7298677 0.08553283 -0.056558203 -0.518804 0.32134354 -0.18617253 -0.31418628
-0.56587845 -0.1228444 -0.5165608 -0.41929463 0.6452005 -0.09751229 -0.31146112 0.4735355
-0.070646696 0.10636004 -0.22862516 0.42976382 0.058284905 0.71348095 -0.17419057 -0.20539944
-0.31954834 0.065744214 -0.044368625 0.8083541 -0.7527461 -0.13749503 -0.071332194 0.07159804
-0.5749852 1.3932903 -0.40222836 -0.1751934 -0.10970633 -0.32598415 0.43726653 -0.21673444
-0.29722083 0.13287307 0.0009243176 -0.3065014 -0.7175262 0.0656889 -0.17508481 0.6155013
-0.013713238 0.055254757 0.57996947 0.0156080155 0.19668597 0.0065506934 -0.012984426 0.46911
0.46672082 -0.6283907 -0.07081074 -0.1535518 0.0489872 -0.43846387 0.5779956 -0.072522156
-0.28769237 -0.87215215 -0.3122819 -0.7824339 0.27077293 -0.077263884 0.15764442 0.101291984
-0.21923563 -0.08603962 -0.16033885 0.034076735 1.1205776 -0.45792377 -0.014467516 -0.09854473
0.5815156 -0.14014152 0.13050792 0.22026089 -0.38709518 0.4113829 0.8654656 0.7041849
-0.08606014 0.3354571 0.397383 -0.6724671 -0.44854116 0.001174902 -0.6942783 -0.60664636
-0.023204552 -0.4078118 -0.053689584 0.31944576 0.58403933 0.04737304 1.1121185 -0.46532553
0.59748393 0.09928952 -0.019437276 -0.333656 0.44334376 -0.25577834 -0.3390651 0.42645106
0.042080063 -0.18900986 0.1530821 0.09654712 0.21106544 -0.08533296 -0.05254856 -0.5488183
1.3058581 0.37153593 0.3445939 -0.97691 0.28404668 -0.061847884 -0.024357928 -0.2960985
-0.011625642 -0.5634862 -0.05682757 -0.6173255 -1.3289509 -0.2916845 0.3200284 -0.43092376
0.33420855 0.61491704 0.11958971 0.44548392 -0.5933813 0.2161254 -0.18197006 0.44088906
-0.22497348 0.32303414 -0.3057912 0.16074935 -0.7864706 -0.11740335 0.15101236 -0.09830851
-0.14377671 -0.53011763 -0.3924163 0.7234069 0.62571293 0.5604176 -0.39320168 -0.8361517
-0.37066674 0.7492197 0.07476088 0.15478972 0.15834895 -0.17491934 0.7412945 -0.6047936
-0.056397058 -0.31808236 0.6283096 -0.4563479 0.32597575 0.32273155 -0.037289742 -0.12290294
-0.32983822 0.3761649 0.41780302 -0.52677757 -0.22208731 -0.34334677 -0.43418 -0.22838137
0.51437545 0.59715533 -0.09279942 0.2733212 -0.3843105 0.26593503 0.8092304 -0.23923118
-0.6625451 -0.044354804 0.075121045 0.22737168 -0.15300226 0.40643185 0.27719688 0.39298245
0.41239765 -0.41079667 -0.27497834 0.122765414 -0.49341372 0.012425638 0.74384093 -0.034205843
0.6064581 -0.5317763 0.062312346 -0.58383554 -0.14557876 -0.12466268 0.16249809 0.41446966
-0.11700917 0.24092221 -0.16848733 -0.59426266 0.0021654458 -0.018299919 0.24428692 0.24588162
0.6442603 -0.8167064 0.21922724 0.48748964 0.27869615 -0.6279157 0.16375498 0.23912667
-0.20786954 -0.48239252 -0.0005366105 1.2007942 -0.0015427188 0.67115706 0.09428882 -0.15673943
00000000: 6342 87bd 080d debe 2785 d2bd 85ea 00bf
00000010: 4fe3 493d 5df7 30bf 149e 913e 48ba 8cbe
00000020: 6655 04bf 8f65 a2be d91e 983e 3a19 af3e
00000030: f3d1 91be 94e4 54be a456 ebbe bb08 71be
00000040: 3254 01bf 9cd8 3abf d62b af3d 93a9 67bd
00000050: 57d0 04bf 2487 a43e 03a4 3ebe 06dd a0be
00000060: 69dd 10bf d895 fbbd 543d 04bf c9ad d6be
00000070: dc2b 253f 86b4 c7bd d577 9fbe 3f73 f23e
00000080: 37af 90bd 4bd3 d93d b71c 6abe 010a dc3e
00000090: 27bc 6e3d b0a6 363f 035f 32be 3b54 52be
000000a0: d79b a3be e7a4 863d e0bb 35bd 4bf0 4e3f
000000b0: f8b3 40bf 7fcb 0cbe 9d16 92bd fea1 923d
000000c0: 3b32 13bf 5657 b23f e0f0 cdbe e665 33be
000000d0: b6ad e0bd 65e7 a6be 66e1 df3e a2ef 5dbe
000000e0: 542d 98be e10f 083e e74d 723a c0ed 9cbe
000000f0: ccaf 37bf e787 863d 6f49 33be 7e91 1d3f
00000100: 7dad 60bc d052 623d e178 143f c3b8 7f3c
00000110: 0c68 493e 33a7 d63b a1bc 54bc 302f f03e
00000120: 08f6 ee3e 37de 20bf 3905 91bd af3c 1dbe
00000130: cda6 483d 567e e0be 85f7 133f 7f86 94bd
00000140: 6a4c 93be 5d45 5fbf 6ae3 9fbe 974d 48bf
00000150: c0a2 8a3e 873c 9ebd 8a6d 213e 2c72 cf3d
00000160: 4e7f 60be 8a35 b0bd de2f 24be 0c94 0b3d
00000170: 166f 8f3f fc74 eabe 2909 6dbc d2d1 c9bd
00000180: 35de 143f 4281 0fbe dea3 053e 128c 613e
00000190: 5731 c6be c8a0 d23e 278f 5d3f 7645 343f
000001a0: 4c40 b0bd 08c1 ab3e c975 cb3e ce26 2cbf
000001b0: 30a7 e5be 2bff 993a 39bc 31bf 2d4d 1bbf
000001c0: 7917 bebc b5cc d0be 9ce9 5bbd 658e a33e
000001d0: 9a83 153f 3c0a 423d e659 8e3f 263f eebe
000001e0: b5f4 183f 4e58 cb3d ec3a 9fbc f6d4 aabe
000001f0: f4fd e23e 61f5 82be f199 adbe cb57 da3e
00000200: 255c 2c3d cd8b 41be 8ec1 1c3e 7fba c53d
00000210: 8a21 583e 0cc3 aebd 293d 57bd 5b7f 0cbf
00000220: 5c26 a73f f539 be3e 9d6e b03e c616 7abf
00000230: 916e 913e 3554 7dbd 478a c7bc 399a 97be
00000240: 7a79 3ebc a240 10bf 07c4 68bd 0b09 1ebf
00000250: 101b aabf ac57 95be c3da a33e 0aa2 dcbe
00000260: 621d ab3e 346b 1d3f 73eb f43d 7816 e43e
00000270: d6e7 17bf fa4f 5d3e 5c56 3abe 36bc e13e
00000280: 735f 66be bb64 a53e aa90 9cbe 7a9b 243e
00000290: 2356 49bf 2b71 f0bd fca2 1a3e f955 c9bd
000002a0: 343a 13be cab5 07bf caea c8be 3231 393f
000002b0: b92e 203f 8777 0f3f bb51 c9be 0a0e 56bf
000002c0: 08c8 bdbe ddcc 3f3f 3b1c 993d 3281 1e3e
000002d0: 3a26 223e 0e1e 33be 7ac5 3d3f c1d3 1abf
000002e0: 9a00 67bd b1db a2be e6d8 203f 6fa6 e9be
000002f0: 4be6 a63e 123d a53e 21bd 18bd 89b4 fbbd
00000300: 8ee0 a8be b098 c03e 47ea d53e e5da 06bf
00000310: db6a 63be 26cb afbe d74c debe cedc 69be
00000320: 1cae 033f 2cdf 183f 9f0d bebd c2f0 8b3e
00000330: 59c4 c4be a328 883e b929 4f3f 05f9 74be
00000340: 8e9c 29bf 62ad 35bd 10d9 993d 1fd4 683e
00000350: a0ac 1cbe d617 d03e c0ec 8d3e ff34 c93e
00000360: c925 d33e f153 d2be f6c9 8cbe 6f6c fb3d
00000370: b9a0 fcbe e794 4b3c 5c6c 3e3f 6d1b 0cbd
00000380: d740 1b3f 7e22 08bf 3b3b 7f3d 3f76 15bf
00000390: 9912 15be 264f ffbd e665 263e 5e35 d43e
000003a0: 81a2 efbd 50b4 763e f187 2cbe 9921 18bf
000003b0: 27ea 0d3b b6e9 95bc 5a26 7a3e 64c8 7b3e
000003c0: 3eee 243f ac13 51bf 1b7d 603e 3e98 f93e
000003d0: 43b1 8e3e 15bf 20bf 63af 273e 9fdd 743e
000003e0: c1db 54be 27fc f6be 52ab 0cba a0b3 993f
000003f0: 0e35 caba f3d0 2b3f 7f1a c13d 4d80 20be

critic.2.bias f4 [256]
0.68082553 -0.5969473 0.42402107 -0.054440312 0.18265621 0.07332839 0.9834959 0.46847013
0.026449507 -0.13176754 -0.06467657 -0.047433786 0.8540879 -0.8292473 0.5622241 -0.26586798
0.6773378 0.273732 -0.10548575 0.28528148 0.42206138 0.023263237 0.072972395 0.0034114132
-0.6222096 -0.15250276 0.34635523 0.16922341 0.051000573 0.03218869 0.18586081 0.386204
0.011593341 0.13459024 -0.7168332 -0.609112 0.08839702 0.5452115 0.5406936 -0.648999
0.054638367 0.96433467 1.0653354 0.6168349 -0.45626178 -0.20497166 -0.6536566 -1.8142933
-0.10692341 -0.23947129 0.356485 -0.4574924 0.13012192 -0.77852875 -0.16495708 0.56813884
0.6121903 -0.18887447 0.092195086 0.13041236 0.4712515 0.14094022 -0.54827034 0.44592294
-0.27949962 0.1905285 0.039249457 0.04397431 2.0570488 -0.5146313 0.82009256 0.3201842
0.36769593 0.45833573 0.044042256 0.06854307 0.11311178 0.4975857 -0.16103102 -0.2567927
0.12796015 -0.08559586 -1.8129026 0.32367682 -1.0963159 -0.17204137 -0.3271656 -0.42830995
0.17249186 0.41276562 0.12140543 0.78194505 -0.13244401 0.54741883 -0.063904814 0.6235728
-0.15517928 -0.6654243 -0.24918666 -0.64734703 0.238511 -0.1784754 -1.9547585 0.0429161
0.97950816 0.44174558 0.2933023 -0.025121367 -0.25376508 -0.6482771 -0.13971844 -0.13450424
0.802824 0.22614685 -0.1997133 0.30496714 -0.0045297295 0.16403353 -1.2130188 0.28598943
0.26067993 0.9740198 0.35172865 0.3679438 2.0846398 -0.20134321 0.06623797 -1.2266513
0.2339297 -0.033848986 -0.21621025 1.3152332 0.7655237 0.14634396 0.4685336 -0.24398223
0.76239437 -0.40144917 -0.8829403 -0.2623673 -1.0185083 -1.9261005 1.7475595 -0.40593997
-0.027375666 0.49080074 -0.7004995 0.63334143 -0.30369362 -0.40424103 -0.021968773 0.5292105
1.824734 0.12533604 -1.1746012 0.10289498 0.092497975 -0.20651305 0.12919036 0.20525678
0.12430916 0.26318657 0.6991871 1.4909637 -0.18024345 -1.1379774 1.2656467 0.2355023
-0.18108702 -0.33851707 0.3819668 -0.06799097 0.017997725 -1.6412705 -0.29121676 0.6004202
-0.11348059 -1.262305 0.024179136 -0.12999818 0.13041605 -0.47320917 -0.5767323 -0.05417819
-0.6315811 1.2845249 1.9293308 0.32456642 -0.13006163 0.3047405 -0.2628459 0.43565866
0.5828961 -0.267144 0.32559535 0.48282254 -0.32622412 0.23125388 -0.39757597 -0.04968586
-0.62284493 -0.098404065 0.014703074 -0.40758127 -0.04687034 0.29825008 0.5636858 0.19262265
-2.0642781 0.5267405 0.13131641 -0.73981 -0.3243384 0.5066536 0.35595444 -0.03605347
-0.20831425 -0.021710863 -0.003395775 1.0508391 -0.18055293 -0.09942338 -0.26179028 0.32095537
-0.05687966 1.2821552 0.3281998 -0.4262224 0.17221513 -0.26827857 -1.1087279 0.12525451
-0.3078301 0.6367965 -0.17739692 0.18451111 0.060292926 -0.2510368 0.7028841 -0.36817172
-0.37593687 -0.30314386 -0.032716766 -0.81245166 0.22103955 -0.9087683 -0.26432702 0.1997177
-0.12760453 0.06524649 0.22669208 -0.04328379 -0.17339094 0.4735498 -1.0750864 0.149766
00000000: 954a 2e3f 8ad1 18bf 4a19 d93e cefc 5ebd
00000010: 3b0a 3b3e 322d 963d 63c6 7b3f 51db ef3e
00000020: a3ac d83c 12ee 06be 2675 84bd ee49 42bd
00000030: 81a5 5a3f 8d49 54bf ebed 0f3f d91f 88be
00000040: 0366 2d3f 9a26 8c3e ea08 d8bd 6a10 923e
00000050: 6e18 d83e 8b92 be3c 8d72 953d 0492 5f3b
00000060: 2149 1fbf af29 1cbe 7955 b13e e748 2d3e
00000070: fae5 503d 4ad8 033d 4c52 3e3e 88bc c53e
00000080: fff1 3d3c 06d2 093e 6182 37bf c4ee 1bbf
00000090: 7f09 b53d fb92 0b3f e56a 0a3f cc24 26bf
000000a0: 7bcc 5f3d a3de 763f e95c 883f e4e8 1d3f
000000b0: 259b e9be 17e4 51be 0a56 27bf c33a e8bf
000000c0: a9fa dabd f637 75be 3485 b63e 723c eabe
000000d0: ae3e 053e a94d 47bf 82ea 28be 8c71 113f
000000e0: 81b8 1c3f 4f68 41be c7d0 bc3d d18a 053e
000000f0: e047 f13e a252 103e 725b 0cbf 0350 e43e
00000100: 931a 8fbe e719 433e 0ac4 203d 681e 343d
00000110: b0a6 0340 e0be 03bf 96f1 513f 2fef a33e
00000120: a442 bc3e fbaa ea3e a765 343d 4f60 8c3d
00000130: 26a7 e73d 8ec3 fe3e 51e5 24be 557a 83be
00000140: fc07 033e e24c afbd 310d e8bf f8b8 a53e
00000150: 1454 8cbf 9d2b 30be 4082 a7be 714b dbbe
00000160: b5a1 303e 0456 d33e 69a3 f83d 8d2d 483f
00000170: 679f 07be a423 0c3f 87e0 82bd 78a2 1f3f
00000180: 51e7 1ebe 3f59 2abf ca2a 7fbe 89b8 25bf
00000190: 3a3c 743e 41c2 36be 8735 fabf cbc8 2f3d
000001a0: 0cc1 7a3f 7a2c e23e b82b 963e 53cb cdbc
000001b0: 7fed 81be 7df5 25bf 5a12 0fbe 7bbb 09be
000001c0: e085 4d3f 0a93 673e a581 4cbe a724 9c3e
000001d0: 206e 94bb 68f8 273e 3344 9bbf 356d 923e
000001e0: d777 853e 5d59 793f c715 b43e 2163 bc3e
000001f0: bd6a 0540 ea2c 4ebe c6a7 873d e902 9dbf
00000200: 448b 6f3e 3ca5 0abd 3866 5dbe 9059 a83f
00000210: 5cf9 433f 31db 153e a3e3 ef3e 7ad6 79be
00000220: 472c 433f bf8a cdbe 6008 62bf 0255 86be
00000230: 7b5e 82bf 768a f6bf 08b0 df3f 5dd7 cfbe
00000240: ef42 e0bc 3c4a fb3e ef53 33bf aa22 223f
00000250: bb7d 9bbe aef8 cebe dbf7 b3bc 577a 073f
00000260: e290 e93f 1758 003e 5559 96bf 9aba d23d
00000270: 946f bd3d 2878 53be 7a4a 043e d52e 523e
00000280: cd95 fe3d 64c0 863e edfd 323f e6d7 be3f
00000290: bd91 38be 3ea9 91bf b600 a23f 8427 713e
000002a0: e06e 39be 1c52 adbe 2791 c33e da3e 8bbd
000002b0: f76f 933c 2715 d2bf 5d1a 95be 23b5 193f
000002c0: 8368 e8bd 3693 a1bf 5313 c63c 3e1e 05be
000002d0: c98b 053e 7948 f2be baa4 13bf f3e9 5dbd
000002e0: 4daf 21bf 506b a43f 50f4 f63f 922d a63e
000002f0: e02e 05be f206 9c3e bd93 86be a70e df3e
00000300: ae38 153f 19c7 88be 6fb4 a63e 8434 f73e
00000310: d906 a7be d1cd 6c3e 148f cbbe 6683 4bbd
00000320: c472 1fbf 1288 c9bd 29e5 703c 7eae d0be
00000330: 1dfb 3fbd 3cb4 983e b64d 103f df3e 453e
00000340: 221d 04c0 77d8 063f cf77 063e 3064 3dbf
00000350: af0f a6be 0db4 013f a93f b63e ceac 13bd
00000360: 5550 55be fbda b1bc a78b 5ebb e581 863f
00000370: dee2 38be 7c9e cbbd 6009 86be 4354 a43e
00000380: a5fa 68bd a91d a43f ce09 a83e d339 dabe
00000390: 2a59 303e cf5b 89be ccea 8dbf b842 003e
000003a0: e89b 9dbe 1805 233f 8aa7 35be 7bf0 3c3e
000003b0: b7f5 763d e587 80be 36f0 333f 0181 bcbe
000003c0: cc7a c0be ac35 9bbe 0402 06bd d5fc 4fbf
000003d0: 3158 623e 0aa5 68bf df55 87be cc82 4c3e
000003e0: c3aa 02be f49f 853d f821 683e 584a 31bd
000003f0: 658d 31be 1f75 f23e 6e9c 89bf 425c 193e

critic.4.weight f4 [1, 256]
3.6711519 -2.5583477 3.7925646 1.8101 -1.8742601 -2.4099452 6.4653554 3.423223
-1.5980111 -3.1649148 -1.1258335 -2.485418 4.0878654 -2.8048675 2.533068 1.7496951
2.7141814 -2.3943484 -2.117308 3.4400597 1.0082449 1.8048302 4.2518363 -2.464636
-2.9852276 3.5781097 -1.8425549 -3.3195074 4.5425634 1.1970154 -2.9866903 3.4349022
3.8991988 -2.0059023 -2.065316 -2.9063253 -2.683679 -3.4743314 -1.3448721 -2.6980655
1.9824977 3.048009 2.9384024 -1.7081962 1.3353008 1.1983758 -1.222689 -3.73744
-1.159091 1.645097 -2.7174187 -3.4332347 3.2402296 -3.1515684 4.04812 -1.3189985
-1.8898857 -1.2738562 -3.3822813 -2.3456962 3.260145 2.3550153 -3.1305685 -1.7641133
1.77408 1.2083709 -3.1785562 -2.7071867 4.349442 1.8677543 2.633886 3.8839784
-3.3472571 3.901156 -1.4792775 2.2464898 2.5098429 3.021907 2.7501087 -2.5365243
4.1840615 1.0917873 -6.347806 2.8054967 -3.0989268 1.6434915 3.6306543 -2.9837961
-2.707569 -3.8034585 3.6670914 -2.3027148 -2.6818643 -2.4566035 3.514504 -2.1778204
3.0841153 -3.841896 1.2856915 1.4138484 1.1195908 -3.5486915 -2.4138908 3.7762842
2.4841506 -2.5812714 -1.6468505 -4.0106907 2.3858101 -2.650197 -3.9529521 1.8961459
2.1124907 1.41263 -3.3395708 3.7031996 2.2915263 2.8228402 -2.9213085 -2.2337604
3.2978 3.6062162 2.5131483 4.287569 3.019313 1.2882781 -4.3220077 -2.36341
3.0002475 -1.5370092 2.2442093 4.941757 -1.5075665 2.8497014 3.0849888 1.927899
3.124709 1.4996108 -3.3532376 -3.7210588 -4.757109 -2.4851336 2.8811858 -3.4638119
-3.3613188 2.2721853 -1.9864974 -1.4921113 -1.059067 1.5105735 -5.287012 2.4665115
2.472388 2.2674358 -2.780986 -1.0656563 1.073673 -1.0753887 1.1152648 1.3566984
-3.179792 2.8999388 2.3309617 2.4247587 1.5050012 -2.841039 5.4366465 -1.1590266
-1.1653203 8.274285 3.6184182 2.382909 2.0892813 -2.628558 2.6614296 3.9720194
2.1044002 -3.0349293 2.991438 1.6587543 -1.2420012 -3.5652099 -9.906502 1.0184512
-2.8883662 2.682362 3.3325355 6.929469 3.4120681 3.5481324 2.0604732 2.2790468
-3.009108 2.7843165 -1.9773254 1.3636361 1.7328608 -1.7564253 2.5184796 -1.3471495
3.268296 1.4320135 -3.4823112 1.7861737 -2.5522134 -2.9807096 3.2472458 -3.6897182
-4.161153 1.1454905 -3.8758328 -2.9052231 -2.9054384 1.0814071 2.987627 -2.3649836
2.109585 3.463534 -1.9332976 2.4443572 2.2543776 4.0930805 1.3459066 7.1534944
2.401347 2.009786 -4.3550687 -3.9133346 2.9601133 -2.2778554 -2.8247068 -4.12629
1.6248351 -2.9205828 2.947465 -2.479893 3.312233 -1.2618992 -2.0097198 -2.7732675
2.6279557 -2.563474 -2.3968205 1.5839143 -1.3460042 1.1199968 1.1393636 3.5431483
-3.1085856 2.6158364 -1.8117603 2.07075 1.9292886 -2.9396489 -3.4667208 -1.0960788
00000000: 27f4 6a40 f8bb 23c0 61b9 7240 5bb1 e73f
00000010: c1e7 efbf 8b3c 1ac0 31e4 ce40 1616 5b40
00000020: a18b ccbf f78d 4ac0 501b 90bf 1711 1fc0
00000030: cbcf 8240 f382 33c0 c91d 2240 02f6 df3f
00000040: 26b5 2d40 013d 19c0 f981 07c0 f029 5c40
00000050: 2b0e 813f ad04 e73f 0b0f 8840 99bc 1dc0
00000060: f80d 3fc0 c0ff 6440 d7d8 ebbf cf72 54c0
00000070: ae5c 9140 cd37 993f ef25 3fc0 70d5 5b40
00000080: 798c 7940 b460 00c0 232e 04c0 3c01 3ac0
00000090: 66c1 2bc0 725b 5ec0 c524 acbf 1bad 2cc0
000000a0: 7cc2 fd3f 9412 4340 c90e 3c40 2ca6 dabf
000000b0: 23eb aa3f 6164 993f 1381 9cbf 3832 6fc0
000000c0: 185d 94bf 8a92 d23f 30ea 2dc0 1eba 5bc0
000000d0: ec5f 4f40 4cb3 49c0 338a 8140 f1d4 a8bf
000000e0: c6e7 f1bf b80d a3bf 4c77 58c0 e31f 16c0
000000f0: 37a6 5040 92b8 1640 3c5b 48c0 77ce e1bf
00000100: 0e15 e33f e6ab 9a3f 776d 4bc0 8c42 2dc0
00000110: a12e 8b40 9312 ef3f 9791 2840 1a93 7840
00000120: 7639 56c0 8aac 7940 f758 bdbf 7dc6 0f40
00000130: 44a1 2040 ed66 4140 c801 3040 6a56 22c0
00000140: d5e3 8540 b0bf 8b3f 3a21 cbc0 428d 3340
00000150: d154 46c0 ee5d d23f a45c 6840 84f6 3ec0
00000160: cf48 2dc0 dd6b 73c0 a0b1 6a40 ae5f 13c0
00000170: aaa3 2bc0 fe38 1dc0 a2ed 6040 6961 0bc0
00000180: 2562 4540 a0e1 75c0 8a91 a43f fcf8 b43f
00000190: c04e 8f3f c31d 63c0 307d 1ac0 a4ae 7140
000001a0: 53fc 1e40 8d33 25c0 ffcb d2bf 9457 80c0
000001b0: 1db1 1840 d49c 29c0 2bfd 7cc0 e9b4 f23f
000001c0: 0c33 0740 0fd1 b43f 87bb 55c0 3901 6d40
000001d0: 5ea8 1240 6aa9 3440 b8f6 3ac0 eef5 0ec0
000001e0: 280f 5340 3fcc 6640 6cd7 2040 c433 8940
000001f0: 6d3c 4140 4ce6 a43f e34d 8ac0 1c42 17c0
00000200: 0e04 4040 b8bc c4bf 20a1 0f40 e022 9e40
00000210: f0f7 c0bf 8261 3640 7570 4540 65c5 f63f
00000220: 3bfb 4740 3ff3 bf3f 729b 56c0 d425 6ec0
00000230: 3d3a 98c0 6e0c 1fc0 5965 3840 18af 5dc0
00000240: d91f 57c0 7c6b 1140 8c45 febf 81fd bebf
00000250: 828f 87bf 795a c13f 342f a9c0 53db 1d40
00000260: 9b3b 1e40 ab1d 1140 adfb 31c0 6d67 88bf
00000270: 1e6e 893f 56a6 89bf ffc0 8e3f 4ba8 ad3f
00000280: b681 4bc0 9998 3940 7a2e 1540 3f2f 1b40
00000290: e1a3 c03f 95d3 35c0 02f9 ad40 fc5a 94bf
000002a0: 3729 95bf 7963 0441 2a94 6740 9581 1840
000002b0: c9b6 0540 4b3a 28c0 dd54 2a40 9135 7e40
000002c0: 7eae 0640 483c 42c0 b873 3f40 1052 d43f
000002d0: e5f9 9ebf 662c 64c0 0881 1ec1 9c5c 823f
000002e0: feda 38c0 d2ab 2b40 4348 5540 36be dd40
000002f0: 535f 5a40 9a14 6340 cbde 0340 e7db 1140
00000300: 3a95 40c0 3e32 3240 0019 fdbf a18b ae3f
00000310: 62ce dd3f 8bd2 e0bf c52e 2140 656f acbf
00000320: c32b 5140 384c b73f 30de 5ec0 57a1 e43f
00000330: 7757 23c0 f2c3 3ec0 e0d2 4f40 5824 6cc0
00000340: 2a28 85c0 6f9f 923f a50d 78c0 2def 39c0
00000350: b4f2 39c0 8c6b 8a3f 4835 3f40 e45b 17c0
00000360: 7103 0740 8baa 5d40 4c76 f7bf 5970 1c40
00000370: b947 1040 84fa 8240 ab46 ac3f 6de9 e440
00000380: abaf 1940 55a0 0040 b95c 8bc0 1374 7ac0
00000390: 7f72 3d40 62c8 11c0 ffc7 34c0 910a 84c0
000003a0: 99fa cf3f d4ea 3ac0 44a3 3c40 91b6 1ec0
000003b0: a0fb 5340 ea85 a1bf 409f 00c0 377d 31c0
000003c0: 6d30 2840 f50f 24c0 8265 19c0 b4bd ca3f
000003d0: de49 acbf 0e5c 8f3f abd6 913f f1c2 6240
000003e0: 11f3 46c0 dd69 2740 c3e7 e7bf 2b87 0440
000003f0: eef2 f63f 3523 3cc0 c1de 5dc0 4f4c 8cbf

actor_mean.0.weight f4 [256, 13]
0.17385302 -0.34836835 -0.20427398 0.4666433 0.34460118 0.36817616 0.1844364 -0.13038382
-0.2789229 0.04334087 0.08437073 0.13063708 0.13927588 -0.17142384 -0.059185624 0.031547204
0.16357857 -0.06938899 -0.032854024 -0.05271925 -0.10318938 -0.23389146 -0.15894665 -0.15240327
-0.016805883 -0.13040727 -0.35099992 0.09683713 -0.25632194 -0.34966952 -0.1952535 -0.61607265
0.041556977 -0.10821207 -0.0126008 -0.37053254 -0.1777578 -0.09227127 0.1165129 -0.15456694
-0.050793573 -0.06954056 0.15131162 -0.38937852 -0.29400545 0.22276585 -0.16290696 -0.16371785
0.013551964 -0.018636966 0.1437593 -0.11378346 -0.2832363 0.32273006 0.07449878 -0.6698235
-0.37344244 -0.12149208 0.06811648 -0.096067905 0.18087167 -0.425523 -0.16542388 -0.11805006
0.018700324 -0.08348209 0.089758106 -0.13958414 -0.06142096 -0.05755987 -0.17315058 0.03507021
-0.16369158 -0.14705175 -0.23391342 -0.21765302 0.07667306 -0.15199171 0.17985858 0.0050792852
0.05636093 0.14565212 0.11711476 0.05946835 -0.051176958 0.117848 0.16408369 0.13218564
-0.031608652 -0.14530455 -0.097553484 0.25560597 0.047505274 0.13780463 -0.0069487737 0.32500693
-0.1267454 -0.059286367 0.07631081 0.13585144 0.31464896 -0.030023199 -0.06757296 0.06887201
-0.0868119 -0.0510448 -0.06457679 -0.0657198 -0.0473417 0.17257406 -0.042719617 -0.18929125
-0.1527282 -0.004312817 -0.27647907 0.15587017 -0.0970752 0.33327958 -0.20041783 -0.2547392
0.1933455 0.57063264 0.8405065 -0.035220843 0.13953952 -0.3320229 0.19354439 0.18603174
0.079650015 0.20173141 0.07158305 0.050005328 -0.045126963 -0.17213663 -0.11460959 0.0068778275
-0.13051775 0.2743295 0.097370304 0.08561792 0.028999746 -0.114813045 0.035814144 0.0603302
-0.035922136 -0.013106568 0.07190883 0.198933 -0.3394286 0.050810143 -0.025201796 -0.20938626
0.030777695 0.08473272 0.34395936 -0.2362363 -0.17454523 -0.10511187 0.11730428 0.09291351
-0.26969677 0.21180764 -0.042907897 -0.26177108 -0.13418661 -0.113671 -0.14025748 0.16986175
-0.11016182 -0.083259664 -0.24080582 0.019543706 0.5091355 -0.19533424 0.20944598 -0.049067184
-0.12005607 -0.4183514 0.4099042 0.12833615 0.18947095 0.04095748 -0.16529639 0.029710606
0.039634813 0.033189006 -0.0908519 0.20721959 -0.06050442 -0.15684539 -0.23966114 -0.10062326
-0.16035421 0.06321349 -0.08278181 -0.22502156 0.21937172 0.107106425 -0.59561056 -0.43461093
0.21779034 -0.062848836 0.026570654 0.20656665 -0.014095835 -0.09299541 -0.089044675 -0.15995002
0.2222022 -0.19474971 -0.16321771 0.6427434 0.28190422 0.93945813 0.10713463 -0.075370334
-0.28668112 -0.050863072 0.20913836 0.22467537 0.066651486 0.34788412 -0.07294436 -0.22538468
-0.05767837 0.2154643 -0.22157098 0.07798983 0.06955231 0.20839027 -0.029688925 0.18264957
-0.1085453 0.18779755 0.0075650294 -0.09490758 -0.15528332 0.09893485 -0.1883289 0.040194318
0.013683695 -0.18150292 -0.30186245 0.00754983 -0.21789415 0.11362901 0.28526524 0.117735386
0.24167916 -0.12791458 -0.90590644 0.6383483 -0.3317452 -0.10136536 0.14752287 0.46140784
00000000: 8706 323e 565d b2be 332d 51be dfeb ee3e
00000010: 916f b03e 9681 bc3e e5dc 3c3e 5683 05be
00000020: fbce 8ebe 3286 313d 90ca ac3d bac5 053e
00000030: 569e 0e3e bb89 2fbe a06c 72bd a437 013d
00000040: 2481 273e d11b 8ebd f191 06bd 24f0 57bd
00000050: f454 d3bd 3e81 6fbe e9c2 22be 9a0f 1cbe
00000060: 7eac 89bc 7c89 05be 43b6 b3be 8c52 c63d
00000070: a13c 83be e207 b3be 89f0 47be f0b6 1dbf
00000080: a637 2a3d 4a9e ddbd 9673 4ebc 71b6 bdbe
00000090: 2406 36be b8f8 bcbd 519e ee3d cc46 1ebe
000000a0: ec0c 50bd 486b 8ebd 6ff1 1a3e 9f5c c7be
000000b0: e287 96be bb1c 643e 15d1 26be a7a5 27be
000000c0: 0f09 5e3c 8dac 98bc a335 133e 4d07 e9bd
000000d0: 5904 91be e03c a53e d192 983d 8e79 2bbf
000000e0: d933 bfbe d7d0 f8bd a780 8b3d 40bf c4bd
000000f0: 6c36 393e 27de d9be e164 29be 3bc4 f1bd
00000100: 6c31 993c a8f8 aabd 19d3 b73d 25ef 0ebe
00000110: 8b94 7bbd e6c3 6bbd 634e 31be c8a5 0f3d
00000120: c49e 27be bc94 16be 0087 6fbe 6fe0 5ebe
00000130: c406 9d3d b7a3 1bbe d92c 383e 2270 a63b
00000140: b8da 663d d425 153e ddd9 ef3d 1695 733d
00000150: ee9e 51bd 4b5a f13d 8e05 283e ac5b 073e
00000160: 1378 01bd b7ca 14be 1fca c7bd c9de 823e
00000170: e494 423d a81c 0d3e 8ab2 e3bb 4f67 a63e
00000180: 8cc9 01be 43d6 72bd d848 9c3d a41c 0b3e
00000190: ab19 a13e 36f3 f5bc b163 8abd c50c 8d3d
000001a0: 70ca b1bd 5a14 51bd d640 84bd 1a98 86bd
000001b0: 5fe9 41bd 41b7 303e c4fa 2ebd 91d5 41be
000001c0: c864 1cbe 8852 8dbb aa8e 8dbe 6e9c 1f3e
000001d0: 5dcf c6bd 9fa3 aa3e 553a 4dbe 2d6d 82be
000001e0: 5dfc 453e fb14 123f 6f2b 573f bb43 10bd
000001f0: 73e3 0e3e e8fe a9be 8030 463e 1b7f 3e3e
00000200: 8c1f a33d ae92 4e3e 229a 923d 63d2 4c3d
00000210: 0dd7 38bd 9644 30be 6fb8 eabd 665f e13b
00000220: 72a6 05be eb74 8c3e 156a c73d 7358 af3d
00000230: e090 ed3c 1a23 ebbd dab1 123d cd1c 773d
00000240: 1723 13bd eebc 56bc f044 933d 18b5 4b3e
00000250: 96c9 adbe 4c1e 503d ff73 cebc 5a69 56be
00000260: 8121 fc3c 5988 ad3d 711b b03e eee7 71be
00000270: fcbb 32be e444 d7bd 3a3d f03d 7049 be3d
00000280: b215 8abe 1ae4 583e 31c0 2fbd dc06 86be
00000290: 3768 09be 57cc e8bd a89f 0fbe 3df0 2d3e
000002a0: 859c e1bd 0b84 aabd cd95 76be 1f1a a03c
000002b0: b456 023f b305 48be 0279 563e acfa 48bd
000002c0: f5df f5bd 2832 d6be f7de d13e 8d6a 033e
000002d0: ac04 423e 08c3 273d 7543 29be a863 f33c
000002e0: 1d58 223d 32f1 073d 9010 babd 5f31 543e
000002f0: 7cd3 77bd 149c 20be bb69 75be 9113 cebd
00000300: e533 24be 1376 813d 8289 a9bd 0d6c 66be
00000310: fba2 603e 9d5a db3d ef79 18bf 5385 debe
00000320: 6e04 5f3e e4b6 80bd b3aa d93c 3586 533e
00000330: 38f2 66bc 6174 bebd 0e5d b6bd f0c9 23be
00000340: f988 633e 786c 47be 8b22 27be d58a 243f
00000350: c055 903e 5480 703f 6769 db3d c35b 9abd
00000360: dec7 92be cc55 50bd 5e28 563e 4d11 663e
00000370: 9380 883d de1d b23e da63 95bd 3ecb 66be
00000380: 2840 6cbd aca2 5c3e 81e3 62be 22b9 9f3d
00000390: 7171 8e3d 4264 553e 3036 f3bc 7d08 3b3e
000003a0: 004d debd 004e 403e 11e4 f73b e85e c2bd
000003b0: 9702 1fbe 5b9e ca3d 4bd9 40be cca2 243d
000003c0: 9431 603c e7db 39be b78d 9abe 9064 f73b
000003d0: a51f 5fbe 54b6 e83d 490e 923e 401f f13d
000003e0: be7a 773e 0afc 02be 7ce9 67bf cb6a 233f
000003f0: 82da a9be a498 cfbd 3c10 173e a63d ec3e

actor_mean.0.bias f4 [256]
0.20707439 -0.007976414 0.07419819 0.15221314 -0.103763714 0.079215385 -0.15586554 -0.09840602
0.07197112 -0.006780634 -0.27067563 0.0024773981 0.05112796 -0.021820609 0.07577508 -0.08861345
0.083215065 0.14472978 0.0641762 -0.032011952 0.10574986 -0.004744686 -0.13450606 0.0073752236
0.18505065 0.04398549 -0.1257143 -0.05294293 -0.16278565 -0.018159963 0.07225834 0.101147786
-0.05321974 0.02483882 0.18034923 0.047777783 -0.13859141 0.017173955 -0.2484624 0.060779005
-0.12749147 -0.119250394 0.21727824 -0.089696765 -0.024027154 0.03341433 -0.042008176 -0.021091888
0.1571562 0.24635461 -0.0736089 -0.01691275 -0.2536653 0.11538517 0.024823863 -0.0227464
-0.18579157 -0.06802572 -0.0031874469 -0.03983715 0.0041143936 -0.18575133 -0.05244075 0.22755866
0.10290511 0.124993324 -0.051082414 -0.110914394 0.078922264 -0.046603907 0.0041005174 -0.14326023
-0.068293564 0.006772201 -0.06494843 -0.016435094 -0.07876169 0.13467914 -0.004135266 0.054515008
-0.05916627 0.0811295 0.08269419 -0.056243103 -0.25228474 -0.12954736 0.2067551 -0.009530065
0.21358737 0.016943634 -0.040677957 -0.20227908 0.08123015 -0.035993826 0.04994879 -0.05567926
-0.15291981 0.09633088 -0.08459542 0.04028196 -0.2870139 0.07482136 0.080005035 0.07793053
0.025827115 -0.14841597 -0.15392384 0.029756328 0.11501034 -0.19759311 -0.07205435 -0.060288724
0.14552563 -0.07172867 -0.22313584 0.08617318 -0.011093459 0.102644764 -0.025818557 -0.008867787
0.17651866 -0.03586084 0.04035255 0.0637067 0.028872523 -0.00019362483 -0.088703714 -0.099557646
0.0062349592 0.12518181 0.034909442 -0.21797778 -0.19956373 -0.0084314775 0.028172674 0.0015085307
0.072182186 0.08147689 0.011988961 -0.11959371 -0.08488599 0.06546676 -0.053429507 -0.32178774
0.13539122 -0.35954875 0.1450065 0.03601646 -0.15352497 0.044459425 0.007882446 0.19366115
-0.13356753 -0.052685816 -0.37569347 -0.3176209 0.032461695 0.06405655 -0.21873303 0.084138
-0.07434457 0.115373135 0.08376584 0.0028988156 0.065674834 0.12697022 -0.09542918 -0.2609152
0.17372434 0.08278505 0.21217084 0.041470274 -0.018091472 0.08850983 0.09678962 -0.20012501
0.09176925 0.055220623 -0.03439554 0.04130453 0.06049151 0.048986603 -0.1893486 0.030023526
-0.10847228 0.08593958 -0.18481973 -0.14049162 0.08255082 0.008102075 0.11940059 -0.042457268
0.11937769 -0.11297818 0.08316907 0.08914649 -0.0119314715 -0.16475314 -0.014070556 -0.09309822
0.17395918 0.0681658 0.006188882 -0.029500939 -0.020128833 0.12134287 0.11892618 -0.10546165
-0.13157023 -0.16431752 -0.1771489 -0.05786507 0.05388871 -0.22741565 0.054636586 -0.012189514
0.079986766 0.110860944 0.008089344 -0.05192653 -0.08169523 -0.21385363 0.1467287 -0.073150985
-0.26155147 -0.06871322 0.13803695 -0.09128513 0.015911022 0.1710144 0.13496105 -0.2128205
0.101718046 -0.0148858605 -0.042348135 0.0687276 0.19033398 0.07782548 -0.21743798 0.002204846
0.032478888 0.01790625 -0.022917243 0.0075473427 -0.0942185 -0.018447801 -0.076217875 0.09121198
0.13553475 -0.25822186 -0.09507979 0.11276611 -0.0736628 0.032417856 -0.15096556 -0.079779096
00000000: 4f0b 543e 81af 02bc 38f5 973d c3dd 1b3e
00000010: 1282 d4bd ad3b a23d 379b 1fbe 1889 c9bd
00000020: 9865 933d 1530 debb ff95 8abe d85b 223b
00000030: 8d6b 513d 22c1 b2bc f72f 9b3d f87a b5bd
00000040: a96c aa3d 0b34 143e d06e 833d f71e 03bd
00000050: 6293 d83d 5079 9bbb f5bb 09be dcab f13b
00000060: eb7d 3d3e 212a 343d 40bb 00be b0da 58bd
00000070: 48b1 26be 34c4 94bc 2efc 933d 9226 cf3d
00000080: f1fc 59bd c87a cb3c 78ad 383e a3b2 433d
00000090: e8ea 0dbe 65b0 8c3c ed6c 7ebe 68f3 783d
000000a0: 208d 02be 8d39 f4bd 307e 5e3e f0b2 b7bd
000000b0: 98d4 c4bc 77dd 083d c410 2cbd e5c8 acbc
000000c0: 8eed 203e 6244 7c3e 43c0 96bd 9c8c 8abc
000000d0: 6be0 81be 0f4f ec3d 6a5b cb3c a956 babc
000000e0: 2540 3ebe 1251 8bbd 7ce4 50bb 482c 23bd
000000f0: 09d2 863b 9935 3ebe 1dcc 56bd 2305 693e
00000100: eabf d23d 80fc ff3d cb3b 51bd 1627 e3bd
00000110: ffa1 a13d bde3 3ebd a25d 863b cfb2 12be
00000120: 7fdd 8bbd 57e9 dd3b af03 85bd e4a2 86bc
00000130: cf4d a1bd 54e9 093e 2081 87bb 214b 5f3d
00000140: 5558 72bd 3927 a63d 925b a93d 2b5f 66bd
00000150: 772b 81be 10a8 04be 9cb7 533e fd23 1cbc
00000160: a6b6 5a3e 60cd 8a3c ee9d 26bd 3f22 4fbe
00000170: fe5b a63d 436e 13bd 1a97 4c3d f00f 64bd
00000180: 0397 1cbe 2049 c53d 5d40 adbd b2fe 243d
00000190: 7cf3 92be f13b 993d aed9 a33d 0b9a 9f3d
000001a0: 6393 d33c 5bfa 17be 369e 1dbe 8bc3 f33c
000001b0: 8b8a eb3d d955 4abe 3b91 93bd 4ff1 76bd
000001c0: ac04 153e 7be6 92bd b97d 64be 907b b03d
000001d0: 57c1 35bc 6b37 d23d 7081 d3bc 324a 11bc
000001e0: 4fc1 343e d1e2 12bd b748 253d a978 823d
000001f0: 1286 ec3c c507 4bb9 4baa b5bd e1e4 cbbd
00000200: a14e cc3b a92f 003e 34fd 0e3d 9135 5fbe
00000210: 6f5a 4cbe 2e24 0abc 61ca e63c e4b9 c53a
00000220: 41d4 933d 5bdd a63d 596d 443c 8ced f4bd
00000230: b5d8 adbd 7013 863d e6d8 5abd 5dc1 a4be
00000240: ffa3 0a3e c616 b8be 957c 143e ff85 133d
00000250: a635 1dbe 161b 363d 6025 013c 1c4f 463e
00000260: edc5 08be 15cd 57bd e55a c0be 359f a2be
00000270: 8ef6 043d 1530 833d 8dfb 5fbe 8b50 ac3d
00000280: f741 98bd c048 ec3d 6d8d ab3d 0efa 3d3b
00000290: 8780 863d 7b04 023e 6070 c3bd ad96 85be
000002a0: cbe4 313e 358b a93d 5043 593e bcdc 293d
000002b0: 9134 94bc a444 b53d a339 c63d 92ed 4cbe
000002c0: 84f1 bb3d 052f 623d 56e2 0cbd f02e 293d
000002d0: f2c5 773d 2da6 483d 99e4 41be e6f3 f53c
000002e0: b726 debd 1701 b03d 6241 3dbe 09dd 0fbe
000002f0: 6810 a93d 91be 043c 4c88 f43d ace7 2dbd
00000300: 4a7c f43d 1b61 e7bd 8c54 aa3d 6f92 b63d
00000310: 387c 43bc 0cb5 28be 3088 66bc 48aa bebd
00000320: 5b22 323e 839a 8b3d 1bcc ca3b f4ab f1bc
00000330: 39e5 a4bc 9c82 f83d 928f f33d 47fc d7bd
00000340: 59ba 06be da42 28be 8566 35be ec03 6dbd
00000350: 68ba 5c3d a6df 68be 9dca 5f3d 87b6 47bc
00000360: 1ad0 a33d 100b e33d 2b89 043c eab0 54bd
00000370: d44f a7bd 72fc 5abe 0c40 163e 2fd0 95bd
00000380: 13ea 85be 84b9 8cbd 8f59 0d3e b3f3 babd
00000390: d557 823c 661e 2f3e 3b33 0a3e 9eed 59be
000003a0: 8d51 d03d d3e3 73bc 3d75 2dbd 0ec1 8c3d
000003b0: e9e6 423e f762 9f3d 10a8 5ebe 2d7f 103b
000003c0: 9508 053d 21b0 923c f1bc bbbc b34f f73b
000003d0: a1f5 c0bd d81f 97bc 1e18 9cbd 59cd ba3d
000003e0: 9fc9 0a3e a835 84be 31b9 c2bd ebf1 e63d
000003f0: 86dc 96bd 96c8 043d b796 1abe 3963 a3bd

actor_mean.2.weight f4 [256, 256]
-0.13316707 -0.06339093 -0.10317924 -0.15538757 0.13843663 -0.08694588 0.12792839 0.1875728
0.041449536 -0.16290502 0.12167798 0.331255 0.12603085 0.011007112 -0.023933515 -0.017059833
-0.2614486 0.04261326 0.02639329 0.1423318 0.020467276 -0.058848012 0.13143742 -0.024200851
-0.18202722 -0.052403074 0.3537018 0.08487995 0.0551266 0.18115588 0.04022605 -0.200688
-0.039624475 -0.052090038 0.2457248 0.062650576 0.08407398 -0.08953316 -0.06890556 0.15930016
0.17041603 -0.0014486517 -0.13431208 -0.08788997 -0.059492495 0.06502607 0.08704979 0.19820388
-0.26393276 -0.0039755013 0.1742732 -0.051360138 0.09082685 0.0036803023 -0.12486466 0.074388534
0.10344125 -0.0022306736 0.10026306 0.059956282 -0.043598294 0.22675845 -0.07456186 0.08783278
0.03437679 0.18234858 0.043913532 0.2517219 0.11659153 -0.08765294 -0.27363315 0.14457355
0.026552476 0.12232268 -0.048209272 -0.00571983 -0.04514135 0.10834428 0.023559162 -0.0036626763
0.14546417 -0.0028594183 -0.25072724 0.057349768 -0.12662958 -0.048468906 -0.11204161 0.021579005
-0.22151436 0.047260907 0.23065865 -0.044778597 0.015592006 -0.19872291 0.042634748 0.020913552
0.17533068 -0.042231705 -0.09916924 -0.15401797 0.0745957 -0.20630938 0.049538232 -0.15833071
-0.12223442 0.084765404 0.076242894 0.101011045 -0.093306966 0.2620914 -0.07325977 -0.1626
-0.04917722 0.23964506 0.11142466 -0.038233045 0.10642339 -0.1020833 -0.09594261 -0.079195164
-0.046104982 0.022591598 0.031631798 -0.063345015 -0.15016285 -0.019020833 -0.12283997 0.07485272
0.23394692 -0.07508762 -0.06546136 0.12906237 0.07436729 0.066902235 -0.3573999 -0.14117602
-0.0886751 -0.116310894 0.038275614 -0.0142984055 0.17333078 0.008588729 -0.074064165 0.25862953
-0.13319474 0.073171 -0.04960451 -0.08167903 0.11660972 -0.18364398 -0.11884205 -0.1113879
0.0646795 0.0455254 -0.06262605 0.023345066 0.11274218 0.060409747 0.08372822 -0.096780494
0.24493887 -0.036740895 -0.12006622 -0.04986987 -0.1275747 -0.19838785 -0.0770951 0.15278879
0.024477983 0.026314257 -0.10977272 0.028983923 -0.014975105 0.07971849 -0.16064951 0.18540618
-0.10634034 -0.020928714 0.016809866 0.050065063 0.08645733 0.18327779 0.05795267 -0.06790164
-0.1317976 0.02009121 0.21578495 0.09363884 -0.09505528 -0.024481747 0.08455364 0.027645139
-0.16494097 0.014673685 -0.06771658 -0.17520292 0.06972848 0.06001176 0.04823005 0.16988184
-0.0062944274 0.06758003 0.050210144 0.06446235 -0.18558583 0.1772954 0.0046368972 0.062196244
0.06535471 -0.06676907 0.33276883 -0.0058152974 -0.009546327 0.109122775 0.15328524 0.09498542
0.0395194 -0.055206623 0.06429558 0.024395864 0.025922293 0.0060886466 -0.32430643 -0.04054412
0.17615388 0.08600174 0.0569744 0.16754144 0.1499825 -0.06739924 0.06393408 0.16498978
0.11218686 0.04918304 0.056908675 -0.11607441 -0.09637418 0.12389068 0.047532707 -0.06619461
-0.011298957 0.052581437 0.049887966 0.0077128806 -0.0072953315 9.348708e-05 -0.0070311036 -0.18388304
-0.23551473 0.17282435 0.02838008 -0.09693191 -0.15067019 0.056754738 0.028373307 0.07659737
00000000: f35c 08be 1bd3 81bd a34f d3bd eb1d 1fbe
00000010: 55c2 0d3e ae10 b2bd a9ff 023e 1613 403e
00000020: fdc6 293d 93d0 26be 4e32 f93d 419a a93e
00000030: 3b0e 013e 2d57 343c 3810 c4bc 10c1 8bbc
00000040: 97dc 85be 3e8b 2e3d be36 d83c 6dbf 113e
00000050: fdaa a73c 9d0a 71bd 8897 063e dd40 c6bc
00000060: 5865 3abe 9ba4 56bd 6718 b53e 8ad5 ad3d
00000070: 6ecc 613d ed80 393e 12c4 243d 2881 4dbe
00000080: 464d 22bd 5d5c 55bd 489f 7b3e f24e 803d
00000090: fb2e ac3d 295d b7bd 5c1e 8dbd 951f 233e
000000a0: 8a81 2e3e afe0 bdba 1b89 09be a8ff b3bd
000000b0: 67ae 73bd 632c 853d 2947 b23d f5f5 4a3e
000000c0: 3222 87be ec44 82bb ac74 323e 025f 52bd
000000d0: 6d03 ba3d 3a31 713b 0bb9 ffbd 0459 983d
000000e0: 02d9 d33d 7e30 12bb b856 cd3d b894 753d
000000f0: 2094 32bd 5e33 683e e3b3 98bd ace1 b33d
00000100: adce 0c3d 96b9 3a3e adde 333d b1e1 803e
00000110: 8ac7 ee3d 6283 b3bd a519 8cbe 170b 143e
00000120: 9484 d93c 5084 fa3d 1677 45bd 696d bbbb
00000130: 23e6 38bd 9be3 dd3d 25ff c03c 8309 70bb
00000140: 8ff4 143e 1465 3bbb 525f 80be 97e7 6a3d
00000150: 2fab 01be 5587 46bd 1276 e5bd 74c6 b03c
00000160: a9d4 62be a794 413d c831 6c3e c369 37bd
00000170: 9d75 7f3c 057e 4bbe c6a1 2e3d e652 ab3c
00000180: e389 333e 27fb 2cbd 3e19 cbbd e3b6 1dbe
00000190: a1c5 983d c442 53be 9ae8 4a3d 7221 22be
000001a0: 0a56 fabd 7c99 ad3d 3c25 9c3d e1de ce3d
000001b0: b917 bfbd d830 863e 3809 96bd 9d80 26be
000001c0: 0d6e 49bd 8465 753e 9d32 e43d 419a 1cbd
000001d0: 82f4 d93d 0d11 d1bd 8f7d c4bd 1331 a2bd
000001e0: 94d8 3cbd 0412 b93c 5890 013d 08bb 81bd
000001f0: 4ac4 19be 94d1 9bbc 8693 fbbd 624c 993d
00000200: c88f 6f3e 8ac7 99bd 9b10 86bd ed28 043e
00000210: e14d 983d 0a04 893d 1ffd b6be 7290 10be
00000220: 4a9b b5bd 6834 eebd e4c6 1c3d dc43 6abc
00000230: a07d 313e beb7 0c3c f4ae 97bd 176b 843e
00000240: 3464 08be adda 953d 192e 4bbd 5647 a7bd
00000250: 14d1 ee3d 2b0d 3cbe 7663 f3bd 571f e4bd
00000260: b076 843d d878 3a3d 1642 80bd 273e bf3c
00000270: 5fe5 e63d 3670 773d b379 ab3d da34 c6bd
00000280: 41d1 7a3e 9f7d 16bd 47e5 f5bd 5944 4cbd
00000290: f1a2 02be 2f26 4bbe 09e4 9dbd aa74 1c3e
000002a0: 0d86 c83c ff90 d73c 85d0 e0bd b16f ed3c
000002b0: 255a 75bc 7343 a33d 4e81 24be 1edb 3d3e
000002c0: f7c8 d9bd b272 abbc d8b4 893c 0611 4d3d
000002d0: 8a10 b13d 2cad 3b3e c75f 6d3d 0410 8bbd
000002e0: f3f5 06be 5296 a43c bbf6 5c3e b8c5 bf3d
000002f0: 58ac c2bd f28d c8bc 752a ad3d 0f78 e23c
00000300: 49e6 28be e569 703c feae 8abd 6568 33be
00000310: cecd 8e3d e4ce 753d df8c 453d 81f5 2d3e
00000320: 7c41 cebb 6667 8a3d 27a9 4d3d d604 843d
00000330: 360a 3ebe ed8c 353e 1df1 973b 7dc1 7e3d
00000340: b1d8 853d 39be 88bd ad60 aa3e 408e bebb
00000350: 3368 1cbc c37b df3d cef6 1c3e b787 c23d
00000360: 18df 213d 5720 62bd 67ad 833d d6d9 c73c
00000370: fd5a d43c 4583 c73b 7e0b a6be 9711 26bd
00000380: af61 343e ae21 b03d fd5d 693d fc8f 2b3e
00000390: 0395 193e 9d08 8abd dfef 823d 15f3 283e
000003a0: 39c2 e53d 2874 493d 1219 693d 6cb8 edbd
000003b0: d35f c5bd 66ba fd3d a8b1 423d 0a91 87bd
000003c0: 431f 39bc a25f 573d 5357 4c3d 55bc fc3b
000003d0: ad0d efbb 7e0e c438 2c65 e6bb d64b 3cbe
000003e0: c62a 71be def8 303e 577d e83c 3d84 c6bd
000003f0: 4949 1abe a877 683d 236f e83c 15df 9c3d
