mete_aerial_gym_simulator/rl_training/cleanrl/runs/quad__ppo_continuous_action__1__1688998303/latest_model.pth (torch, 564158 bytes, 12 tensors)

actor_logstd f4 [1, 4]
00000000: d92c f6be 47ec d4be d1da b2be 8f0f 87be
-0.4808109 -0.41586515 -0.3493257 -0.26379058

critic.0.weight f4 [256, 13]
00000000: f34d c63d 05b5 0cbe 8fa5 39be 0fb1 033f
00000010: 357d 17bf 4df1 4ebe 9381 4dbe 9f5e 97bd
00000020: 4de0 6e3d f74a 81bc b9c7 acbd 9eea dbbd
00000030: d75e c73d b2ef 863a 3012 113e 7b71 a53e
00000040: 19d4 44be e515 073f 323f 373f 2ed4 ad3d
00000050: 1076 bc3d 5927 203b 3a48 9bbc e58f ddbd
00000060: 86ad 923d fdf8 413d 41a7 59bc 9864 36bd
00000070: 31af 10bc c4a9 913f 8dac ba3e a772 bdbe
00000080: 26bc 8e3d 9b68 0e3d fa05 0abe 3dd2 9f3c
00000090: 5fc0 e13c 7770 093d 6890 1dbd 9195 103b
000000a0: fe3a 99bc b483 773d 9318 6dbf b9ab 55bd
000000b0: c725 10bf a8fa 89be 4b13 7bbc be5c 083d
000000c0: 47e4 123d 3d34 31bd b839 15bc b4e0 98bd
000000d0: 69c1 483b 20b0 553e 610e 04b9 c3dc a2bf
000000e0: f98d a1bd f82f ce3d dec1 f7bd 96d1 98bd
000000f0: 4148 233c 6b04 f13d 5a77 1fbd 1f2c 52bd
00000100: f913 1639 5fe4 533d 90bf f93e c657 b9bc
00000110: d02a 833d 5066 283f 58ae a63e a7ac 8fbe
00000120: 9fb4 b43d 0bb2 d33c 96a9 433d c386 f13c
00000130: 06f2 d33d b1be 8abd e882 a23d 77b7 4fbe
00000140: 2787 793d 277a f83e 68de c53e c734 f0be
00000150: 722c c2bd e4ba 203d 69a4 1f3c 3dfb 2c3e
00000160: b32a 94bd 7efd 093c f9f8 01bc 0c05 673e
00000170: 1d11 88bd 95b7 7b3a 2c07 1dbe 2304 473d
00000180: 9a0c 36bf c602 75be 1760 873d c5eb d03d
00000190: 7945 183d 10ab b83b 8c8d 7dbc dcb4 b53d
000001a0: 1b71 54be baf3 9b3e 46d5 99bd fbf8 cf3e
000001b0: 4178 c83d 89b6 1e3f 345f 23be 4b51 d83c
000001c0: 985d bebb 5a87 0f3e 1c37 d53d e334 9b3c
000001d0: bc1e 3b3e 6dfe 13be c143 5cbd 0f5b fd3d
000001e0: 0642 44bb 907d 09bf f9c1 583c 4409 48be
000001f0: 2683 02be 5215 bf3c 96a3 bb3c 3da6 a2bc
00000200: adef 083d 78f5 1e3d ce9d bebe dae6 1ebd
00000210: 7151 2bbe 1ea3 2a3d ef8c 36ba d688 113f
00000220: 8634 8b3e 22de 043d e4e5 47bc ad1c 0c3d
00000230: 6ec6 82bc 7786 d53d e09b dd3d 1d4d 7fbe
00000240: 37b7 d3be e51a 833e 9630 143f 5e7b 2bbf
00000250: 27db d13e ed68 0e3e 480d 08bd 6adc c1bd
00000260: ea2e adbc 0523 a4bd ae15 7fbd af0e b6bd
00000270: dc82 02be 8e0f 953e c033 2b3e 46c0 163f
00000280: 8b95 94be ad28 803e 0f49 8cbd 1099 d1bc
00000290: b58f 753e f9f8 893d 69a8 6fbd d115 2fbb
000002a0: 8658 d1bb 5f7b a13e 3f2d 2f3e ecf2 1c3e
000002b0: fd78 a5bf 3de2 d63e e421 123f 5009 e13b
000002c0: 0517 6d3d 22f3 f73b 3198 843d 9b5e 1abe
000002d0: b255 0c3d 3211 72bc 1fee 8fb9 2218 193e
000002e0: 48a3 80ba 5b9f d5be cdda aebe 3247 32be
000002f0: bd45 2abe 9967 cc3c 58b4 5e3e 2586 9b3c
00000300: 0b4d a3bd ffeb 773c f94b 48bc ca69 193c
00000310: 04e1 983e 29ab bfbd 45f8 42bf acdb 213f
00000320: b4e6 6dbd c5ca 04be 32b8 a53c 3bfa 2f3e
00000330: 0f48 e73c 53d2 b83d bd70 f63c c816 4ebd
00000340: fc0e 23be a3fc d8bb 040f 063e cc59 52bf
00000350: e83e 89be 438a c43e c5ce fcbd 4095 50bd
00000360: 7b2d 593c 75d8 583c be0e 7fbd b980 6dbc
00000370: f3f0 ec3c 2623 a73d bf01 243e 7e17 0b3e
00000380: fcfc 98be 98a3 6e3e b4f3 aabe bb8c adbe
00000390: dfa2 5c3c 25d6 293d 292c de3c 76a7 103c
000003a0: 50c9 01bd dc27 733e e237 dd3d c863 d0be
000003b0: ea45 92bd 6aba b13f 2ac9 f73d ff1e c3be
000003c0: 54f3 813d 5def e13c 75c2 19be d670 183d
000003d0: 0331 423d a6fc 743d 3100 39bd 38d5 b73d
000003e0: 9599 cfbe 1810 493e aedd 753f 2b3f bc3e
000003f0: 5d40 49bf 3133 003d e84a adbc 6d5b 8dbd
0.096828364 -0.13740928 -0.18129562 0.51442045 -0.59175426 -0.20209236 -0.2006896 -0.073910944
0.05831938 -0.015782816 -0.084365316 -0.10738109 0.09734886 0.0010294823 0.14167094 0.3231314
-0.19221534 0.52767783 0.71580803 0.08487736 0.09202206 0.0024437516 -0.018955339 -0.10818461
0.07162003 0.047356594 -0.013284505 -0.044529527 -0.008830831 1.1379933 0.3645977 -0.37001535
0.0696948 0.03476773 -0.13478842 0.01950943 0.02755755 0.03355452 -0.038467795 0.0022061805
-0.018704887 0.060428336 -0.9261562 -0.05216572 -0.56307644 -0.26949048 -0.015324424 0.03329157
0.035862233 -0.04326271 -0.0091079995 -0.07464734 0.003063286 0.20867968 -0.00012593858 -1.2723621
-0.07888407 0.10067743 -0.12097524 -0.0746185 0.009965957 0.11768421 -0.038932182 -0.05131161
0.00014312555 0.051731464 0.48778963 -0.022624861 0.0640465 0.65781116 0.3255489 -0.2806141
0.08823513 0.025841733 0.04776915 0.029483205 0.10348897 -0.06774653 0.07935125 -0.2028483
0.060919907 0.48530695 0.38646245 -0.46915266 -0.094811335 0.039240733 0.009743788 0.16892715
-0.07234707 0.008422254 -0.007932895 0.22560519 -0.06643889 0.0009602246 -0.15334767 0.04858793
-0.7111298 -0.23926839 0.066101246 0.102012195 0.03717563 0.0056356266 -0.015475642 0.08872387
-0.20746271 0.30459386 -0.07511382 0.40619645 0.097885616 0.61997277 -0.15954286 0.026405951
-0.005809497 0.14016476 0.10410902 0.018946117 0.18273443 -0.14452524 -0.053775553 0.12370884
-0.002994658 -0.5370722 0.01322984 -0.19534785 -0.12745342 0.023325596 0.022905152 -0.01985466
0.033431698 0.038808316 -0.3722977 -0.038794376 -0.16730286 0.041659467 -0.000696375 0.5684942
0.2718851 0.032438405 -0.012200806 0.034207035 -0.01596376 0.10426038 0.108207464 -0.2493176
-0.4135072 0.25606456 0.57886636 -0.6698512 0.40987512 0.13907214 -0.03321579 -0.09465869
-0.021140534 -0.08014492 -0.062276535 -0.088895194 -0.12745231 0.2911343 0.1671896 0.58887136
-0.29020342 0.25031033 -0.06849872 -0.025585681 0.23980601 0.06736941 -0.058510218 -0.0026715884
-0.0063887266 0.31539437 0.17107104 0.15327042 -1.2927548 0.4196948 0.57082963 0.006867565
0.05788328 0.0075668255 0.06474341 -0.15075152 0.034261413 -0.0147746075 -0.000274525 0.14950612
-0.0009814287 -0.4172314 -0.34151307 -0.17409971 -0.16628166 0.024951743 0.21748483 0.018984864
-0.07973679 0.015131949 -0.012225145 0.009363601 0.29859173 -0.09358818 -0.7616008 0.6322582
-0.058081344 -0.12967975 0.020229433 0.17185299 0.028232602 0.09024491 0.030083055 -0.050314695
-0.15923685 -0.0066219135 0.13091666 -0.8216827 -0.26805806 0.38386735 -0.12344126 -0.050923586
0.013255472 0.013235201 -0.06226992 -0.014496022 0.028923487 0.08161001 0.16016291 0.1358318
-0.29880512 0.23304594 -0.33389056 -0.3389643 0.013466566 0.04146399 0.027120667 0.008828988
-0.031686127 0.23745674 0.108016744 -0.40701127 -0.07142241 1.3885014 0.12098916 -0.38109586
0.06345239 0.027579958 -0.15015586 0.037216984 0.047410022 0.059811257 -0.0451662 0.08976215
-0.4054686 0.19635046 0.9604138 0.36766943 -0.78613836 0.03129882 -0.021153882 -0.06902204

critic.0.bias f4 [256]
00000000: 80bf 0dbe ae14 903d 15c4 693c 303c 3ebe
00000010: c2d9 93bc 86d3 d5bd 099d e9bd c1ce 00be
00000020: e50e b1bd 4c83 7abc f70b 2f3e 6446 b93d
00000030: 2dc9 fb3c efe5 3e3d ead5 b2bd 10b9 f2bc
00000040: db0f 913c 6b2a 03be 56e9 76bc b97f 84bd
00000050: 4664 c33d 80c6 30be db7e 3bbe a964 27be
00000060: 1686 e5bd 6a46 02be 7b88 4c3d 4363 903d
00000070: 8011 0d3e 8967 43bd 6c5b b7bc a6ea a4bd
00000080: 32b8 123d 7b11 87bd 86fc 0fbd c372 9c3d
00000090: aedd 4ebe fc8c 49bd e470 99bd 378c 6fbe
000000a0: 40de e4bd 7f42 2dbe f2a7 abbd 05a7 953c
000000b0: 2cc8 c2bb e12b 23bd dabe 823c a921 f83d
000000c0: 5ebb 803e 5be9 8a3e b5c8 e9bd 963f c93d
000000d0: 86c3 4fbd 7909 12bd c9ee 4abd 8cf4 a83b
000000e0: 94cd c9bb 3df5 41be 0773 493d 71f8 1dbd
000000f0: 73f0 93bd b38d 01bc 3516 cebd 657d cfbb
00000100: c575 ea3d ea65 62bd 91ff 88bb 8c46 a5bd
00000110: 4c54 d03d 96c3 95bd 65ff 36bd f674 bc3d
00000120: f0f1 ff3d ab51 1fbd 005c 9ebd 107b 32be
00000130: a57a d43d 5245 01bd e329 1cbd 1329 b4bd
00000140: 6bfe ccbd 0c23 debd e296 06bd bfc3 9d3d
00000150: 4ea7 db3d 6c7f 163e f7d6 20be b2b8 4f3d
00000160: 4afb 2fbd d364 323c cbb6 f73c 4f14 5a3d
00000170: c613 643d 331f 37be e8ea 3fbd 08cf 99bd
00000180: 5dd2 023e 1aad 2ebe 5fac c4bc c554 8f3d
00000190: b21a 453e f4e3 aa3d 90df a73d 8161 43bd
000001a0: 02f6 39be 309d 583d 9711 3d3d fc9d d6bb
000001b0: 87ed 89bd 9684 3e3d cfae c53c b9c1 87bd
000001c0: 175b 35be 10d7 ccbb 0a92 453d a502 9c3c
000001d0: fba4 623e f8a4 05bd 54ec 0a3d 791e 25be
000001e0: c54c 143e b4a9 0bbd d374 e53b 3f14 5aba
000001f0: bd2c 873d 75f5 b43d 6a32 0ebe 74dc c2bc
00000200: d11d b63d a158 123e 91df 303c b459 ed3d
00000210: 1804 d6bd 0ce3 203d f03f 2e3d 4b05 dfbd
00000220: 66f9 993d 0b21 afbd 0b11 213c 2d01 e4bd
00000230: a005 89bd e889 713d 5c67 91bd 13b4 86bd
00000240: e5f7 073e f635 86bd bdb4 22bd 3102 c4bd
00000250: 48fd 37bd 0f4c 56be a68b ba3c f212 8bbd
00000260: d00e d6bd b8e7 d3bd 3b04 a13d 33b4 053e
00000270: 6555 28bd b268 763d 8b79 00bd 36eb a63d
00000280: 70c3 363e 8aa7 87bd 2c15 153a 75b8 e13c
00000290: a57e 18bc b1c1 11be 8387 dcbc e012 04be
000002a0: 893d 0fbe e0fa 0ebe 4a09 273d 0ce8 98bc
000002b0: 5a48 333e 560a 22bd 78b5 b9bd 4c23 a93d
000002c0: 38e7 aa3d fd06 b53d 7892 d9bc 652f 0d3d
000002d0: 8cd3 25bd 0b55 b6bc dac7 75bb 65d0 b2bc
000002e0: ae09 dcbd 29c1 82bc a0e5 3ebe 436e fabc
000002f0: aa79 91bc 9968 343d a9e1 9f3d 4e70 e43c
00000300: ebed 4ebd 5a2a 5ebe 9cea 34bd bf88 633e
00000310: cf7d d7bd f05a 6bbe df7f f63d 8536 be3d
00000320: 304c 5d3d 3212 6c3c 7bff 8d3d dc3f f13d
00000330: 48e0 15bd ed19 613d ca76 4bbe 072f 14be
00000340: e77c e9bc a5a8 683d 09d6 dd3d 0455 86bd
00000350: d52f 3f3d cfd6 ae3d d7f0 de3d e6bd 5c3d
00000360: 9942 833d c7ab 30bd c260 333c 679d 0ebe
00000370: 40c3 d0bd b739 533c 1dc2 653c 9a3e 89bd
00000380: e21c 223d 0881 80bd 03de db3d 0b12 12be
00000390: aa6f 0e3c d168 1ebe b89f 953c 756e adbd
000003a0: 5e30 e8bc 987a 283c 1265 23be 9f76 68bd
000003b0: f952 943d 8c20 d1bd f195 f4bc fe73 7b3c
000003c0: cdca 093d 24ec 49bd 1549 7ebd f8fa 353e
000003d0: a65c 033d 2916 1ebe 17ee 413d b027 113c
000003e0: 442e 783c fdb5 5e3b b979 d5bc d695 363e
000003f0: 2585 4fbd c8f8 973c 3039 0dbd bbfc a53b
-0.13842583 0.07035194 0.014267941 -0.18577647 -0.018048171 -0.104407355 -0.11406905 -0.1257887
-0.08645419 -0.015290093 0.17094408 0.09046629 0.030735577 0.046606 -0.08732207 -0.02962926
0.017707756 -0.1280915 -0.01507028 -0.06469674 0.0954061 -0.17263222 -0.1831011 -0.16346993
-0.112072155 -0.12722173 0.049934845 0.07050183 0.13776207 -0.04770616 -0.02238246 -0.08052568
0.035820194 -0.06595131 -0.035152934 0.076390766 -0.20201752 -0.04920672 -0.07492235 -0.23393331
-0.11175203 -0.16919897 -0.083816424 0.018268118 -0.0059442725 -0.039836768 0.015960146 0.12115795
0.2514295 0.2713116 -0.11415235 0.09826581 -0.050723575 -0.035653565 -0.04954413 0.0051561054
-0.00615854 -0.18941207 0.049181964 -0.03856701 -0.072235964 -0.007907319 -0.100628294 -0.006332087
0.11448244 -0.055272974 -0.0041808565 -0.080700964 0.10172328 -0.07312696 -0.044677157 0.09201996
0.12497318 -0.038896244 -0.07732391 -0.17429757 0.10374955 -0.03156025 -0.038125884 -0.08796897
-0.10009464 -0.108465284 -0.032858737 0.07703351 0.1072527 0.14697045 -0.15707003 0.05071325
-0.042964257 0.010888296 0.03023853 0.053242024 0.05568292 -0.17882995 -0.046854883 -0.07510191
0.1277556 -0.1705822 -0.024007974 0.069985904 0.19248465 0.0834426 0.08196938 -0.04770041
-0.18160251 0.05288428 0.046159353 -0.006549595 -0.06734758 0.046513163 0.024131207 -0.066287465
-0.1771053 -0.0062512234 0.048234977 0.01904423 0.22133248 -0.03262803 0.033916786 -0.16124906
0.1448241 -0.03409739 0.007002452 -0.0008319057 0.0660033 0.0883588 -0.13886419 -0.02378676
0.08892406 0.14291622 0.01079549 0.11589375 -0.104499996 0.03927903 0.042541444 -0.108896814
0.07518272 -0.08551224 0.0098307235 -0.11133037 -0.06690526 0.05896941 -0.07099792 -0.06577315
0.13278158 -0.06553261 -0.039723147 -0.095707305 -0.044919282 -0.20927452 0.022771668 -0.06790723
-0.10452044 -0.10346931 0.07862135 0.13057022 -0.041097064 0.06015844 -0.031365912 0.08150332
0.17847991 -0.066237524 0.0005687054 0.027553776 -0.009307538 -0.14234044 -0.026920086 -0.12897825
-0.13988318 -0.13962889 0.040780343 -0.018665336 0.17508069 -0.03956064 -0.090678155 0.082586855
0.08344883 0.088392235 -0.0265591 0.034469027 -0.04048495 -0.022257349 -0.0037503154 -0.021827886
-0.10744034 -0.015961247 -0.18642282 -0.030570155 -0.01775821 0.044045065 0.07806713 0.027885582
-0.050519865 -0.21695843 -0.044169053 0.22220133 -0.10522043 -0.22983909 0.12036108 0.092877425
0.054027736 0.014408635 0.06933495 0.11779758 -0.036590844 0.054956365 -0.19869533 -0.14471065
-0.02850194 0.056801457 0.108318396 -0.06559184 0.046676476 0.08537065 0.1088578 0.05389204
0.06409187 -0.04313257 0.010948362 -0.13927232 -0.10193491 0.012892178 0.014023331 -0.067013934
0.039578326 -0.06274611 0.10735705 -0.14264695 0.008693615 -0.15469672 0.018264636 -0.08468334
-0.028343376 0.010283135 -0.15956524 -0.05675375 0.07242388 -0.10211286 -0.029856654 0.015347479
0.03364067 -0.049297467 -0.062081415 0.17771518 0.03207078 -0.15438141 0.0473462 0.00885956
0.015147749 0.0033982985 -0.026059018 0.17830595 -0.050664086 0.018551245 -0.034478366 0.005065528

critic.2.weight f4 [256, 256]
00000000: cec0 d0bd d03a 37bd 221e e33d 35d2 ecbd
00000010: 6c13 52be 5c27 9cbd e42e a3bd 6a73 fbbb
00000020: f12f 3cbe fb09 fdbc 78f0 1f3d 5de5 15be
00000030: 5e7b d9bd 732f 3bbe e93f 12be f57e 7c3d
00000040: 7d66 44be 8be2 81bd 00c5 c9bc 3cc6 073e
00000050: 2256 b23c f82f 02bd ee4d f0bd 28db 6cbd
00000060: 1425 82be e5f1 6bbc 3338 f73c 5a80 6dbe
00000070: 7173 333e eeee db3d eab2 40bd 106d 6ebc
00000080: 7aca 98bd 6683 21bd 68da f8bb cea3 df3d
00000090: a539 b9bd 08ea 823d 3247 a73d 5b23 e7bc
000000a0: 2dc1 49be e243 f2bb cca8 de3b c264 ed3d
000000b0: bbee d4bd d965 e5bd 53dc 943c 3287 a63c
000000c0: 5591 07be 11ce 173e a957 9bbd 0550 fa3d
000000d0: 2c94 0bbe 1b55 7bbd b3d0 84be 1bdc ba3d
000000e0: 4866 3c3d 8a5f 0bbe eaf3 d0bd 4dbb bebc
000000f0: f83e 54be 5345 143d 1a07 9b3d df58 523e
00000100: 1ffe 823e c38a ec3d 14ea 7f3e 1746 d4bd
00000110: 338d 113d 5751 0b3d aab9 373e c9c4 a73e
00000120: e779 eebc a01d 7abe b5d2 12be 7d80 9fbe
00000130: 1c50 963c fb62 37bd 6f30 4bbd 4302 2abd
00000140: b6fb 01be 0dc2 f1bd 6cbb b3bc 88b3 85be
00000150: aace 0abc be8f 923d 8754 8abd b970 13bd
00000160: 2a6b 2fbe 9ad6 ca3c d30c ec3d 0fcb 073d
00000170: a4fb 9f3e 8e54 e1bd 0597 cebe 15f3 05be
00000180: ecce 2e3d 3b92 7cbe c38c 69be e119 a03c
00000190: 5271 4f3d 1e05 4cbc c178 e03b 3bf7 783e
000001a0: 67a6 0bbe 38c0 09bd d064 1a3e 25d0 0bbe
000001b0: 16b6 ecbc 3663 313d 5371 96be f998 06be
000001c0: 8482 32be bd5a 883b 3ea2 f33d 8640 f3bd
000001d0: a075 533e 8ac4 b03d 65fe 3d3e 2694 14be
000001e0: 5fb3 b13e 12e8 233c 90bb 1b3e f6ca 1e3e
000001f0: 28b3 8bbd 41a8 9a3d 15cb 41be 998b fc3b
00000200: d5d5 5cbd 76b5 5abb 395b 0d3c d1fa 823d
00000210: b132 dabd 5150 1dbe a651 83bd 36d7 edbb
00000220: 916c 563e f276 9ebc 82b0 613d 7fcf 3fbe
00000230: 6d43 2abd fc7a 313c 2255 a8bd ab2d 4f3d
00000240: 01c9 373e ae8e 1abe 70a3 3d3e 46b0 82be
00000250: ad7a abbe eea2 2abe b378 a43d 6a20 eebd
00000260: afbf ab3d ad2f e53d 2acf 21be 6ce6 9c3d
00000270: f30c 783d aec4 5a3e 36b2 14be 2bfd d53d
00000280: 5c73 b33d 4e71 283e 7b8a a8bd 80c0 293e
00000290: e4cb 62be ddc5 50bd b290 dfbc 3ba7 2e3d
000002a0: 2e93 243e 70f1 42bd ae45 b43c e44c b23e
000002b0: 1d4d ce3e c727 11be d5a4 68bd a5b3 b33d
000002c0: 03a4 2e3e 38d8 c23c 3dd2 c63d 15c7 a3be
000002d0: f04c 0ebd f007 5bbe 727c 393d 8385 a1be
000002e0: 20ed f839 718d 07bd 0dac 04be ef1e 8cbe
000002f0: c097 193d f345 923e 5720 5fbd 601b 54be
00000300: e1d5 113e b28b 8ebd 2ce9 123e 44ec 94bd
00000310: 4ea9 813d a0b5 70bd a740 923d c1c1 bbbd
00000320: 5b24 b93d 4171 9fbd 718a 773e 25ad 1b3e
00000330: ba67 00be f397 953d bd78 c9ba ba34 8abe
00000340: 94ec f6bd 14cc e8bc bdf8 e53d 8c53 063e
00000350: 0cd2 1abe 7385 353e bf8b 5b3e a4f1 2d3b
00000360: f871 803e d917 4e3c 47d3 243e d52a 723d
00000370: 5500 41be f388 803d 60ee 47be f78b 6bbd
00000380: 8ffa 803d 06f6 72be d222 203e 800d 9ebe
00000390: cb7d 6abd 3918 c6bd 2a4c 493e fefc 65bd
000003a0: be99 fcbd 5272 c23d fe11 30bd 593b 8abd
000003b0: fc50 b73d c9dd 47be 4911 f53d ca96 783e
000003c0: 0a25 703d ccab a7bd 7e02 983d 956a 26bd
000003d0: 5782 32bd 63c0 49bd 0822 08bd 1077 a3bd
000003e0: 4f5c 21be 0605 97be ce08 ccbd b86e 1d3d
000003f0: e446 9ebd ff00 b43d b688 4bbe 6fac 2fbe
-0.101930246 -0.044733822 0.11089732 -0.11563531 -0.20515221 -0.07624695 -0.07967928 -0.0076736705
-0.18377663 -0.030888548 0.03904769 -0.14638276 -0.106192335 -0.18279819 -0.14282192 0.061644513
-0.19179721 -0.06342038 -0.02463007 0.13259214 0.021769587 -0.031784028 -0.11733614 -0.05782619
-0.25418913 -0.014400934 0.030178165 -0.23193493 0.17524506 0.107389316 -0.047045626 -0.01455237
-0.07460494 -0.039431952 -0.0075943954 0.10919915 -0.09044198 0.06392294 0.08167876 -0.028215101
-0.19702597 -0.007393346 0.0067950245 0.11591484 -0.10397097 -0.112010665 0.018171465 0.020328138
-0.13239034 0.14824702 -0.07585079 0.12222294 -0.13630742 -0.06136046 -0.25940475 0.09124013
0.04599598 -0.13610664 -0.10202773 -0.023282671 -0.20727146 0.036198925 0.07569714 0.20541714
0.25584504 0.11549904 0.24991637 -0.10364931 0.03553505 0.03401312 0.17941919 0.32767323
-0.029110862 -0.24425364 -0.14338191 -0.31152716 0.018348746 -0.04477213 -0.049606737 -0.041506063
-0.12693676 -0.118045904 -0.021939956 -0.26113534 -0.008472124 0.07156323 -0.067544036 -0.035996173
-0.17130724 0.024760533 0.115258835 0.033152636 0.31246674 -0.11002456 -0.40349594 -0.1308101
0.042677805 -0.24665157 -0.22807603 0.01954359 0.05064518 -0.012452392 0.0068503325 0.24313061
-0.13637696 -0.03363058 0.1507752 -0.1365362 -0.02889542 0.043307506 -0.29383335 -0.13144292
-0.174326 0.0041612075 0.118961796 -0.11877541 0.20650339 0.08631237 0.18554075 -0.14509639
0.34707162 0.01000406 0.15208268 0.15507111 -0.06821281 0.07551623 -0.18925126 0.007707071
-0.053914864 -0.003337232 0.008627706 0.06395496 -0.106542 -0.1536267 -0.064120576 -0.007258321
0.20939852 -0.019343827 0.05509997 -0.18731497 -0.04156821 0.010832544 -0.08219363 0.05058066
0.1794777 -0.1509349 0.18519378 -0.2552511 -0.33492032 -0.16663715 0.08030834 -0.11627276
0.0838617 0.11190734 -0.15801683 0.07661137 0.060559224 0.2136409 -0.14521107 0.104486786
0.087622374 0.16449472 -0.08229538 0.16577339 -0.2214809 -0.050969947 -0.027290676 0.042639952
0.1607177 -0.047593534 0.022005882 0.34824288 0.40293208 -0.1417533 -0.05679782 0.08774499
0.17054753 0.023784742 0.097080685 -0.31987825 -0.034741342 -0.21389747 0.045284696 -0.31547174
0.00047478918 -0.033093873 -0.12956257 -0.2736735 0.037498236 0.28568992 -0.0544742 -0.20713568
0.14241745 -0.069602385 0.1434676 -0.072716266 0.063311204 -0.05876696 0.07141238 -0.09167815
0.090401374 -0.07785273 0.24173905 0.15202768 -0.12539569 0.07304373 -0.0015371066 -0.26993352
-0.120568424 -0.028417625 0.11229084 0.13117808 -0.15119189 0.17726688 0.21440028 0.0026541734
0.2508695 0.012578928 0.16096221 0.05912288 -0.18847783 0.06276121 -0.19524527 -0.057506528
0.0629779 -0.23726663 0.15638283 -0.30869675 -0.05724887 -0.09672589 0.1965796 -0.056149475
-0.123340115 0.09494461 -0.04298591 -0.06749601 0.089509934 -0.19518198 0.119661875 0.24276271
0.058629073 -0.081870645 0.0742235 -0.04062899 -0.043581333 -0.04925574 -0.03323558 -0.07981694
-0.15757869 -0.2949602 -0.09962617 0.038435668 -0.07728365 0.087892525 -0.1987637 -0.17155622

critic.2.bias f4 [256]
00000000: ad02 cf3d 97ed fabd 4f6c d63d d551 ee3d
00000010: ec47 2fbe e302 18be b49d ab3d 764f 3f3e
00000020: 7d8b 1ebe 2e43 3cbe 79a9 99be a02a 29be
00000030: e155 403e 804f 25be d37a 113e 52ab df3d
00000040: 4c53 c03b 1280 18be ce23 4abe 2981 2b3e
00000050: 3cec 92bd b6eb 0b3e 7958 14be 3bae 11be
00000060: 3ab6 0abe 4acf 9f3d 747a 32be ba21 06be
00000070: 8fb1 c93d cb33 323e e61a aabd b86e 293e
00000080: eee3 c63d 3a8e 163e 9784 27be a015 3dbe
00000090: 5209 dabd 72a1 5c3d 7c17 d1bd af19 1abe
000000a0: 3ce1 2c3e eabc ee3d 14a5 0c3e 2993 923d
000000b0: 5df6 503d ed2e f63d 9dd2 80bd 4de5 45be
000000c0: f6e5 dabd 10fc 033e ed82 15be e5f1 e5bd
000000d0: 5a7c 293e 69f3 01be 8955 8e3c 0454 0bbe
000000e0: e792 27be 78e5 00be 5fd4 d5bd 4a23 29be
000000f0: 833e c73d 5ccb de3d 52b5 58be dae9 cbbd
00000100: c83a 16be 5655 f93d 562a c1bd 69c7 ebbd
00000110: e6ff 173e 44df aa3d d0b7 f63d 5ea9 483e
00000120: 0dbf dfbd e299 9e3d 5359 bf3d ac58 3f3e
00000130: 2d4d d6bd 89ad d33d f4e1 193d 4943 32be
00000140: e913 173e 3598 143e 1e26 debd 25f4 573e
00000150: d27e 5abe 4dae 1c3e 2f5c d33d 37dc 94bd
00000160: 0f42 14be 48c6 01be 5907 643d 0ba0 c7bc
00000170: 1d2f 96bd c9bf 28be 497e 253e 8be0 ecbd
00000180: 0100 da3d c29e fdbd b0f2 2c3b 62c9 943d
00000190: 7d1d eabc 3c25 f6bd 3c38 f4bd 6b8d 393e
000001a0: fb62 293e 1a94 1ebe d4e0 43be 1068 07be
000001b0: 81d4 043e f29e eabd 3311 02be b555 84be
000001c0: a66b b83d b87c e1bd d466 57bd 72e2 9d3d
000001d0: 0ec0 cc3d df2c 493e b222 16be abd6 15be
000001e0: 0e88 fc3d 119a cd3d 724b ff3d 7019 853d
000001f0: 615a 293e f1d2 da3d 5889 2dbe 6804 eabd
00000200: 65ce d83d 65ac 08be 8530 073e f2b1 0cbe
00000210: b314 b1bd 7b0f 0d3e 0f6c c53d 3b89 6e3e
00000220: 75b7 cc3d 1032 323e 4d65 cabd cac2 06be
00000230: 3193 1cbe 8bb6 1b3c d505 2a3e 88ad dabd
00000240: e9fd 53be 552d 0cbd b8e5 28be beb8 a3bd
00000250: c040 03be 7d31 293e cf1c 623d a875 dc3d
00000260: 963a 9cbd 0139 f13c 2f14 ffbd 6c7a 32be
00000270: 7e70 bdbd 388c 10be e9b5 853d a60b d43d
00000280: 0ad1 99bd 7a22 6fbb 2a5b a0b9 d9cc 4e3e
00000290: 35f3 fd3d a044 0abe 4d23 073d a0c3 03be
000002a0: 50dc 3abe 31d3 0e3e d6f1 0f3e 46d2 2c3e
000002b0: 56c6 623e 9c5f ffbd 4f24 263d 9577 bf3c
000002c0: 5321 593e 256c acbd 6642 313e ad8d 163e
000002d0: 380f 2ebe f3ef 77be f0f7 19be 190e 263e
000002e0: 89b2 09be 79c9 3b3e 695d e13d b006 8a3d
000002f0: cc27 323d 095a 263e 7557 c73d c2eb d13d
00000300: 504b f73b c918 1d3e 3343 e9bd 1e1c 5ebe
00000310: 6d51 cc3d b883 f7bd aa94 083e 5d3b 26be
00000320: 14b8 053c 7dde 113e cc2e 24be 61bd 0e3e
00000330: 5aab 6ebd 7d3a e3bd e68d 7c3e 58bb 6a3d
00000340: 44a1 1a3e de44 983d 2f40 0ebe c860 24be
00000350: e57f 04be 4874 133e a02d c03c 8ced 46be
00000360: a57c af3d 35f8 b63d a9e9 4abe 5ee1 2e3c
00000370: 9933 2c3e 80b7 a03d 017d da3d 5c94 9e3c
00000380: 76fa 1dbe 04af 503e 1435 f0bd 1285 6dbd
00000390: dd37 2b3e a609 d7bd 3b83 523e 61ac 863e
000003a0: 8824 41be 08a3 d6bd 90b4 963d c894 e1bd
000003b0: ced6 013e 4808 00be 4f30 083c 9b87 90be
000003c0: 58a1 073e 08bd e2bd dfc1 56be a0e1 22bc
000003d0: 412e 26be 1e66 593e 4341 df3d 0c12 0c3e
000003e0: 52d2 a3bd 5191 9b39 5036 59bd 1a8f 1d3e
000003f0: 480e 2d3e a02f 20be eafa 4cbd d153 e1bd
0.10107932 -0.12252348 0.10469877 0.11636702 -0.1711728 -0.14844851 0.08379689 0.18682656
-0.15482898 -0.18385002 -0.3001211 -0.16520166 0.1878276 -0.16143608 0.1420701 0.10921349
0.0058693048 -0.14892605 -0.19740221 0.1674849 -0.071739644 0.13664135 -0.14486875 -0.1422662
-0.13546076 0.07803209 -0.17429525 -0.13098803 0.0984832 0.1740257 -0.08305912 0.16546142
0.09711443 0.14702693 -0.16359173 -0.1846528 -0.10646309 0.053864904 -0.102095574 -0.1504886
0.16882795 0.11657126 0.13734847 0.07156975 0.0510162 0.12020669 -0.06290171 -0.19325753
-0.10688393 0.12889123 -0.14600725 -0.11227778 0.16551343 -0.1269051 0.01737477 -0.13606268
-0.16364633 -0.12587535 -0.10440897 -0.16517368 0.0972872 0.108786315 -0.21162918 -0.09956713
-0.14670861 0.1217448 -0.09431903 -0.11512644 0.14843711 0.08343366 0.12046778 0.19595858
-0.10925112 0.077441946 0.09343209 0.1868617 -0.10463939 0.103358336 0.037569 -0.1740848
0.14753689 0.14511187 -0.10847114 0.21089227 -0.2133744 0.15300865 0.10320317 -0.07268565
-0.14478324 -0.12673295 0.05567107 -0.024368307 -0.07333205 -0.1647941 0.16161455 -0.11566266
0.10644532 -0.12383796 0.002638977 0.07264973 -0.028578514 -0.12018821 -0.11924788 0.18120353
0.16541664 -0.15486184 -0.19128734 -0.1322329 0.12971689 -0.11456098 -0.12701873 -0.2584664
0.09004907 -0.11010116 -0.0525883 0.07709207 0.09997569 0.19646023 -0.14661673 -0.1463267
0.12330638 0.100391515 0.12465562 0.064989924 0.16538383 0.10684765 -0.16946924 -0.11426622
0.10586242 -0.13347013 0.13202102 -0.13739756 -0.08646526 0.13775437 0.09639751 0.23294537
0.09995929 0.1740191 -0.09882603 -0.13160244 -0.15290524 0.009503971 0.16603787 -0.1067763
-0.20702328 -0.03422292 -0.16493881 -0.07994221 -0.12817669 0.16522785 0.055203255 0.10764629
-0.07628362 0.029446127 -0.124550216 -0.17429513 -0.09249972 -0.14115989 0.06528837 0.10353784
-0.07510574 -0.0036489055 -0.000305855 0.2019533 0.12399904 -0.13502741 0.03299265 -0.12867594
-0.18248105 0.1394775 0.14057097 0.16877088 0.22145972 -0.12469408 0.04056197 0.02337245
0.21204118 -0.084190644 0.17310485 0.14702483 -0.16997993 -0.24212627 -0.15035987 0.16216315
-0.13447012 0.18338574 0.11004145 0.06739557 0.043494985 0.16245283 0.09733478 0.10250045
0.0075468197 0.15341486 -0.1138977 -0.21690413 0.09976468 -0.1208567 0.13337961 -0.16233583
0.008161563 0.14245029 -0.16033477 0.1393943 -0.058268882 -0.1109514 0.24663505 0.05730757
0.1510058 0.074350104 -0.13891672 -0.16052544 -0.12939413 0.14399827 0.023459256 -0.19426554
0.08568696 0.089340605 -0.19815697 0.010673849 0.16816558 0.078475 0.10668374 0.019357853
-0.15427575 0.20379263 -0.11728874 -0.057988234 0.16720529 -0.10499887 0.20557873 0.2630339
-0.18861592 -0.104803145 0.07358658 -0.11014706 0.12679598 -0.12503159 0.008312299 -0.2822846
0.13245142 -0.11071211 -0.20972393 -0.0099414885 -0.16228582 0.21230361 0.109011196 0.1367876
-0.079991 0.00029672173 -0.053030312 0.1538662 0.16899979 -0.15643167 -0.050043978 -0.11002315

critic.4.weight f4 [1, 256]
00000000: 815f 0d40 0b51 0bc0 0e23 0a40 7922 0c40
00000010: df26 07c0 71ef 0dc0 89d9 0c40 96f1 0540
00000020: df93 07c0 2e0b 02c0 175a 06c0 fd8b 0ac0
00000030: 469f 0c40 4411 0bc0 2d97 0a40 b00f 0c40
00000040: d22d 0b40 7876 0cc0 8215 0cc0 ef2c 0c40
00000050: d781 0d40 b47c 0740 4a35 1640 6aed 08c0
00000060: 6f0b 08c0 d2b6 1b40 8bb1 09c0 8c9e 0dc0
00000070: e06a 0e40 40ef 0740 51c9 07c0 2703 0740
00000080: 637c 1140 e84c 0ec0 0f0e 0bc0 d36c 0bc0
00000090: 26d2 08c0 5d50 25c0 ece1 07c0 3d1c 0bc0
000000a0: 3681 0340 627a 0940 f45f 1040 cc7f 0fc0
000000b0: f185 0640 40a2 0d40 e2b9 0ec0 16ce 06c0
000000c0: 033f 0bc0 bd5b 0e40 e3c1 0bc0 de72 0cc0
000000d0: 4207 0a40 249b 1cc0 b144 0540 a203 0dc0
000000e0: 0944 0ac0 c77c 0ac0 a150 10c0 2bb6 06c0
000000f0: 22e4 1c40 6d9b 0840 772e 0ac0 7f8d 0dc0
00000100: 03ec 0a40 7d35 0a40 3c79 0ec0 1a8a 0cc0
00000110: d2bd 0840 ebe6 1a40 6e9e 0b40 61c1 0340
00000120: 8966 21c0 ab99 0e40 8d5c 0ac0 b9e9 0d40
00000130: 2813 0840 dd03 0b40 aa97 0940 78d9 0bc0
00000140: 840c 0b40 fdfb 0640 dbc6 0ac0 4838 0a40
00000150: 4362 13c0 d469 0a40 9801 1840 0a22 06c0
00000160: d98f 0cc0 396e 0cc0 9d59 0a40 f176 10c0
00000170: 3e34 0cc0 d8c5 0ac0 65ac 0440 4f17 09c0
00000180: 2fd0 1540 5f31 0bc0 87a0 1140 b7e0 0b40
00000190: a44e 0940 2f85 12c0 4e11 07c0 435a 0b40
000001a0: f220 0f40 a202 06c0 470c 04c0 c63b 0ac0
000001b0: cb64 0c40 b319 0dc0 79c0 05c0 37b7 0e40
000001c0: 7b27 0740 460a 0bc0 644c 0ec0 d0ed 0b40
000001d0: 82f2 0d40 4c1b 0940 33f8 0bc0 6a26 0dc0
000001e0: 553c 0c40 032d 0c40 899f 0440 e207 0e40
000001f0: 41c4 0c40 5371 0c40 7727 0bc0 b0a2 09c0
00000200: 9239 0840 4c93 00c0 e55d 0b40 b938 1740
00000210: b24e 0bc0 9b5a 0940 1894 0d40 fb9a 0a40
00000220: 1b6f 0a40 79b1 0640 50e5 0dc0 aab9 0cc0
00000230: 36f3 04c0 92b8 0dc0 f43c 0940 3375 0ac0
00000240: 2f2e 0dc0 d344 0340 1fac 0cc0 22ca 18c0
00000250: 902f 0ec0 955f 0c40 88ac 11c0 1bb9 0d40
00000260: eb69 0140 7388 0d40 1852 06c0 4b9d 08c0
00000270: 8760 1940 e77e 0ac0 fc2c 0a40 b04c 1040
00000280: 17cb 0bc0 0a6c 1b40 bd95 0e40 7492 0a40
00000290: e523 0440 a10d 0cc0 6622 1240 e45a 0fc0
000002a0: 1b07 0dc0 e9dc 0640 6f14 0a40 96a2 0c40
000002b0: a6a7 0540 e0cc 0dc0 ac45 0f40 cdca 0f40
000002c0: 6247 0940 dabe 0cc0 618e 0a40 13ce 0e40
000002d0: aae2 09c0 03fb 04c0 f1a7 07c0 a36f 0c40
000002e0: 42a9 05c0 81b7 0a40 d673 1a40 5986 0a40
000002f0: ddd0 0f40 4498 0a40 e51d 0940 48fe 0a40
00000300: d88d 1dc0 c8ba 0940 bb5b 0cc0 be43 1440
00000310: 7804 0d40 fd9e 09c0 0ee3 0840 e093 0ac0
00000320: aa44 0840 9847 0940 2759 08c0 1a59 0840
00000330: 554c 0ac0 1783 09c0 e710 0140 90e2 11c0
00000340: 0a5b 14c0 9d4d 0e40 1ee5 0ec0 c129 09c0
00000350: 2426 06c0 0d83 0840 9532 0a40 aea4 19c0
00000360: e27d 0a40 7490 0e40 3075 10c0 d17d 0b40
00000370: 2e64 0940 c3bc 0b40 c134 0840 05a4 0e40
00000380: 4462 0c40 1fa3 0b40 7e4f 0ec0 24d5 0fc0
00000390: a3d0 0a40 9945 22c0 8f2e 08c0 5904 f0bf
000003a0: 61a8 0e40 11c5 0dc0 b075 0640 8d65 11c0
000003b0: eabd 0a40 f33d 0cc0 920e 27c0 16c1 01c0
000003c0: f760 0840 78c9 0ac0 0ad5 08c0 1088 0d40
000003d0: 5e2b 00c0 3ca6 0440 2fe2 0a40 168a 0940
000003e0: 2901 10c0 58fc 1a40 9197 0dc0 2d03 1840
000003f0: 6d86 0740 8234 0dc0 259f 0dc0 2221 0fc0
2.208954 -2.1768215 2.1583896 2.189604 -2.1117475 -2.2177393 2.2007773 2.0928702
-2.1184003 -2.0319324 -2.0992486 -2.1647942 2.1972213 -2.1729288 2.165477 2.1884575
2.1746716 -2.1947308 -2.1888127 2.1902425 2.2110498 2.1169863 2.3470025 -2.1394906
-2.1256979 2.4330335 -2.1514614 -2.212802 2.2252731 2.1239777 -2.1216624 2.1095674
2.273217 -2.223444 -2.172733 -2.178517 -2.1378264 -2.58303 -2.1231642 -2.1735985
2.0547614 2.1480947 2.2558565 -2.242175 2.1019251 2.213028 -2.2300954 -2.1063285
-2.175721 2.2243493 -2.183709 -2.194511 2.156693 -2.446969 2.0823176 -2.2033467
-2.1604025 -2.1638658 -2.2549212 -2.1048687 2.4514241 2.1344864 -2.159086 -2.2117612
2.170655 2.1595147 -2.2261496 -2.195929 2.1365857 2.420344 2.1815448 2.058678
-2.5218832 2.2281291 -2.1618989 2.2173903 2.1261692 2.1721108 2.1498818 -2.1851482
2.172639 2.1091301 -2.1683872 2.1596851 -2.3028724 2.1627092 2.3750973 -2.0958276
-2.1962798 -2.1942275 2.1617196 -2.2572596 -2.1906886 -2.1683254 2.0730221 -2.1420476
2.3408315 -2.1748884 2.2754228 2.1855905 2.1454248 -2.289379 -2.1104312 2.1773841
2.2363858 -2.0939107 -2.0632493 -2.1598983 2.193652 -2.2046936 -2.0898726 2.2299325
2.1117847 -2.172502 -2.2234125 2.18639 2.2179265 2.142291 -2.1870239 -2.2054696
2.1911824 2.1902473 2.0722373 2.2192311 2.1994784 2.1944168 -2.1742837 -2.1505547
2.1285138 -2.0089903 2.1776059 2.362837 -2.1766782 2.146155 2.212164 2.1657093
2.1630313 2.104582 -2.2171211 -2.198832 -2.0773444 -2.2143903 2.1443453 -2.1634033
-2.2059438 2.0510757 -2.1980054 -2.3873372 -2.221653 2.1933339 -2.2761555 2.214423
2.0220897 2.2114532 -2.0987606 -2.1346004 2.3965166 -2.1639955 2.1589956 2.2546806
-2.1842706 2.4284692 2.2278893 2.1651888 2.0646908 -2.1883318 2.2833495 -2.2399225
-2.2035587 2.1072333 2.1574972 2.1974235 2.0883574 -2.2156296 2.2386274 2.246753
2.1449819 -2.1991487 2.16494 2.2313278 -2.1544595 -2.0778205 -2.1196253 2.1943138
-2.0884557 2.1674502 2.41332 2.16445 2.247123 2.1655436 2.1424496 2.17177
-2.4617825 2.1520252 -2.1930988 2.3166347 2.2033978 -2.1503289 2.1388583 -2.1652756
2.129191 2.1449947 -2.1304414 2.1304383 -2.160909 -2.148626 2.0166566 -2.2794533
-2.3180566 2.2234871 -2.2327342 -2.1431735 -2.096078 2.1329987 2.1593373 -2.4006763
2.1639333 2.2275667 -2.2571526 2.1795542 2.1467395 2.183396 2.1282198 2.228761
2.1934977 2.1818311 -2.2236018 -2.247384 2.1689842 -2.535498 -2.1278417 -1.8751327
2.229027 -2.215153 2.100933 -2.2718232 2.1678414 -2.191281 -2.6102643 -2.02741
2.1309183 -2.1685467 -2.1380029 2.2114296 -2.002647 2.0726461 2.1700552 2.149053
-2.2500708 2.4216518 -2.2123759 2.3751938 2.1175797 -2.2063298 -2.2128384 -2.2363973

actor_mean.0.weight f4 [256, 13]
00000000: 54fd 753c 3d00 fdbd ac88 37bd 254d 933e
00000010: e08c 213e b4f3 563e 9b75 9ebb 58f3 8a3d
00000020: 0fa4 20bd 7dc6 873c 5da2 1e3d e58c af3d
00000030: 25e7 2a3e 24b7 da3a 4f96 a6bd cd9c babd
00000040: f857 793d 2f77 a6bd 7f59 f33d 54fd 09bd
00000050: f8db 93bd 6171 2dbd 2bc2 253d 65d9 c43d
00000060: ad92 1e3d e3a5 8b3b 4197 72be 19d2 64bb
00000070: 713d d0bd 2ce8 2a3c 5c2e b4bd e5f6 a3bd
00000080: a21e 273c 7286 64be 6683 a43b 3d1c 06be
00000090: bdcd 70bc 8c7e 91bc e4e9 6bbd ab06 f1bd
000000a0: 42ef 823c 29a6 11be 6571 143d 6e5e 0cbe
000000b0: 3ab6 c7bc 3cdc b23d 635f 063d 30fa b13c
000000c0: e587 d1bd 6184 4ebd 8238 48bd 7d6d 03be
000000d0: 8137 cb39 7d3e 323d fb03 cf3c c681 7ebd
000000e0: d493 ffbd 4420 76bd 9a47 013e 522b 63be
000000f0: 275c 5e3e ab1b 693b 24ff f0bd 1f33 0ebe
00000100: 90cb db3d e74b 33bd fd19 4c3e f542 07bd
00000110: 4f76 edba 61b5 b6bc 5517 103d 80c3 983c
00000120: 141a 21bd bde2 5a3d b3fc 3a3d e415 d7bb
00000130: 5c42 623d 797b 5d3d 41dd 26bb cd71 a3bc
00000140: 8b62 243e ae85 a23d fd4d 523d e227 6a3c
00000150: 47b1 0b3d 5607 643d 2c28 da3d e663 ae3c
00000160: e64c 49bd 257c c53c 6b74 b73c b204 9f3d
00000170: 188b 85bc b27e 2f3e 5c13 923d 2460 0d3e
00000180: 45e5 3abc 5774 14bc e2de e6bd ee2c 01be
00000190: ac39 253e d29b 59bd 6149 29bd d2ae d7bc
000001a0: b62c 213d 05db 3e3c fb02 f4bd 1bf6 d5bd
000001b0: 3848 21bd e0d3 abbd 447a 51bd 1b99 413d
000001c0: ea66 333d a4d5 aabd a113 bfbc 6e17 013e
000001d0: ba1a afbd 92f2 893e 2041 47bd 01e5 85bd
000001e0: 7f4d 4bbd c0a0 543e 5074 033e ebac 0fbd
000001f0: 82e1 373e a202 94bc 712d 5d3d d2a5 1e3d
00000200: f9b8 603d ea15 343e 5f34 94bd df76 77bc
00000210: eb1b 0a3c d560 a1bd a993 b3bd b00a 2a3d
00000220: ce57 b53d f3a6 84bd 8d30 dd3d 3c1f fc3a
00000230: 710a 3bbe 14a8 c8bd a40d b6bb 455c 273c
00000240: a725 c0bd cce0 143e 2dac 3dbc 7c8b 83bd
00000250: b85b d8bc 9868 a0ba f19d cb3d ce44 f5bd
00000260: a1cb ae3d 7034 873d 38e4 efbb 30e1 7cbe
00000270: be77 b43c 0956 f43c e226 39be 6e26 7e3c
00000280: 3a04 8abd 0bab 7cbd a8ec 04bd ce43 adbd
00000290: b904 0d3d 4542 24be 33e9 173c fc29 32bd
000002a0: 9a13 fe3b bc0c 26bc 6ace e63c 506c d43c
000002b0: 5b8a 983d 5296 3fbd e06a 623c 376f afbc
000002c0: aeb0 c6bc cd59 2dbd 2643 003d aa8e a2b8
000002d0: 6e76 4d3d 133a 803e e1c5 4fbd 7183 42bd
000002e0: 0d2e f6ba 3ac3 593c a04d 293d dd8a 2b3e
000002f0: 19a7 afbd f522 27be 899f 233d c030 d63c
00000300: e95b 8f3d c24f fbbc c2f5 253d 10ab 4cbe
00000310: f162 903c a5ad 31bd c4ec babe dd74 08be
00000320: 3a3e 9c3d 0af1 293d d7d4 ec3c 237c a53c
00000330: 083d e03c bbfb b03d f69d 81bc ea10 423e
00000340: 90f6 52bc c32f a0bd 6ecc e3b9 3818 863e
00000350: ddd4 853d a53a ac3e 2ccb 203d 9b22 553d
00000360: fd47 4bbe eb99 68bd 32b2 b13d 62f1 87bc
00000370: 1f23 0f3e bd2d 56be 9751 d83d 4e87 6abd
00000380: 7248 3e3c e608 bd3c 4047 5cbd 7366 ab3c
00000390: f447 38be ebb8 25bd f9a9 b4bd a4c6 f6bd
000003a0: ff43 a5bd 3d1b f0bd a6aa 5c3c 0362 ab3c
000003b0: 3170 48be 7fa4 ea3c 00e7 4abd 7a0e e5bd
000003c0: eb2b 413a 1008 20bd ce71 ad3c 55e7 adbd
000003d0: f3dd a03c 5c34 893d a7dd 203c f449 e03c
000003e0: 4eb1 ad3d 5b1e c13d 2d9b 5fbe 9475 5d3d
000003f0: 1c21 14bd a8e8 2cbd 79a0 6e3d a99e 273d
0.015014011 -0.12353561 -0.044808075 0.28769794 0.15776396 0.20991403 -0.004835797 0.067846954
-0.03921896 0.016574139 0.03872906 0.085717954 0.16689737 0.001668666 -0.08134138 -0.091119386
0.06087491 -0.08128201 0.118823044 -0.03368886 -0.0721969 -0.042344455 0.040468376 0.09611777
0.0387141 0.0042617186 -0.23690511 -0.0034915267 -0.10167969 0.010431331 -0.08797905 -0.08006076
0.0102001745 -0.22316912 0.0050205467 -0.1309671 -0.014697489 -0.017760538 -0.057596102 -0.1176885
0.015983228 -0.14223541 0.036240954 -0.13707897 -0.024378885 0.087334126 0.03280581 0.021725744
-0.10230998 -0.050419215 -0.048882015 -0.12834735 0.0003876053 0.043516625 0.025270453 -0.06213548
-0.12479368 -0.060089365 0.1262497 -0.22184494 0.21714841 0.003556947 -0.11767414 -0.13886689
0.10732186 -0.043773558 0.19931789 -0.03302284 -0.0018116924 -0.022303285 0.0351785 0.01864791
-0.03933151 0.05343889 0.04565115 -0.006563889 0.055239066 0.05407283 -0.0025461467 -0.019951725
0.16053216 0.079356536 0.051343907 0.014291735 0.03410461 0.05567106 0.106521934 0.02128787
-0.0491456 0.024107048 0.02239438 0.077645674 -0.016301677 0.17138174 0.07132599 0.13806206
-0.011407201 -0.009060941 -0.1127298 -0.12614796 0.16135281 -0.053127117 -0.041329745 -0.026328478
0.03934928 0.011648898 -0.11914631 -0.104473315 -0.039375514 -0.08390021 -0.051141992 0.047265153
0.04379932 -0.0834153 -0.02332479 0.12606594 -0.085500196 0.2694288 -0.048646092 -0.0653782
-0.049634453 0.20764446 0.12837338 -0.035077017 0.17957118 -0.018067662 0.053998414 0.038732357
0.054863904 0.17586485 -0.072365515 -0.015104025 0.008429508 -0.07879797 -0.08768398 0.0415141
0.08854638 -0.064771555 0.10800276 0.0019235383 -0.18265702 -0.09797683 -0.0055558253 0.01021487
-0.093821816 0.14538878 -0.011576694 -0.06423089 -0.026410922 -0.0012238203 0.09942234 -0.11976014
0.08534933 0.066017985 -0.007320907 -0.24695277 0.022029754 0.029826181 -0.18081239 0.015512092
-0.067390874 -0.061686557 -0.032452255 -0.08460198 0.034428332 -0.16040905 0.009271908 -0.04349707
0.0077538015 -0.010134872 0.028174598 0.025930554 0.07448264 -0.046774216 0.013819426 -0.021415336
-0.02425417 -0.04232197 0.031314038 -7.751335e-05 0.05016177 0.25044307 -0.05072582 -0.047488634
-0.0018782035 0.013291175 0.041333795 0.16752191 -0.08576793 -0.16321929 0.039947066 0.026146293
0.06999952 -0.03067768 0.040517576 -0.1998713 0.017625304 -0.04337849 -0.36508763 -0.1332583
0.07629056 0.04148964 0.028910084 0.020200795 0.027372852 0.08641764 -0.015822392 0.18951765
-0.012876168 -0.0782161 -0.00043449126 0.26190352 0.06534741 0.33638492 0.03925626 0.052034955
-0.1985168 -0.056787413 0.08676566 -0.016594592 0.13978241 -0.20915885 0.10562437 -0.057257943
0.011613952 0.023075532 -0.053778887 0.020922875 -0.17996198 -0.040459555 -0.08821482 -0.120496064
-0.0806961 -0.11723945 0.01346842 0.020920759 -0.19574048 0.028642891 -0.049536705 -0.11184402
0.000736891 -0.03907019 0.02117243 -0.08491389 0.019637084 0.0669944 0.009818471 0.027379014
0.08481084 0.09429618 -0.21836539 0.05406721 -0.036164388 -0.042214066 0.058258507 0.040922794

actor_mean.0.bias f4 [256]
00000000: 98aa 9d3b b36e 3abc 8bc9 3cbc 5e74 1b3c
00000010: 8ab1 50bd eb8a 1e3d 9ace efbc ae3c 03bd
00000020: 43f2 f03c d645 6a3c 5a50 b7bc 844c 1bbd
00000030: 6d7a 233d ec22 d73c b941 2a3d c357 8c3c
00000040: e9f4 d8bb b0bb ff3c 064a 273c e9a7 ad3c
00000050: e916 873c 7d7e 94bd db3c c83c 16dd 2abd
00000060: 7d90 7f3c e220 c8bb dfbc ecbc f1f9 dfbc
00000070: bbcf 3dbb 964a 30bd b96f dbbc ff74 fbbb
00000080: 455d 2ebc 62be 913d bb8a 3f3d caaf 17bc
00000090: 559a 793d 265c 753d 7b59 643c 5bc5 dc3c
000000a0: ed21 07bb 8ff1 91bb 3e98 ed3c be62 21bd
000000b0: 7705 32bd 664b 51bd ba0c 62bc fe63 a63c
000000c0: 1d49 683d b05d 7d3d ca66 303d 5b19 c93b
000000d0: 841c 253d 3a75 4abd ba1b cbbc 0966 023d
000000e0: 2265 1cbd ce4a 0c3b 53a0 843c d8db a53c
000000f0: b359 87bc f60e 32bd 5ef8 b3bb 47f7 773c
00000100: 2110 d3bc 47c9 14bd 7b77 283d 820c 1e3d
00000110: c8eb 9ebc e2ff 13bd 20b3 1ebd 236c fa3c
00000120: 8d3e b7bb 7795 a7ba a34b 9e3c e944 88bc
00000130: 1dbb 873c 9897 473d c5c6 1ebc 2448 a03c
00000140: ebd3 3b3d caa8 653c 22ca 953c 1b74 ab3b
00000150: e714 80bc f4a2 36bd ebc7 883d d2e7 b53d
00000160: 1b48 52bb 4ae1 253d 8db1 f63c e262 5d3d
00000170: 797b fd3b e214 62bb d100 503a 51b0 4c3d
00000180: 6ec9 71bc 6a63 2fbc 2527 ad3d 97c3 103d
00000190: 13ce 233a 855b ce3c 4c8b 463d be55 55bc
000001a0: 888c c0bb 790e b6bc 242c b73b 140c 173d
000001b0: a083 06bc 3e1c 44bb b073 06bd 45e5 02bc
000001c0: 9629 2e3d 526e c63c 9ba8 c8bc 87b2 67bd
000001d0: 5af5 26bc 7d8f debc 4c48 d3bc 9556 a63c
000001e0: 60e1 0c3c 4bf4 95bc aea0 09bd 99ac aa3c
000001f0: e868 8bbc 661c ae3c 996e 74bc 77a8 14bb
00000200: 8090 b2bc c486 153d 4cf4 8e3c eb63 87bd
00000210: 6b8e 11bd 2a84 c2bc 2dc6 8d3c 3c00 a6bc
00000220: 855a 853d 89d4 1f3c 6bac aabc fbd7 8cbd
00000230: a1c8 003d 7e21 b4bd 3f7b 6a3c 4c0e 45bd
00000240: a31b b3bb cd77 0cbd e31a 773c 3bad 6d3c
00000250: 7176 c33c 2559 44bb 5d90 043d 74d1 6b3d
00000260: 2211 c6bc 99ff 0e3d 7cc0 bebd 3803 95bd
00000270: 9179 f4bb cafc 063c f3a1 bcbc efb5 bebc
00000280: 0d11 943c 3c14 1c3d 52c7 51bb 480f b1bc
00000290: 9178 03bc 2792 4dbc f2a3 f3bc aa7b 1cbd
000002a0: 07b1 083d f057 873b 3ba0 ae3b 268f ab3c
000002b0: a55a 223d 80b1 a83d e876 5939 2d62 3ebc
000002c0: d7cd 0e3d 2a02 0dbd 9933 24bb f2e7 993c
000002d0: 574a 56bc e215 973b e5a1 41bd 738f 953c
000002e0: cf7d bd3c 3059 293d c677 53bd 113f d1bc
000002f0: 3332 7cbc fe24 7fba dbae 573d 01d1 c2bc
00000300: d580 053d a758 acbc ddad 9bbc 574b 003d
00000310: 4993 4ebb 617d 97bc 0850 28b9 89e5 97bb
00000320: 1b90 163d 31d9 cd3c 60fc 1d3c 4543 babb
00000330: 471a 4cbd 2808 ecbc db62 0f3c f628 13bc
00000340: df08 96bd 40c0 403c f0a5 44bd 1a91 5bbc
00000350: a71a 44bb ab6e 053c 169d 1cbd 5ef8 743c
00000360: d894 c93c 01df d63c 1b2f 48bc 8dd8 caba
00000370: f31a a23b 2857 83bd 61ee df3c 2cf2 083d
00000380: 3e5c a3bc e7cb 7abd b171 6cbc 7d02 f7bb
00000390: 384f fabb 42c1 1cbd 2767 f83c a68f c6bb
000003a0: 1e27 d63c f711 8d3c 9427 303d 37f1 14bd
000003b0: fcc1 243d ffa7 1c3d 766a 0f3b ea9f c3bc
000003c0: e0c4 193c c316 7c3d 3cdc 633d 54a0 623c
000003d0: 2615 e3bb a2b7 5dbd 555a f6bc 217f e8bc
000003e0: 5a21 2c3d 2dfe abbd 721e 17bd 2618 593d
000003f0: bea8 bdbc 416c a33c ad90 43bd 6dcf 1dbc
0.004811596 -0.011378932 -0.011522661 0.009488193 -0.050950564 0.0387067 -0.02927332 -0.03204029
0.029412394 0.014298877 -0.022377182 -0.037914768 0.039911676 0.02626177 0.041566584 0.017131692
-0.0066209924 0.031217426 0.01021052 0.02119823 0.016490417 -0.07250688 0.02444308 -0.04171475
0.015598414 -0.0061074356 -0.028898655 -0.027340861 -0.0028962928 -0.04303988 -0.026786672 -0.007673859
-0.010642354 0.07116391 0.046763163 -0.00925822 0.060938198 0.059902333 0.013937349 0.026949575
-0.0020619587 -0.004453845 0.029003259 -0.03940081 -0.043462243 -0.051097296 -0.01379698 0.020311352
0.05671035 0.061856925 0.043066777 0.006137056 0.040310398 -0.049428202 -0.024793494 0.03183559
-0.038182385 0.0021406892 0.01618973 0.020246431 -0.016522264 -0.0434713 -0.005492254 0.015134639
-0.025764527 -0.036324766 0.04112957 0.038586147 -0.019399539 -0.0361327 -0.038745046 0.030569142
-0.0055921734 -0.0012785633 0.019323176 -0.016634421 0.016568715 0.048728555 -0.009690945 0.01956565
0.045856398 0.014017293 0.018284861 0.0052323467 -0.015634967 -0.044588998 0.06678756 0.08882107
-0.0032086435 0.040498056 0.03011396 0.05404938 0.0077356664 -0.003449731 0.0007934692 0.049972836
-0.014757497 -0.0107048545 0.08454732 0.03534278 0.0006248664 0.025190124 0.048472688 -0.013020931
-0.0058761276 -0.022223698 0.005589979 0.036876753 -0.008210093 -0.002992406 -0.032825172 -0.007989232
0.04252013 0.024222527 -0.02449446 -0.05656674 -0.010190332 -0.02716803 -0.02579131 0.020304957
0.008598655 -0.018304965 -0.0336005 0.020834254 -0.017017797 0.021253776 -0.014918947 -0.002268342
-0.021797419 0.036505476 0.017450474 -0.06610855 -0.03553621 -0.023744661 0.017306412 -0.020263784
0.06511406 0.009755262 -0.020834168 -0.068771325 0.031441335 -0.08795451 0.014311611 -0.048109338
-0.005465941 -0.03429394 0.015082094 0.014506633 0.023860188 -0.002996036 0.032364238 0.057572797
-0.024178091 0.034911726 -0.09314057 -0.072760046 -0.007460781 0.008238981 -0.023026442 -0.023280112
0.018074537 0.038105235 -0.0032009673 -0.021613732 -0.008024351 -0.012547052 -0.029741261 -0.038203873
0.03337195 0.004130356 0.0053291596 0.020942282 0.039637227 0.082369804 0.00020739029 -0.011620087
0.034864273 -0.034425892 -0.0025055169 0.018787358 -0.013079247 0.004610763 -0.047273535 0.018256878
0.02313128 0.04134482 -0.051627897 -0.025542768 -0.015392828 -0.00097329903 0.05265699 -0.023781301
0.032593567 -0.021038366 -0.019003803 0.03132185 -0.0031520894 -0.018492403 -0.00016051542 -0.004635517
0.036758523 0.025127979 0.00964269 -0.0056842887 -0.049829748 -0.028812483 0.008751596 -0.008981934
-0.07325911 0.011764586 -0.048009813 -0.013401294 -0.0029923113 0.008144061 -0.038235746 0.0149517935
0.024607107 0.026229383 -0.012218262 -0.0015475914 0.0049470603 -0.06413108 0.027335348 0.033434078
-0.019941445 -0.061229613 -0.014431403 -0.0075381384 -0.007638838 -0.038270243 0.030322624 -0.0060596047
0.0261417 0.01722048 0.043006495 -0.036362853 0.04022406 0.03824615 0.0021883524 -0.023879964
0.009385318 0.061545145 0.055629954 0.0138321705 -0.0069300113 -0.054130204 -0.03007237 -0.028380932
0.042023994 -0.083980896 -0.03689427 0.053001545 -0.023151752 0.01994908 -0.047745395 -0.009631974

actor_mean.2.weight f4 [256, 256]
00000000: 318e c9bc 2b21 b53c 0def 64bd 2b93 3cbd
00000010: 075b f93d 48f1 d1bd 87dc 7d3d 7ba5 0b3e
00000020: fcff 743c b29b 0dbe 259f 7a3d 3fb9 803e
00000030: 6f4d 2b3e ac5e 983d 4738 fcbc 14a6 30be
00000040: 0c34 5ebd 4e91 963d c7d0 0b3e b474 70bd
00000050: e1f0 f53c bf2c d03d d140 a53c 54c3 1abc
00000060: 9a13 cfbd 31cd 5fbd d1c1 533e 9ae0 94bc
00000070: 9c39 583c c687 e33d 585b 10bd efcd f6bd
00000080: a4f2 213d 8356 17bd be9c ff3d 552b 1a3c
00000090: f569 203d dd6a 863b 8424 d7bd 122f f13d
000000a0: 31a5 1c3e 458c 9b3d 230c b93d c162 f7bd
000000b0: da88 d13a 655d de3c 9ccd fa3c 27c3 203e
000000c0: 981b 46bd e807 db3d e2b9 b83d 0253 093d
000000d0: 6693 aabc d22e 313d 7fc2 083b 683e 6c3d
000000e0: 5b2c 763d 7661 373d f7ab ae3c 8836 633d
000000f0: eaa4 ecbd bdb3 64bd aef8 40bd 1f4d 9e3d
00000100: 03f5 b8bb b7b9 4e3e f08d b6bd dc92 4d3e
00000110: d968 dd3d b214 adbd 46c3 3dbe 5e91 d4bd
00000120: 22cf 32bd bd07 8a3d 2e55 0bbd d60e a3bd
00000130: 57d0 283e 8a00 bf3d 3b2c d7bc 41a3 b5bc
00000140: e31c 693e 8096 6c3c 528d 1abe 7d11 6fbd
00000150: 3d4c dbbd 8bcf dcbd 3f1e 35be 0b4d 073d
00000160: aba6 8bbd ed63 043b bff8 843d c3a5 30bd
00000170: 66ba c1bb 4df0 2ebd bd53 cc3d 292c b33d
00000180: bf18 b13d 2ed0 4fbb 7eda a1bd b27b 80bd
00000190: a6d0 56bd 4a50 febd a5c3 633d 46c1 e5bd
000001a0: e3cd 983d 548a 1cbd c782 883d 663e 2a3d
000001b0: 8f16 82bd 0a89 8dbb 029c b4bc 9f03 92bd
000001c0: b963 903c 55b4 cc3d 7f6d cfbc fcb8 863d
000001d0: 5f90 c3bc 6d72 6c3c b092 6fbd 7586 18be
000001e0: 15a9 1abd 02af a93c 579d 5bbd 346b 98bd
000001f0: d680 50bd 954b e9bd 724a 03be 0193 2abc
00000200: 8699 de3c 6c35 213e a9de 8bbd dba1 013d
00000210: fe00 833d 0edb ff3c 5173 86be f13d 4bbd
00000220: e297 94bd c6b3 4fbd 599d e63d af1a 62bd
00000230: 4b03 ee3d 098e 1e3d 3214 16bd 142b 7a3c
00000240: 441b bdbd 3d8a 8abd 529b d4bd b8f0 20bd
00000250: b91d 9abd b4ad e9bd fdf1 9ebd 2446 37bd
00000260: 08fd dcbc d55d a83a 0ac8 b1bd e094 83bc
00000270: f4ca fe3d f8c3 6d3d b67e 403d ae37 04be
00000280: b279 f23d aba0 68bd 0f7e 32bc d2cb d3bd
00000290: 6482 c2bd 0ca3 a3bd dab7 e7bd b46a 053d
000002a0: ef32 d43d 5fc8 b63d 1fc1 b6bd 269d a8bc
000002b0: 8485 503c b947 e33d 112f c93c 08a9 413d
000002c0: 44c0 c7bb 2fcb 973c bb1b 8f3c d2b8 223d
000002d0: 3498 2b3e 4de9 5f3e ecaf 9ebd 34c0 90bd
000002e0: 2620 44be 47e8 e6bd 4bed b83d 4501 2c3b
000002f0: 9606 06bd cd32 813c 0c50 2f3d ddb8 d1bc
00000300: 1dcd e2bd 25bc 79bd 3f45 b5bc dfe1 e3bc
00000310: 6b21 bc3c 8601 c83c 99a3 4bbd 0ddc c63c
00000320: c14f 8d3d d8c6 663d 0e5b 69b9 9b40 7d3b
00000330: caef e5bc b3bb 393e e653 743b c664 b3bd
00000340: c2b9 09bd 876e 9bbd 315a 8b3e c8fe f83c
00000350: 2d69 c33c bf40 a93c 6f9a 6c3d 441b 4a3d
00000360: 294d 583d cfb5 c33d 2dab b73d a3c6 d5bd
00000370: 6062 1bbe 88a3 87bd 8066 23be 4b0e 8cbd
00000380: fbe5 073e 50f7 3d3d 391f 0b3e 96c3 023d
00000390: df2a 773e 36b2 41bd 4266 3f3d f341 ae3d
000003a0: 2e00 c33d 47ed e53c 5994 4c3d 86ec f2bd
000003b0: c5c7 6c3d 42aa 883d 5fd2 993d e360 4dbd
000003c0: 25cf b13d c257 d1bc e2a1 9f3b 4c45 4cbe
000003d0: 6f2c 9a3c 19ce 5c3d aaa1 51bd 1421 b3bc
000003e0: ca68 dbbd 5f09 6ebd e7e9 9e3b e30b cfbc
000003f0: fcb8 13be d9c7 3f3d f8fe fe3c e77f 613d
-0.024603935 0.022110542 -0.05589204 -0.046038788 0.12175565 -0.10251099 0.06197789 0.13637345
0.01495361 -0.13828924 0.06118693 0.25141332 0.16728757 0.07439932 -0.030788554 -0.17250854
-0.054248855 0.073519334 0.13653861 -0.058705047 0.030022087 0.10164785 0.020172508 -0.009445984
-0.101111606 -0.054639045 0.20679404 -0.018173505 0.013197329 0.11109881 -0.035243362 -0.120509975
0.03953804 -0.03694774 0.12481068 0.009409745 0.03916355 0.0041020946 -0.10505012 0.11776556
0.1529739 0.07595114 0.09035518 -0.12079383 0.001598622 0.027144143 0.03061562 0.15699445
-0.04836616 0.10694867 0.09019829 0.033526428 -0.020822238 0.043257542 0.0020867882 0.057676703
0.060100894 0.04477068 0.021322234 0.055471927 -0.11554892 -0.055835474 -0.04711216 0.077295534
-0.005644442 0.20188032 -0.08913791 0.20075554 0.10811014 -0.08451213 -0.18531522 -0.10379289
-0.04365457 0.06739757 -0.03401678 -0.07961814 0.16485725 0.09326275 -0.026266208 -0.022172572
0.22764926 0.014440179 -0.15092972 -0.058366287 -0.10707901 -0.10781773 -0.17687319 0.03303246
-0.06818899 0.0020201162 0.06492757 -0.043126833 -0.005912113 -0.042709637 0.09976909 0.08748657
0.08647298 -0.0031709778 -0.07903002 -0.06273593 -0.052445076 -0.12417658 0.055606503 -0.112185046
0.07461145 -0.038217857 0.06665569 0.041563414 -0.06351959 -0.004319315 -0.022047047 -0.07129597
0.017625676 0.09995333 -0.025320766 0.06578252 -0.023872552 0.014431578 -0.0584895 -0.14895041
-0.037758905 0.020713333 -0.053616848 -0.074423224 -0.050904118 -0.11391369 -0.12821367 -0.010411025
0.027172815 0.15743035 -0.068295784 0.031648498 0.063966736 0.031232383 -0.26259854 -0.04961962
-0.07255532 -0.050708555 0.112604804 -0.05520123 0.11621722 0.038709674 -0.036640354 0.01526906
-0.09233716 -0.06764648 -0.103811875 -0.039292067 -0.075252004 -0.11410084 -0.07760999 -0.044744626
-0.026976123 0.0012845347 -0.086807325 -0.0160622 0.12441054 0.05804822 0.04699584 -0.12911865
0.11839618 -0.05679385 -0.0108943125 -0.1034161 -0.09497526 -0.07990083 -0.11314364 0.032572463
0.10361277 0.089249365 -0.08923554 -0.020582747 0.012727145 0.110976644 0.024558576 0.04728034
-0.006095918 0.018529503 0.017469278 0.03972704 0.1675728 0.21866341 -0.07748398 -0.0706791
-0.19152889 -0.11274772 0.09029635 0.0026245874 -0.032721125 0.015771294 0.042800948 -0.025600845
-0.110742785 -0.060970444 -0.022127746 -0.027817665 0.022965154 0.024414789 -0.049716566 0.02427485
0.068999775 0.056341976 -0.00022254532 0.0038643244 -0.028068442 0.18138008 0.0037281453 -0.087594554
-0.033624418 -0.07589441 0.27217248 0.030394927 0.023853863 0.020660756 0.057764467 0.04934241
0.05280796 0.095561616 0.08968196 -0.104382776 -0.15174246 -0.06622988 -0.1595707 -0.06838664
0.13271324 0.046378434 0.13586129 0.031924807 0.24137448 -0.047289096 0.04672838 0.085086726
0.09521519 0.028067244 0.049946163 -0.118615195 0.057807703 0.06673099 0.07510828 -0.050141227
0.08682088 -0.025554541 0.004871593 -0.1994831 0.018820016 0.053907488 -0.051179565 -0.021866359
-0.10713346 -0.058114406 0.0048496607 -0.025274223 -0.14426035 0.04682145 0.031127438 0.055053618
