mete_aerial_gym_simulator/rl_training/cleanrl/runs/quad__ppo_continuous_action__1__1688401673/latest_model.pth (torch, 564158 bytes, 12 tensors)

actor_logstd f4 [1, 4]
0	0xbea61c26	-0.3244335
1	0xbea8bc62	-0.32956225
2	0xbdd1a24e	-0.10236035
3	0xbd4112a2	-0.04713691

critic.0.weight f4 [256, 13]
0	0x3dcb169e	0.09916423
1	0xbd02f548	-0.0319722
2	0xbe365f92	-0.17809895
3	0x3ea76a90	0.32698488
4	0xbf300d48	-0.68770266
5	0xbde9126b	-0.11380466
6	0xbe3df403	-0.18550114
7	0xbdd35806	-0.103195235
8	0x3d364f58	0.04450926
9	0xbca3f800	-0.020015717
10	0xbd50eecb	-0.05100898
11	0xbde51394	-0.11185375
12	0x3d797333	0.06090088
13	0xbcffe5ed	-0.031237567
14	0x3d733819	0.05937967
15	0x3e5bdd36	0.21471104
16	0x3e06be4f	0.13158534
17	0x3eac7458	0.33682513
18	0x3ec5fd23	0.3866969
19	0x3d3ef2a9	0.046618138
20	0x3dbf6320	0.093450785
21	0x3dabb068	0.08383256
22	0x3d926a72	0.07149209
23	0xbd98980d	-0.074508764
24	0x3dc47e47	0.09594398
25	0x3c8d8f40	0.017280221
26	0x3db2e175	0.08734409
27	0xbe396b32	-0.18107298
28	0x3b22fa1c	0.0024868315
29	0x3f08814c	0.5332229
30	0x3ed7b43f	0.42129704
31	0x3bda8327	0.0066684666
32	0x3e0c3362	0.13691476
33	0x3d8adf1a	0.067808345
34	0xbe438075	-0.19091971
35	0xbdcc2861	-0.09968639
36	0x3d07358e	0.033010058
37	0x3d55f046	0.052231096
38	0xbcf2f71d	-0.029658848
39	0x3d2f7e21	0.042844895
40	0x3dcffa55	0.10155169
41	0x3d7cd48f	0.06172615
42	0xbf573d5a	-0.8407799
43	0xbdeece62	-0.11660458
44	0xbf182e55	-0.594457
45	0xbe678477	-0.22609125
46	0xbba16b4d	-0.0049261213
47	0x3d8cf673	0.06882944
48	0xbd1036ab	-0.035208385
49	0x3beb51a1	0.007181362
50	0x3c78e7ad	0.015191955
51	0xbcc6c1dc	-0.024262361
52	0xbd0f55c5	-0.034993906
53	0x3e82f64a	0.2557853
54	0x3c31e0ef	0.010856851
55	0xbf4a3afb	-0.7899625
56	0xbdc5db51	-0.09660972
57	0xbe85c727	-0.26128504
58	0xbe221485	-0.1582814
59	0xbdd2e92b	-0.102983795
60	0x3d6bf4a8	0.05760637
61	0x3e114467	0.1418625
62	0xbd343168	-0.04399243
63	0xbb0da7f1	-0.0021614993
64	0x3d17889b	0.03699551
65	0x3d8f5d40	0.07000208
66	0x3ebf5e92	0.3737684
67	0xbd605975	-0.054772813
68	0x3ef043db	0.4692677
69	0x3f1235c2	0.5711328
70	0xbdbf7eab	-0.09350332
71	0xbe8cef73	-0.27526435
72	0x3dfc49ee	0.123187885
73	0xbd611ce4	-0.054959193
74	0x3da24d17	0.0792486
75	0x3d92291a	0.07136746
76	0x3e00f6a6	0.12594089
77	0xbde9329d	-0.11386607
78	0x3e2e092a	0.16995683
79	0xbe18a92d	-0.14908285
80	0x3d9e0a42	0.077168
81	0xbd2a8a85	-0.04163601
82	0x3e9cc4e1	0.30618957
83	0xbd8e273f	-0.06941079
84	0xbd903ce3	-0.07042863
85	0x3da1699d	0.07881472
86	0xbbeaa039	-0.0071602133
87	0x3e03c02a	0.12866274
88	0xbc2a4e3b	-0.010394628
89	0x3d0156b7	0.03157684
90	0x3aad1d4b	0.0013207583
91	0x3e866a5a	0.26253015
92	0x3de12004	0.109924346
93	0x3ba839b9	0.005133834
94	0xbe83a1bb	-0.25709328
95	0x3d1120b4	0.03543158
96	0xbf190d52	-0.5978595
97	0xbe5cd3f2	-0.21565226
98	0x3d8575f3	0.06516638
99	0x3bc2890d	0.005936748
100	0xbc8ca51f	-0.01716858
101	0x3d6a167e	0.057150356
102	0xbcb53d00	-0.022123814
103	0x3e078ced	0.13237353
104	0xbe2b0823	-0.16702323
105	0x3e550e05	0.2080613
106	0xbd5fbf18	-0.0546256
107	0x3f46021d	0.77346975
108	0x3bb9e51e	0.005673065
109	0x3e8c8be7	0.27450487
110	0xbe26e0df	-0.16296719
111	0x3db89d5c	0.09014389
112	0xbdab849e	-0.08374904
113	0x3e05e15e	0.13074252
114	0x3d930be0	0.07179999
115	0xbd825e66	-0.06365661
116	0x3e142932	0.1446884
117	0xbd8c4146	-0.068483874
118	0x3d2e9c02	0.04262925
119	0x3e0d01e5	0.13770254
120	0xbd9806a1	-0.07423139
121	0xbf02a21d	-0.51028615
122	0x3e48acd8	0.19597185
123	0xbe6372be	-0.2221174
124	0xbe0331af	-0.12811922
125	0x3d0cc771	0.03436989
126	0x3cdf5bb5	0.027265409
127	0xbcd5e223	-0.026108807
128	0xbc8e0efe	-0.017341133
129	0x3d972cbe	0.07381581
130	0xbebd5a6a	-0.36983043
131	0xbe1e599f	-0.15463875
132	0xbe077b4f	-0.13230632
133	0x3e010c70	0.12602401
134	0x3d87c1a7	0.06628733
135	0x3f00cf08	0.50315905
136	0x3e7add74	0.2449854
137	0x3ca6050e	0.020266082
138	0x3cbbcc31	0.022924514
139	0x3c9ddd04	0.019270428
140	0xb9dd9a5c	-0.00042267411
141	0x3de542c6	0.11194377
142	0x3dcdfb8e	0.10057746
143	0xbe6aa5cc	-0.22914809
144	0xbe9b4f5f	-0.30333993
145	0x3e555a45	0.20835216
146	0x3eb4f05b	0.35339627
147	0xbf36bfb5	-0.7138627
148	0x3f316d1c	0.6930711
149	0x3de94682	0.113904014
150	0xbd8e36f5	-0.06944076
151	0x3d00154c	0.03127031
152	0x3db1fc3d	0.08690689
153	0xbd84cc26	-0.06484251
154	0xbd35bd19	-0.04436979
155	0xbdfc4484	-0.12317756
156	0xbd2f1ee8	-0.042754084
157	0x3e509e0e	0.20372793
158	0x3e31f307	0.17377864
159	0x3f44e1de	0.76907146
160	0xbe8821f4	-0.26588404
161	0x3e11b0ed	0.14227648
162	0xbde0ca96	-0.1097614
163	0xbc1435ce	-0.009046031
164	0x3d8c5eb6	0.06854002
165	0x3d9cf0b3	0.07663097
166	0x3b34533b	0.002751543
167	0xbc941a08	-0.018078819
168	0x3bc0d0af	0.005884252
169	0x3dd89573	0.1057538
170	0x3dd5106b	0.10403522
171	0x3d83c52f	0.06434094
172	0xbf4bd013	-0.7961437
173	0x3e62f251	0.22162749
174	0x3d523ccd	0.051327515
175	0xbcf7a581	-0.030230286
176	0x3d7ac8ca	0.061226644
177	0x3df6945c	0.12040016
178	0x3e549cc4	0.20762926
179	0xbe387ecc	-0.18017119
180	0x3e02131f	0.12702607
181	0xbd7f2d9a	-0.06229935
182	0x3d1a1162	0.037614234
183	0x3e52b847	0.20578109
184	0xbb9149ea	-0.00443386
185	0xbd9b4175	-0.07580844
186	0xbe9fdfa4	-0.31225312
187	0xbea4963d	-0.32145873
188	0xbe256c0b	-0.16154496
189	0x3c78cfbb	0.015186246
190	0x3dffd29e	0.12491344
191	0x3cc88ad5	0.024480263
192	0xbcd32cc7	-0.025778187
193	0xbccad073	-0.0247576
194	0xbb6ca172	-0.003610697
195	0x3a69ad50	0.000891407
196	0x3e9189e7	0.28425524
197	0xbda3a2a5	-0.07990006
198	0xbe0f3f8f	-0.1398909
199	0x3f16ff57	0.5898337
200	0xbefed5dd	-0.4977254
201	0xbe0c5e63	-0.1370788
202	0x3d136bc4	0.035991445
203	0x3da4274a	0.08015306
204	0x3ce3988f	0.027782707
205	0x3e07e298	0.13270032
206	0x3d6e5098	0.05818233
207	0xbd9c1486	-0.07621102
208	0xbe2ffed2	-0.1718705
209	0x3dbcdca5	0.09221772
210	0x3dfa1e1e	0.12212776
211	0xbeed713c	-0.46375453
212	0xbec281b1	-0.37989572
213	0x3e02d857	0.1277784
214	0xbe4a8ec8	-0.19781029
215	0xbd7b1ac1	-0.06130481
216	0x3df23304	0.11826137
217	0x3d166655	0.036718685
218	0xbda64aeb	-0.08119758
219	0xbbcd6d3e	-0.006269126
220	0x3d0e702b	0.03477494
221	0x3e0bc470	0.13649154
222	0x3e55e446	0.2088786
223	0x3dcebf07	0.10095029
224	0xbe726082	-0.23669627
225	0x3e33e332	0.17567137
226	0xbecd6837	-0.40118572
227	0xbe9c251f	-0.3049707
228	0x3cc0ac70	0.023519725
229	0x3c16dd1e	0.009207992
230	0xbc5cb926	-0.013471877
231	0x3bca3658	0.006171029
232	0xbd4bd750	-0.049765885
233	0x3e94c7a9	0.2905858
234	0x3e6ebde6	0.23314628
235	0xbecf0348	-0.4043219
236	0xbda26fbf	-0.0793147
237	0x3efdd8fc	0.49579608
238	0x3e30e694	0.17275459
239	0x3e24ea73	0.1610506
240	0x3dd4001d	0.10351584
241	0x3d455590	0.048177302
242	0xbe251f2f	-0.16125177
243	0xbd23d6a6	-0.039999627
244	0x3cea17e2	0.028575841
245	0x3cb29290	0.021798402
246	0xbd1291a8	-0.03578344
247	0x3e846bc8	0.2586348
248	0xbea27a33	-0.31733856
249	0x3e65ddb2	0.22447851
250	0x3e007be6	0.12547264
251	0x3ed7560f	0.42057845
252	0xbe21dced	-0.15806933
253	0x3d00c529	0.031438027
254	0x3c66b6be	0.014081655
255	0xbdede278	-0.11615461

critic.0.bias f4 [256]
0	0xbdfcf611	-0.12351621
1	0x3cb2cc2b	0.02182587
2	0x3db52a67	0.08845978
3	0xbe12b388	-0.14326298
4	0xbd81c3b3	-0.06336155
5	0xbdddf8e5	-0.108384885
6	0xbdb009c2	-0.08595611
7	0xbdc29b53	-0.09502282
8	0xbdd48a7f	-0.103779785
9	0xbd32e6a6	-0.043676995
10	0x3e0fc836	0.14041218
11	0x3d8631bf	0.06552457
12	0xbc80a566	-0.015703868
13	0xbade64bd	-0.0016967278
14	0xbdab3b32	-0.083609
15	0xbd3691c9	-0.044572625
16	0xbd844a01	-0.064594276
17	0xbdc1998b	-0.09453114
18	0x3d17f0f2	0.037095018
19	0xbd494a92	-0.04914338
20	0x3d8673d6	0.06565063
21	0xbe068174	-0.1313532
22	0xbe3578e8	-0.17721903
23	0xbe0b860c	-0.13625354
24	0xbdda26b3	-0.106519125
25	0xbdb8fa72	-0.09032144
26	0x3daab190	0.083346486
27	0xbc761ba0	-0.015021235
28	0x3e19d947	0.15024291
29	0x3ce1eacc	0.02757778
30	0xbd8b9865	-0.06816176
31	0xbe002740	-0.12514973
32	0x3dbc00f2	0.09179868
33	0xbdeca218	-0.115543544
34	0xbd618a4c	-0.05506353
35	0x3dc86609	0.09785087
36	0xbe490119	-0.19629325
37	0xbda34d87	-0.079737715
38	0xbd7fadd7	-0.062421646
39	0xbe5a1c7b	-0.21299927
40	0xbde2684a	-0.11055048
41	0xbe1a2518	-0.15053213
42	0xbddd7699	-0.10813636
43	0xbb0fa887	-0.0021920518
44	0xbd583a3f	-0.052789923
45	0xbdab2d25	-0.0835822
46	0x3daded7f	0.084925644
47	0x3deb86ae	0.115002975
48	0x3e0186e4	0.12649113
49	0x3e847edc	0.25878036
50	0xbdf24cbb	-0.118310414
51	0x3dbc13b7	0.09183448
52	0xbda2df0d	-0.079527
53	0xbcde8877	-0.02716468
54	0xbd4197c4	-0.047263876
55	0x3d0ac94a	0.03388337
56	0xbd2a0fe3	-0.041519057
57	0xbe4032d7	-0.18769394
58	0x3c8c90fa	0.017158974
59	0xbd0955db	-0.033529144
60	0xbd70f089	-0.058823142
61	0x3c6b6a44	0.014368597
62	0xbd2c1464	-0.042011634
63	0xbd4c8585	-0.04993202
64	0x3db990b4	0.09060803
65	0xbe023f0c	-0.12719363
66	0x3d15b708	0.036551505
67	0xbda87f85	-0.082274474
68	0x3d9b5e76	0.07586376
69	0xbd6ba075	-0.05752607
70	0xbc711150	-0.0147136
71	0x3ddc240d	0.10749064
72	0x3e0c2029	0.13684143
73	0xbddfb8f4	-0.10923949
74	0xbda1bd4e	-0.07897435
75	0xbd803d51	-0.06261695
76	0x3d6e25c5	0.05814149
77	0xbdb53283	-0.08847525
78	0xbd7247be	-0.05915045
79	0xbdeb0dd1	-0.11477245
80	0xbd9a35b2	-0.07529773
81	0xbdff9675	-0.12479869
82	0xbd127144	-0.03575255
83	0xba018f51	-0.0004942315
84	0x3d1d709f	0.038437482
85	0x3e170a22	0.14749959
86	0xbe0f28d6	-0.13980421
87	0x3d613606	0.05498316
88	0xbd0a5b13	-0.03377826
89	0xbce6ef9f	-0.028190432
90	0x3d782016	0.060577475
91	0x3da0d8fe	0.07853888
92	0x3da58c61	0.08083416
93	0xbe0ea80b	-0.13931291
94	0xbd569081	-0.052383903
95	0xbd5bed6d	-0.053693224
96	0x3e11f789	0.14254583
97	0xbdd10ce0	-0.10207534
98	0xbb9c2417	-0.0047650444
99	0x3dbd170c	0.092329115
100	0x3dbc6013	0.09198012
101	0x3dafc758	0.08582944
102	0x3e087331	0.13325192
103	0x3c2c2977	0.010507933
104	0xbe0e6108	-0.13904202
105	0x3d08bb68	0.03338185
106	0xbd48da5a	-0.04903636
107	0xbccc40f7	-0.024933321
108	0xbd8297e5	-0.06376628
109	0x3c51b9f3	0.012800681
110	0xbd4bf8e8	-0.049797922
111	0xbdac45bb	-0.084117375
112	0xbdfb436a	-0.122687176
113	0x3cae3f96	0.021270555
114	0x3d8ea504	0.06965068
115	0x3c938e8a	0.018012304
116	0x3e30746f	0.17231916
117	0xbceecb75	-0.02914975
118	0x3d819458	0.063271224
119	0xbe167c1b	-0.1469578
120	0x3e12ac17	0.1432346
121	0x3d465de5	0.04842939
122	0xbd310779	-0.043220017
123	0x3bd87158	0.0066053085
124	0x3cf63db9	0.030058729
125	0x3dd254c4	0.10270074
126	0xbd9aa137	-0.075502805
127	0xbd78859a	-0.060674287
128	0x3dfbbcdb	0.12291881
129	0x3e13797c	0.14401811
130	0xbd5870db	-0.052842002
131	0x3df89720	0.121382
132	0xbdef2551	-0.116770394
133	0x3cceb5db	0.0252332
134	0x3bc3c200	0.0059740543
135	0xbdf1b06e	-0.118012294
136	0x3d6fb283	0.05851985
137	0xbe028596	-0.12746271
138	0xbd0e8137	-0.034791198
139	0xbe0561f6	-0.1302565
140	0xbdcfa8dd	-0.1013963
141	0x3d85d6b2	0.065350905
142	0xbd4ea120	-0.05044663
143	0xbcd23010	-0.025657684
144	0x3de5c6ed	0.11219583
145	0xbdb96cca	-0.09053953
146	0x3bc4581f	0.00599195
147	0xbdb04ada	-0.08608027
148	0xbd9065bb	-0.070506535
149	0xbe3ed91e	-0.18637511
150	0x3cc8b915	0.024502316
151	0xbdbd554b	-0.09244784
152	0xbd9f5661	-0.07780147
153	0xbde7c488	-0.11316782
154	0x3d30690b	0.043068927
155	0x3e060345	0.13087185
156	0x3c10a951	0.008829431
157	0x3dab6a7d	0.083699204
158	0xbd061585	-0.032735366
159	0x3d9f8718	0.07789439
160	0x3e25ae69	0.16179813
161	0xbdc2ada0	-0.095057726
162	0x3b09bf32	0.0021018502
163	0x3ddb6776	0.10713093
164	0x3c74f68f	0.014951362
165	0xbe016122	-0.1263471
166	0xbd98f62d	-0.07468829
167	0xbe041200	-0.12897491
168	0xbe078a9d	-0.1323647
169	0xbdf7efbc	-0.121062726
170	0x3db6043b	0.08887526
171	0xbcc3e422	-0.023912493
172	0x3e0d51dd	0.1380076
173	0xbda5caa4	-0.08095291
174	0xbde469ba	-0.11152978
175	0x3d905bfc	0.070487946
176	0x3ccd963c	0.025096051
177	0x3dc7a786	0.097487494
178	0x3d712d83	0.058881294
179	0x3c77ce65	0.015124892
180	0xbdb9bfbf	-0.09069776
181	0xbd845bd5	-0.06462828
182	0x3c422077	0.011848561
183	0xbd5d200c	-0.05398564
184	0xbdfd564d	-0.12369976
185	0xbd60d4b2	-0.054890342
186	0xbe2cc72a	-0.1687285
187	0xbd0858a1	-0.033287648
188	0xbd66df29	-0.056365166
189	0x3dd2c434	0.10291329
190	0x3c6f3f2b	0.014602463
191	0xbc533cc2	-0.012892904
192	0xbd999cec	-0.075006336
193	0xbe379b24	-0.17930275
194	0x3d29a06f	0.041412767
195	0x3e3ebc90	0.18626618
196	0xbdd71b8e	-0.105033025
197	0xbe3c3084	-0.18377882
198	0x3e16f943	0.14743523
199	0x3dc505df	0.096202604
200	0x3dc5d47c	0.09659669
201	0x3c4d625d	0.012535659
202	0x3db101aa	0.086428955
203	0x3dcef986	0.101061866
204	0xbde8584f	-0.113449685
205	0x3d90d69d	0.07072184
206	0xbe1ed402	-0.15510562
207	0xbdf65529	-0.12027962
208	0xbd7f4ef0	-0.06233114
209	0x3dbde0c9	0.0927139
210	0x3e05343d	0.13008209
211	0xbd2dd297	-0.042437162
212	0x3d82cacc	0.06386337
213	0x3db840c6	0.089967296
214	0x3de38cfa	0.111108735
215	0x3c9d1bf4	0.019178368
216	0x3dc1a9a2	0.09456183
217	0xbda7f74e	-0.082014665
218	0x3c9ac97a	0.0188949
219	0xbd341343	-0.043963682
220	0xbdb8a607	-0.09016042
221	0x3bee0b14	0.007264504
222	0xbb203376	-0.0024444736
223	0xbd99249f	-0.07477688
224	0x3da7095b	0.08156081
225	0xbd78e2e2	-0.060763247
226	0x3dca52b2	0.09879054
227	0xbe101886	-0.14071855
228	0xbcfd8977	-0.030949337
229	0xbe205103	-0.15655904
230	0x3c494204	0.012283806
231	0xbd66b74f	-0.05632716
232	0xbd2711e5	-0.04078855
233	0x3d05b0d0	0.032639325
234	0xbe143e05	-0.14476784
235	0xbd94c4ca	-0.07264097
236	0x3dbb243f	0.09137773
237	0xbdf7fb54	-0.12108484
238	0xbd6522f4	-0.055941537
239	0x3d5db6fa	0.05412958
240	0x3c82dcc0	0.015974402
241	0xbd4894d2	-0.04897005
242	0xbbbeb508	-0.0058199205
243	0x3e1253de	0.14289805
244	0x3b670bfa	0.0035254941
245	0xbe13ba26	-0.14426479
246	0xba736290	-0.00092844013
247	0x3d057d6d	0.03259032
248	0xbd94a07b	-0.07257172
249	0x3c9a93de	0.018869337
250	0xbd4714df	-0.04860389
251	0x3e2bb0e8	0.16766703
252	0xbd87fa4c	-0.06639537
253	0x3d974e78	0.073880136
254	0xbd702929	-0.058633003
255	0xbd6e4c7e	-0.058178417

critic.2.weight f4 [256, 256]
0	0xbde30090	-0.11084092
1	0xbcc92f4b	-0.024558684
2	0x3e061f07	0.13097773
3	0xbddf25cb	-0.1089588
4	0xbe66f108	-0.22552884
5	0xbd79a689	-0.060949836
6	0xbd9dd346	-0.07706313
7	0xbb91cd0e	-0.0044494933
8	0xbe233b2c	-0.15940541
9	0xbd4973f9	-0.049182866
10	0x3d083be9	0.03326026
11	0xbe1ea22a	-0.15491548
12	0xbde1e790	-0.11030495
13	0xbe3b3ea4	-0.18285614
14	0xbe0fd6f8	-0.14046848
15	0x3d7e8798	0.06214103
16	0xbe4b29bf	-0.19840144
17	0xbd3656d8	-0.044516414
18	0xbd011803	-0.03151704
19	0x3de8e65c	0.113720626
20	0x3ce49832	0.027904604
21	0xbca830a4	-0.020531006
22	0xbde4c0e0	-0.111696005
23	0xbcf4ac94	-0.029867448
24	0xbe8708e7	-0.2637398
25	0xbca1b600	-0.019740105
26	0x3cc24ca4	0.023718186
27	0xbe910de5	-0.28330913
28	0x3e1fff07	0.15624629
29	0x3e0fcebf	0.14043711
30	0xbd11c2d2	-0.035586186
31	0x3bb1219f	0.0054056193
32	0xbd911221	-0.07083536
33	0xbd057aa9	-0.03258768
34	0xbc7d89a0	-0.015474707
35	0x3db2dc98	0.08733481
36	0xbd97786b	-0.07396015
37	0x3ca4148d	0.02002933
38	0x3dc16fca	0.0944515
39	0xbc3906d6	-0.011293134
40	0xbe493f87	-0.1965314
41	0x3b2e71bf	0.002661809
42	0xbb83b8a9	-0.004019816
43	0x3df42f19	0.11923046
44	0xbdd886e3	-0.105726026
45	0xbdd51479	-0.104042955
46	0x3c401efb	0.011726136
47	0xbc38ffb8	-0.011291437
48	0xbe1001aa	-0.14063135
49	0x3e1e10cb	0.15436094
50	0xbd79b153	-0.060960125
51	0x3df64265	0.120243825
52	0xbdec55b6	-0.115397856
53	0xbd5847a5	-0.0528027
54	0xbe7641a7	-0.24048482
55	0x3de4c301	0.111700065
56	0x3d5a8042	0.053344972
57	0xbdd83116	-0.105562374
58	0xbd9c2a4a	-0.076252535
59	0xbcd34d06	-0.025793564
60	0xbe25cfdc	-0.16192573
61	0x3ca1e575	0.019762734
62	0x3dc78887	0.097428374
63	0x3e4c8c10	0.19975305
64	0x3e74e5e2	0.23915818
65	0x3d067a1c	0.032831296
66	0x3e79c32d	0.2439086
67	0xbdeda125	-0.116030015
68	0x3ca70e44	0.020392545
69	0x3d780b91	0.060557906
70	0x3e33aa4d	0.17545433
71	0x3ea184c2	0.315466
72	0xbd3ff775	-0.046866853
73	0xbe6f5a6f	-0.23374341
74	0xbdec7ab5	-0.11546842
75	0xbe9a0deb	-0.30088744
76	0x3c6f51ef	0.014606937
77	0xbda42086	-0.08014016
78	0xbd38d9a8	-0.04512945
79	0xbc9eda98	-0.019391343
80	0xbdcd143f	-0.10013627
81	0xbdfe7cab	-0.12426122
82	0xbad3276c	-0.0016109771
83	0xbe85b808	-0.26116967
84	0xbda1b026	-0.07894926
85	0x3d8c28b2	0.068436995
86	0xbd6474b9	-0.055775378
87	0xbd81087f	-0.063004486
88	0xbe29dace	-0.16587374
89	0x3cf930a3	0.0304187
90	0x3e02990f	0.127537
91	0x3c90629d	0.017625147
92	0x3e9c0d66	0.30478972
93	0xbda458c2	-0.08024742
94	0xbecd580b	-0.40106234
95	0xbdc75a80	-0.097340584
96	0x3d37cdff	0.044874188
97	0xbe7a649f	-0.24452446
98	0xbe668b42	-0.2251406
99	0x3c241f8f	0.01001729
100	0x3d1588d8	0.036507457
101	0xbc8b371f	-0.016994057
102	0x3bba3bbc	0.0056833904
103	0x3e777d03	0.24168782
104	0xbe0f4ffc	-0.13995355
105	0xbd48574b	-0.048911374
106	0x3e0152c5	0.1262923
107	0xbe115db5	-0.14195903
108	0xbcfb7ee7	-0.03070016
109	0x3d0fc5d4	0.035100773
110	0xbe9acd97	-0.30234978
111	0xbe085c6f	-0.1331651
112	0xbe202b11	-0.15641429
113	0xbc3b164b	-0.011418889
114	0x3df4fd3f	0.11962365
115	0xbdbd08b4	-0.092301756
116	0x3e5206eb	0.20510451
117	0x3d94ee64	0.07272032
118	0x3e314441	0.17311193
119	0xbe149f69	-0.14513935
120	0x3eb3abc7	0.35091993
121	0x3c077ee0	0.008269995
122	0x3e1a77e3	0.15084796
123	0x3e23c17d	0.15991779
124	0xbdb62b11	-0.08894933
125	0x3d852d74	0.0650281
126	0xbe2208a6	-0.15823612
127	0xbb332830	-0.0027337186
128	0xbd90d8a3	-0.0707257
129	0xbc983749	-0.01858105
130	0x3c52eced	0.01287387
131	0x3d4aab73	0.049479913
132	0xbdc5e9f1	-0.096637614
133	0xbe150a58	-0.14554727
134	0xbda59632	-0.08085288
135	0x3cba41c9	0.022736447
136	0x3e507e38	0.20360649
137	0xbaa85452	-0.0012842512
138	0x3d821747	0.06352096
139	0xbe3ecc26	-0.18632564
140	0xbc7f17c7	-0.015569634
141	0x3c920865	0.017826268
142	0xbd34ff54	-0.044188812
143	0x3d978f97	0.074004345
144	0x3e34f456	0.17671332
145	0xbe0804d8	-0.13283098
146	0x3e3e3f07	0.1857873
147	0xbe848358	-0.25881457
148	0xbeaf6ac8	-0.34261155
149	0xbe097b1a	-0.13425866
150	0x3d96fdf4	0.073726565
151	0xbdd29af0	-0.10283458
152	0x3db65fb4	0.08904973
153	0x3daa43b8	0.083136976
154	0xbe22e20f	-0.15906547
155	0x3d92bb7b	0.07164665
156	0x3dd8b867	0.10582047
157	0x3e4731ea	0.19452634
158	0xbe23761d	-0.15963025
159	0x3da2128d	0.079136945
160	0x3da96982	0.08272077
161	0x3e215042	0.15753272
162	0xbd85f96e	-0.065417156
163	0x3e3ad3cd	0.18244858
164	0xbe3d6b53	-0.18497972
165	0xbd434c66	-0.04768028
166	0xbbf9c004	-0.007621767
167	0x3d67743a	0.056507327
168	0x3e3165d9	0.17324008
169	0xbd3abfb8	-0.045592993
170	0x3d191ea1	0.037382726
171	0x3eaf8310	0.3427968
172	0x3ecdd98d	0.4020504
173	0xbe048a3a	-0.12943354
174	0xbd0db3ac	-0.034595177
175	0x3dad516e	0.08462797
176	0x3e31265d	0.1729979
177	0x3c34df4d	0.011039567
178	0x3de7de78	0.113217294
179	0xbe96ab96	-0.29427785
180	0xbd466f15	-0.04844578
181	0xbe53b2e3	-0.20673709
182	0x3d8735ab	0.06602033
183	0xbea33106	-0.3187334
184	0x3c421aba	0.011847192
185	0xbccb462e	-0.024813738
186	0xbdf8c7e1	-0.12147499
187	0xbe8c917e	-0.27454752
188	0x3c0a0b6d	0.008425576
189	0x3e93bd20	0.28855228
190	0xbd799dd5	-0.060941536
191	0xbe4271c6	-0.18988714
192	0x3e1b8296	0.15186533
193	0xbd88e596	-0.06684415
194	0x3e124827	0.14285336
195	0xbd861ea0	-0.0654881
196	0x3d2e06cb	0.042486947
197	0xbd5e22ba	-0.054232337
198	0x3d83ad29	0.06429512
199	0xbd607e20	-0.054807782
200	0x3dc343ce	0.09534417
201	0xbda6495b	-0.0811946
202	0x3e7d1da6	0.24718341
203	0x3e2b0fc8	0.16705239
204	0xbe2894ba	-0.16462985
205	0x3d9385a1	0.07203222
206	0x3c9089e1	0.01764387
207	0xbe86c837	-0.26324627
208	0xbdce4c93	-0.10073199
209	0xbcf8ae48	-0.030356541
210	0x3dc81e09	0.09771354
211	0x3dcadc76	0.09905331
212	0xbe0009d2	-0.12503746
213	0x3e2d4a73	0.16922931
214	0x3e43ed94	0.19133598
215	0xbd4fb258	-0.05070719
216	0x3e84795b	0.25873837
217	0x3c4bf164	0.012447689
218	0x3e202583	0.1563931
219	0x3d84c494	0.06482807
220	0xbe2bdb2f	-0.1678283
221	0x3d35d4e1	0.04439247
222	0xbe2a45f7	-0.16628252
223	0xbd43f098	-0.04783687
224	0x3d7a5fd8	0.06112656
225	0xbe51fe10	-0.20507073
226	0x3e10f1a5	0.1415468
227	0xbea4cbfd	-0.3218688
228	0xbd777793	-0.06041677
229	0xbdb855e6	-0.09000759
230	0x3e2d81b4	0.16944009
231	0xbd0b0998	-0.033944696
232	0xbe01919b	-0.126532
233	0x3dc1501f	0.0943911
234	0xbca7f2e4	-0.020501561
235	0xbd53eb17	-0.05173787
236	0x3da30965	0.07960776
237	0xbe4a3920	-0.19748354
238	0x3d537df3	0.051633786
239	0x3e87b3b1	0.2650428
240	0x3c87b93e	0.016567823
241	0xbd4a2a9d	-0.049357045
242	0x3d9cbad4	0.07652822
243	0xbd58e019	-0.05294809
244	0xbd8168ac	-0.06318793
245	0xbd153d19	-0.03643522
246	0xbd5283d2	-0.051395245
247	0xbd81a77d	-0.06330774
248	0xbe31c0cb	-0.17358701
249	0xbe875417	-0.26431343
250	0xbdb7c5fa	-0.08973308
251	0x3d2807bb	0.041022997
252	0xbd969f58	-0.07354611
253	0x3da8fa44	0.082508594
254	0xbe36f39f	-0.17866372
255	0xbe31f1ec	-0.17377442

critic.2.bias f4 [256]
0	0x3dbbc62d	0.091686584
1	0xbd138437	-0.03601476
2	0x3db6baa3	0.08922317
3	0x3da106a9	0.078625984
4	0xbe063fc2	-0.13110259
5	0xbe00af6e	-0.12566921
6	0x3cf91262	0.030404273
7	0x3e24126d	0.16022654
8	0xbdfa717e	-0.12228678
9	0xbe1979ab	-0.14987819
10	0xbe90933e	-0.28237337
11	0xbdda7c1e	-0.10668205
12	0x3e01ee31	0.12688519
13	0xbdbb190e	-0.09135638
14	0x3ddf1543	0.10892727
15	0x3db6fa73	0.08934488
16	0x3d9d323a	0.076755956
17	0xbd9c41e0	-0.07629752
18	0xbdb6143b	-0.088905774
19	0x3dea494c	0.114397615
20	0x3ce656c9	0.028117554
21	0x3dfe9b65	0.12431983
22	0x3d7ef4ec	0.062245294
23	0xbdec0932	-0.11525191
24	0xbdbd0167	-0.09228783
25	0x3d65901d	0.05604564
26	0xbe094bf7	-0.13407885
27	0xbd9d0a37	-0.07667964
28	0x3ddc8bae	0.10768829
29	0x3e08f269	0.13373722
30	0xbd01f801	-0.031730656
31	0x3e1d2d93	0.15349416
32	0x3b5fb3b9	0.0034134223
33	0xbc8a88fd	-0.016911024
34	0xbdb8d917	-0.090257816
35	0xbe0e30f9	-0.13885869
36	0xbd9738ea	-0.07383902
37	0x3c3e3a2c	0.011610549
38	0xbde548af	-0.11195504
39	0xbde01e7b	-0.10943314
40	0x3dcc467d	0.09974382
41	0x3dd34b9f	0.10317158
42	0x3db300a3	0.08740356
43	0x3c86d1b4	0.016457416
44	0x3d1eab57	0.03873762
45	0x3dc1a12d	0.0945457
46	0xbce9c7c4	-0.028537638
47	0xbe1bc062	-0.15210107
48	0xbdc0dab8	-0.09416717
49	0x3dd523be	0.10407208
50	0xbdee292f	-0.11628949
51	0xbdb92cc0	-0.090417385
52	0x3e14eee9	0.14544262
53	0xbd3a618e	-0.04550319
54	0xbb8b6482	-0.004253925
55	0xbdf7e05c	-0.1210334
56	0xbd83ee61	-0.064419515
57	0xbdbd4fdd	-0.09243748
58	0xbdaaecd7	-0.08345955
59	0xbe1681ec	-0.14697999
60	0x3d840056	0.064453766
61	0x3e264468	0.16237032
62	0xbe4a9666	-0.19783935
63	0xbdbe84de	-0.09302686
64	0x3da73f7e	0.08166407
65	0x3da6d8ca	0.08146818
66	0xbdc84638	-0.09779018
67	0xbd80d908	-0.062913954
68	0x3de1d749	0.110273905
69	0x3d8565b2	0.065135375
70	0x3ded490c	0.11586198
71	0x3e26fc30	0.1630714
72	0x3ad843fb	0.0016499752
73	0x3cb094d9	0.021555351
74	0xbd271bd1	-0.040798012
75	0x3dd91303	0.10599329
76	0x3dc19a6a	0.0945328
77	0x3d0fda86	0.03512051
78	0x3dc65829	0.09684784
79	0xbe06f4e3	-0.13179354
80	0x3df8ab67	0.121420674
81	0x3d430bbf	0.047618624
82	0xbbdbbc45	-0.006705793
83	0x3e014699	0.12624587
84	0xbe347596	-0.1762298
85	0x3da45a7e	0.080250725
86	0x3c8cda38	0.017193899
87	0x3b8876f0	0.004164569
88	0xbdc197c2	-0.09452774
89	0xbde95585	-0.11393265
90	0x3d78a483	0.060703766
91	0xbd5a1b40	-0.053248644
92	0xbc5811ef	-0.013187869
93	0xbe0086cc	-0.12551421
94	0x3e139f91	0.14416339
95	0xbdaa241b	-0.08307668
96	0x3ddabbe8	0.106803715
97	0xbdd502f2	-0.104009524
98	0x3d53c7b5	0.051704127
99	0x3cba2a3f	0.022725223
100	0x3c3d4259	0.011551463
101	0xbda14d6c	-0.07876095
102	0xbdb7d876	-0.089768335
103	0x3e0dd744	0.13851649
104	0x3e2215da	0.15828648
105	0xbe29b162	-0.16571572
106	0xbe438052	-0.19091919
107	0xbdeb20f9	-0.114808984
108	0x3db80150	0.08984625
109	0x3cca51d9	0.024697231
110	0xbde79826	-0.11308317
111	0xbd3fc653	-0.046819996
112	0x3dbb8288	0.09155756
113	0xbe018eef	-0.12652181
114	0xbd784a02	-0.060617454
115	0x3d954dbb	0.072902165
116	0x3bac20ec	0.005252948
117	0x3e10a71c	0.14126247
118	0x3b79539c	0.003804422
119	0xbdc0d6e2	-0.09415986
120	0x3dde16d5	0.108441986
121	0x3db7dbcb	0.08977469
122	0x3daf4fd0	0.08560145
123	0xbd00f188	-0.031480342
124	0x3d87dff4	0.066345125
125	0x3d87967c	0.066204995
126	0xbe0ecd33	-0.13945465
127	0xbd9012d1	-0.07034839
128	0x3db25fbe	0.087096676
129	0xbd9b6ef4	-0.07589522
130	0x3dc70233	0.09717216
131	0x3c7e4e65	0.01552162
132	0xbc885020	-0.01663977
133	0x3d94495b	0.07240554
134	0x3d03ec84	0.03220798
135	0x3e3e7959	0.18600978
136	0x3db3de05	0.08782581
137	0x3dfb85f6	0.122814104
138	0xbdafc48b	-0.085824095
139	0xbe034e45	-0.12822826
140	0xbdee6d1d	-0.116419055
141	0xbce363a9	-0.027757483
142	0x3e05c780	0.13064384
143	0xbdb568e1	-0.08857895
144	0xbe32e494	-0.17470008
145	0x3dc97e2b	0.09838518
146	0xbdadac8f	-0.084801786
147	0xbd149edf	-0.036284324
148	0xbda90011	-0.08251966
149	0x3d9e8ea8	0.07742053
150	0xbbf811de	-0.0075704893
151	0x3d9d949b	0.0769436
152	0x3dac3a78	0.084095895
153	0x3d659aed	0.056055952
154	0xbd80aa3d	-0.062824704
155	0xbe090f0f	-0.1338465
156	0xbd09d12e	-0.033646755
157	0xbdf0e6cc	-0.11762771
158	0x3d427753	0.047477078
159	0x3d447ed2	0.047972508
160	0x3b22de41	0.0024851712
161	0x3d321803	0.04347993
162	0x3bd04267	0.006355572
163	0x3e1c3973	0.1525629
164	0x3dca5b99	0.09880752
165	0xbe09cd2c	-0.13457173
166	0x3d0377fd	0.03209685
167	0xbda545c1	-0.08069945
168	0xbde0aa58	-0.109699905
169	0x3e067a32	0.13132551
170	0x3dec3406	0.1153336
171	0x3daded34	0.084925085
172	0x3e20d81d	0.1570744
173	0xbd64e34a	-0.055880822
174	0x3d8d36f2	0.068952456
175	0x3c9800db	0.018555095
176	0x3e0c7a69	0.13718571
177	0xbd4458c0	-0.0479362
178	0x3e0c499d	0.13699956
179	0x3dbb52a8	0.09146625
180	0xbe113faf	-0.1418445
181	0xbe00bb75	-0.12571509
182	0xbe1f4550	-0.15553784
183	0x3e15e69e	0.14638755
184	0xbdfc87b4	-0.12330571
185	0x3d94e5f6	0.07270424
186	0x3d643147	0.055711057
187	0x3dba823a	0.0910687
188	0x3c560f62	0.013065191
189	0x3ddc80d2	0.10766758
190	0x3dd1e492	0.102486745
191	0x3d7f5c21	0.06234372
192	0xbc29031c	-0.010315683
193	0x3dec31c8	0.115329325
194	0xbd40493b	-0.046944838
195	0x3d7d357f	0.061818596
196	0x3daeae0c	0.085292906
197	0xbdc14207	-0.09436422
198	0x3deb2537	0.114817075
199	0xbdb318f6	-0.08744995
200	0x3d8226ac	0.06355032
201	0x3e029a72	0.12754229
202	0xbe1b393e	-0.15158555
203	0x3dfa8bee	0.12233721
204	0xbd0a47e5	-0.03375997
205	0xbd85742a	-0.06516297
206	0x3e34469c	0.1760506
207	0xbd6a8296	-0.057253443
208	0xbdb7bb61	-0.089712866
209	0x3d80a894	0.06282154
210	0xbdad9017	-0.084747486
211	0xbd9213c0	-0.07132673
212	0xbdb9b7fb	-0.090682946
213	0x3e04cd9e	0.12969062
214	0xbc39aeb3	-0.011333155
215	0xbde2d66f	-0.11076056
216	0x3b5c51be	0.0033618058
217	0x3d82c981	0.0638609
218	0xbdd7383f	-0.10508775
219	0x3d3a3cd2	0.04546816
220	0x3e1dd7e6	0.1541439
221	0x3bad54f9	0.0052896705
222	0x3da8bf80	0.08239651
223	0x3d87e2ed	0.066350795
224	0x3d56892d	0.052376915
225	0x3daf3a28	0.08556014
226	0xbdbbc7fc	-0.09169003
227	0xbd202505	-0.039097805
228	0x3df320ab	0.11871465
229	0xbb880821	-0.0041513597
230	0xbd4596d4	-0.048239544
231	0xbda7c27a	-0.0819139
232	0x3d34516c	0.044022962
233	0xbd91807c	-0.071045846
234	0x3dc332fa	0.095312074
235	0xbdd1f731	-0.10252226
236	0x3e1320d9	0.14367999
237	0xbd8dd1cd	-0.06924782
238	0x3d8cc44a	0.06873377
239	0xbde67fc6	-0.112548396
240	0x3de1476c	0.10999951
241	0xbd887d98	-0.0666458
242	0xbddf7fc4	-0.10913041
243	0x3ccafbf7	0.02477835
244	0xbd39fadc	-0.045405254
245	0x3e3fb9cb	0.18723218
246	0x3d84c387	0.064826064
247	0x3d91426c	0.07092747
248	0xbd6b58a0	-0.057457566
249	0xbc2ee86c	-0.010675531
250	0xbde54cfa	-0.11196323
251	0x3ddc6b15	0.10762612
252	0x3e1668be	0.14688393
253	0xbdc15a1e	-0.094410166
254	0x3c21773b	0.009855087
255	0xbdb37cfd	-0.08764074

critic.4.weight f4 [1, 256]
0	0x3ff5ee5e	1.9213369
1	0xbff3c733	-1.9045166
2	0x3feff55c	1.8746753
3	0x3ff39735	1.903052
4	0xbfea5b3d	-1.8309094
5	0xbff7338a	-1.9312603
6	0x3ff62f20	1.9233131
7	0x3fe78339	1.8086921
8	0xbfea78d5	-1.8318125
9	0xbfdd3044	-1.7280354
10	0xbfe7e8aa	-1.8117878
11	0xbff0a3ea	-1.8800023
12	0x3ff3a2fb	1.9034113
13	0xbff116ff	-1.8835143
14	0x3fedd2b6	1.8579929
15	0x3ff1e7f9	1.8898917
16	0x3ff10281	1.8828889
17	0xbff131c9	-1.8843318
18	0xbff052bf	-1.8775252
19	0x3ff226eb	1.8918127
20	0x3fef04e1	1.8673364
21	0x3feb0687	1.8361367
22	0x3ffbb543	1.9664692
23	0xbfed6340	-1.8545914
24	0xbfebc2e2	-1.8418849
25	0x400b854d	2.180011
26	0xbfee4e5a	-1.8617661
27	0xbff6ef59	-1.9291793
28	0x3ff80546	1.9376609
29	0x3feb43a1	1.8380014
30	0xbfec0ed0	-1.844202
31	0x3fe954b1	1.8228971
32	0x3ffbaf52	1.9662879
33	0xbff058e6	-1.877713
34	0xbfee4126	-1.8613632
35	0xbfef305a	-1.8686631
36	0xbfed2dc7	-1.8529595
37	0xc0138665	-2.3050778
38	0xbfea6b91	-1.8314077
39	0xbff1ba24	-1.8884931
40	0x3fe31c58	1.7743025
41	0x3fee5180	1.8618622
42	0x3ff7fe75	1.9374529
43	0xbff10ced	-1.883207
44	0x3fe8bc29	1.8182422
45	0x3ff6711f	1.9253272
46	0xbff045a0	-1.8771248
47	0xbfe9345d	-1.8219105
48	0xbfef2029	-1.868169
49	0x3ff64026	1.9238327
50	0xbff34559	-1.9005538
51	0xbff48366	-1.91026
52	0x3fef80b4	1.8711152
53	0xc00c171c	-2.1889105
54	0x3fe81cf0	1.8133831
55	0xbfefc5dc	-1.8732257
56	0xbff0a3a9	-1.8799945
57	0xbfedc6e3	-1.857632
58	0xbffc4d38	-1.9711065
59	0xbfe91612	-1.820986
60	0x400b81c1	2.1797945
61	0x3fed13de	1.8521688
62	0xbfef4687	-1.8693398
63	0xbff42357	-1.9073285
64	0x3feca6cc	1.8488402
65	0x3fefbca0	1.8729439
66	0xbff8b550	-1.9430332
67	0xbff4e0f7	-1.9131154
68	0x3fec88bd	1.8479229
69	0x4009a148	2.1504688
70	0x3ff29dce	1.8954408
71	0x3fe2ef08	1.7729197
72	0xc011ee9d	-2.2801888
73	0x3ffb50ad	1.9633995
74	0xbff4010d	-1.9062821
75	0x3ff36d49	1.9017726
76	0x3ff3f959	1.906047
77	0x3ff0c850	1.881113
78	0x3fecff65	1.851544
79	0xbff27f32	-1.8945067
80	0x3ff0367f	1.8766631
81	0x3feaf98e	1.8357408
82	0xbfefd1a4	-1.8735852
83	0x3fefd34f	1.8736361
84	0xbffbb9af	-1.9666041
85	0x3fefab2b	1.8724111
86	0x4006544b	2.0988948
87	0xbfebe9b6	-1.8430698
88	0xbff360cc	-1.9013915
89	0xbff3f3c7	-1.905877
90	0x3fea6ea3	1.8315014
91	0xbffeff6f	-1.9921702
92	0xbff3786b	-1.9021124
93	0xbff0e446	-1.8819664
94	0x3fe51237	1.7896184
95	0xbfed6d5c	-1.8548999
96	0x4005815d	2.0860207
97	0xbfee0a88	-1.8596964
98	0x3ff1b41a	1.8883088
99	0x3ff41eaa	1.9071858
100	0x3ff581f7	1.9180287
101	0xbffd58a3	-1.9792675
102	0xbfe9ddcc	-1.8270812
103	0x3ff1e61f	1.8898352
104	0x3ff8678e	1.9406602
105	0xbfe76815	-1.8078638
106	0xbfe39a85	-1.7781531
107	0xbfefb84d	-1.8728119
108	0x3ff01c49	1.8758632
109	0xbff1c723	-1.8888897
110	0xbfe7471c	-1.8068576
111	0x3ff77caa	1.933492
112	0x3fe9e399	1.8272582
113	0xbfed259c	-1.8527102
114	0xbff21d55	-1.8915201
115	0x3ff24432	1.8927062
116	0x3ffa3dd0	1.9550114
117	0x3fedcb77	1.8577718
118	0xbff309ad	-1.8987328
119	0xbff4c110	-1.9121418
120	0x3ff3117d	1.8989712
121	0x3ff5deb1	1.9208585
122	0x3fe5e8f1	1.7961713
123	0x3ff7cf22	1.9360087
124	0x3ff59db4	1.9188752
125	0x3ff3f5cb	1.9059385
126	0xbff146a6	-1.8849685
127	0xbfef6a4b	-1.8704313
128	0x3febe100	1.842804
129	0xbfdd8cf7	-1.7308644
130	0x3ff24c08	1.8929453
131	0x3fefb703	1.8727726
132	0xbff1a879	-1.8879539
133	0x3fee944c	1.8639007
134	0x3ff69fff	1.9267577
135	0x3ff0bb17	1.8807095
136	0x3feff1bd	1.8745648
137	0x3fe92635	1.8214785
138	0xbfee0625	-1.8595625
139	0xbff4adad	-1.9115502
140	0xbfe4b46b	-1.7867559
141	0xbff8a80f	-1.9426287
142	0x3fedd678	1.8581076
143	0xbfefd2c9	-1.8736202
144	0xbff57573	-1.9176468
145	0x3fed1d40	1.8524551
146	0xbff21447	-1.8912438
147	0xc008aee7	-2.1356752
148	0xbff5ea67	-1.9212159
149	0x3ff2a688	1.8957071
150	0xbffd286d	-1.9777962
151	0x3ff54694	1.9162164
152	0x3ff1d78e	1.8893907
153	0x3ff83dfe	1.9393919
154	0xbfe8f003	-1.8198246
155	0xbfecc7ba	-1.8498452
156	0x3ff2a374	1.8956132
157	0xbff041e0	-1.8770103
158	0x3feece12	1.8656638
159	0x3ff51f0a	1.9150097
160	0xbff013e4	-1.875607
161	0x3fed0ee4	1.8520169
162	0x3ff88a7d	1.9417263
163	0x3ff066e8	1.8781404
164	0x3fe450e6	1.7837188
165	0xbff387fa	-1.9025872
166	0x3ff86c35	1.9408022
167	0xbffaf3f1	-1.9605695
168	0xbff43aa3	-1.9080395
169	0x3fe9260e	1.8214738
170	0x3fef57b9	1.8698646
171	0x3ff26999	1.8938476
172	0x3fe74f0c	1.8070998
173	0xbff6c46e	-1.9278696
174	0x3ff98b1b	1.9495577
175	0x3ff63917	1.9236172
176	0x3fedc1fe	1.8574827
177	0xbff586a6	-1.9181716
178	0x3ff0736d	1.8785225
179	0x3ff8d748	1.9440699
180	0xbfe8d9d2	-1.8191473
181	0xbfe559e5	-1.7918059
182	0xbfea3207	-1.8296517
183	0x3ff42636	1.9074161
184	0xbfe6fc2a	-1.8045704
185	0x3feb9bbd	1.8406903
186	0x400953e5	2.1457455
187	0x3ff0b5e1	1.8805505
188	0x3ff54033	1.9160217
189	0x3ff07ad5	1.8787485
190	0x3fee3929	1.8611194
191	0x3ff480fe	1.9101865
192	0xc00af38e	-2.1711154
193	0x3feeb28d	1.8648239
194	0xbff38700	-1.9025574
195	0x3ff4c6bc	1.9123149
196	0x3ff55f23	1.9169658
197	0xbfeeb01c	-1.8647494
198	0x3fed3878	1.8532858
199	0xbff07a42	-1.878731
200	0x3fea756a	1.8317082
201	0x3fed496c	1.8538032
202	0xbfec2a5a	-1.8450425
203	0x3fec2e50	1.8451633
204	0xbfeeab01	-1.8645936
205	0xbfef9b63	-1.8719295
206	0x3fdde931	1.7336789
207	0xbffc17ea	-1.9694798
208	0xbff08767	-1.8791322
209	0x3ff8767d	1.941116
210	0xbff900b1	-1.9453336
211	0xbfed8e31	-1.8559018
212	0xbfe710bb	-1.8051981
213	0x3fec2b38	1.8450689
214	0x3ff4b3a3	1.9117321
215	0xc0089e2f	-2.1346548
216	0x3fee367d	1.8610379
217	0x3ff53a01	1.9158326
218	0xbffc6559	-1.9718429
219	0x3ff35a1f	1.9011878
220	0x3fee168b	1.860063
221	0x3ff4c979	1.9123985
222	0x3fea7e43	1.8319782
223	0x3ff4266b	1.9074224
224	0x3ff93cc4	1.9471669
225	0x3ff28b97	1.894885
226	0xbff8152d	-1.9381462
227	0xbff5f9ab	-1.9216818
228	0x3ff0d004	1.8813481
229	0xc0128f75	-2.290006
230	0xbff4342c	-1.9078422
231	0xbff22eb9	-1.8920509
232	0x3ff907b6	1.9455478
233	0xbff71ce5	-1.9305693
234	0x3fe8db0e	1.819185
235	0xbffe02db	-1.9844621
236	0x3fefce9e	1.873493
237	0xbff1960f	-1.8873919
238	0xc016eb00	-2.3580933
239	0xbfe1574d	-1.7604767
240	0x3fec4689	1.8459026
241	0xbff0f448	-1.8824549
242	0xbfed0703	-1.8517765
243	0x3ff2a2d9	1.8955947
244	0xbfdaa808	-1.7082529
245	0x3fe4bd67	1.7870301
246	0x3fec5586	1.84636
247	0x3feddfff	1.8583983
248	0xbffa36f1	-1.9548017
249	0x400979e4	2.1480646
250	0xbff5499e	-1.9163091
251	0x400673bd	2.100814
252	0x3fea6a34	1.8313661
253	0xbff3f37b	-1.9058679
254	0xbff68b19	-1.9261199
255	0xbff97a6a	-1.9490483

actor_mean.0.weight f4 [256, 13]
0	0xbca5f6ee	-0.020259347
1	0xbde71312	-0.11282934
2	0xbd5fbf54	-0.054625824
3	0x3e48918d	0.19586773
4	0x3e2321f1	0.15930916
5	0x3e2d9727	0.16952191
6	0x3b3ae95d	0.0028520443
7	0x3d8fa6e5	0.070142545
8	0xbce77cd1	-0.02825776
9	0x3c378f2d	0.011203569
10	0x3cd0ead9	0.02550261
11	0x3d60085d	0.054695476
12	0x3e09910b	0.13434236
13	0xbc224480	-0.009904027
14	0xbd875045	-0.06607107
15	0xbd9ec697	-0.07752722
16	0x3cb1236e	0.02162334
17	0xbd523f93	-0.05133016
18	0x3da7c5cf	0.08192026
19	0xbccec421	-0.025240006
20	0xbda723fb	-0.081611596
21	0xbd0aaa3f	-0.033853766
22	0x3d282448	0.041050225
23	0x3df561eb	0.11981567
24	0x3d33b162	0.043870337
25	0x3aebd139	0.001799143
26	0xbe720730	-0.23635554
27	0xbc32b9c0	-0.010908544
28	0xbda46128	-0.080263436
29	0x3d53b3b7	0.05168506
30	0xbd26f312	-0.040759154
31	0xbe062dbe	-0.13103387
32	0xbbc78b65	-0.006089615
33	0xbe66c3a5	-0.2253557
34	0xbc1f4517	-0.009721062
35	0xbdfc7856	-0.1232764
36	0xbc4ec6e1	-0.012620659
37	0xbce44354	-0.027864136
38	0xbd0d18b8	-0.0344474
39	0xbdffe9c1	-0.12495757
40	0xbcdc4b66	-0.026891422
41	0xbdc9bc56	-0.09850375
42	0x3d91472c	0.07093653
43	0xbdead2b7	-0.11465972
44	0xbd3777c4	-0.04479195
45	0x3e020a2f	0.12699197
46	0x3caad46c	0.020853244
47	0x3c77f1b5	0.015133311
48	0xbdc02e7d	-0.09383867
49	0xbd6bacec	-0.057537958
50	0xbd749d80	-0.059720516
51	0xbdcd67f5	-0.10029594
52	0x3d873f24	0.0660384
53	0x3d386e81	0.04502726
54	0x3cf63687	0.030055298
55	0x3cdd1dc0	0.026991725
56	0xbdd56079	-0.10418791
57	0xbd6e6e4a	-0.05821065
58	0x3e18560a	0.14876571
59	0xbe54d77e	-0.20785329
60	0x3e6a6c33	0.22892837
61	0x3cc6bf96	0.024261277
62	0xbdebf3e6	-0.11521129
63	0xbe18f4c7	-0.14937125
64	0x3def7e56	0.116940185
65	0xbd236a98	-0.039896578
66	0x3e50ba2e	0.20383522
67	0xbd2cbbde	-0.04217135
68	0x3d482913	0.048867296
69	0xbc91da0c	-0.017804168
70	0x3cf8d461	0.030374708
71	0xba99214a	-0.0011682895
72	0xbd0abcbc	-0.033871397
73	0x3d8c077c	0.06837365
74	0x3d651e03	0.055936825
75	0xbc54df5e	-0.012992708
76	0x3d47092c	0.04859273
77	0x3d3ed0c9	0.04658583
78	0x3c96aee6	0.018393945
79	0x3b8ee749	0.0043610674
80	0x3e14f99e	0.14548346
81	0x3da2bbb2	0.07945956
82	0x3d0e4047	0.03472927
83	0x3d32f3fb	0.04368971
84	0x3d3ea905	0.04654791
85	0x3d980ad3	0.074239396
86	0x3de60fb1	0.11233462
87	0x3c1cf6df	0.009580343
88	0xbd588b22	-0.052867062
89	0x3c878a8d	0.016545558
90	0x3c4d055a	0.012513483
91	0x3dca6f8d	0.09884558
92	0x3d548fc8	0.051894933
93	0x3e14fbaf	0.14549135
94	0x3c26dfbc	0.010185178
95	0x3dfcb8b4	0.12339917
96	0x3bf1281f	0.007359519
97	0xbc8fa499	-0.017534541
98	0xbdd195da	-0.1023366
99	0xbe1b8dbf	-0.1519079
100	0x3e13477c	0.14382738
101	0xbd606dce	-0.054792218
102	0xbd1f35d1	-0.038869683
103	0xbd0e772b	-0.034781616
104	0x3cb37070	0.0219042
105	0xbd13503b	-0.035965186
106	0xbdd63b25	-0.104605
107	0xbd57cd65	-0.052686114
108	0xbd1e5679	-0.038656686
109	0xbdb2859a	-0.08716889
110	0xbd8f47d6	-0.069961235
111	0x3cfb398d	0.03066709
112	0x3d437fcb	0.047729295
113	0xbd97ca48	-0.07411629
114	0xbcf92d9d	-0.030417258
115	0x3e11a382	0.1422253
116	0xbd9fb66b	-0.07798465
117	0x3e6a76bf	0.2289686
118	0xbd9f5893	-0.07780566
119	0xbdb8a139	-0.09015126
120	0xbdc2a06f	-0.095032565
121	0x3e287501	0.16450883
122	0x3e0e4cfb	0.13896553
123	0xbd50e711	-0.051001612
124	0x3e3aabcc	0.18229598
125	0x3b49669a	0.0030731321
126	0x3d416d57	0.047223415
127	0x3c9ebf14	0.019378223
128	0x3d0cbcc2	0.0343597
129	0x3e0c181f	0.13681076
130	0xbd4878ba	-0.04894326
131	0xbcbd0e23	-0.02307803
132	0x3c95c42f	0.018282024
133	0xbcf35eb7	-0.02970825
134	0xbd9906e5	-0.07472018
135	0x3d035f1e	0.032073133
136	0x3deff482	0.11716558
137	0xbd3b1f13	-0.04568393
138	0x3dd2242b	0.10260805
139	0x3c71859b	0.014741327
140	0xbe561f62	-0.20910409
141	0xbe0dc785	-0.13845642
142	0x3ac46162	0.0014982636
143	0x3d0fe487	0.03513005
144	0xbd09f6f7	-0.03368279
145	0x3e201281	0.15632059
146	0xbd8dc0f1	-0.06921566
147	0xbd8753b4	-0.06607762
148	0x3c679468	0.014134504
149	0x3d43dbf4	0.047817186
150	0x3db7d3fd	0.089759804
151	0xbe1279f0	-0.14304328
152	0x3d622702	0.055212982
153	0x3dcda483	0.10041144
154	0x3d2d4fa9	0.042312298
155	0xbe6b62ad	-0.2298686
156	0x3b994c94	0.0046783183
157	0xbd0a45f2	-0.03375811
158	0xbe1a7951	-0.15085341
159	0x3d64d750	0.0558694
160	0xbd473d56	-0.04864248
161	0xbdb0cd6a	-0.086329296
162	0xbd0a5228	-0.033769757
163	0xbdcc515c	-0.099764556
164	0x3d19c29a	0.037539102
165	0xbe17911a	-0.14801446
166	0x39be9324	0.00036349252
167	0xbd7bc84f	-0.061470326
168	0x3cd0b6ef	0.025477855
169	0xbc9123fb	-0.017717352
170	0x3cd16cab	0.025564512
171	0xbbd59272	-0.006517702
172	0x3d5adb42	0.053431757
173	0xbd581388	-0.052753
174	0xbc998a83	-0.018742805
175	0xbda497e0	-0.0803678
176	0xbc2b5bb9	-0.01045888
177	0xbcbbaa02	-0.022908214
178	0x3d2c1fdf	0.042022582
179	0xbc77f3e5	-0.015133833
180	0x3c96790d	0.018368268
181	0x3e61a2e6	0.22034797
182	0xbd468f9a	-0.048476793
183	0xbc765b3e	-0.015036402
184	0xbbe1c2ad	-0.0068896622
185	0xbb91d4e6	-0.0044504283
186	0x3d8317c2	0.06401016
187	0x3e0d8596	0.1382049
188	0xbdd8efa1	-0.105925806
189	0xbe266a27	-0.16251431
190	0x3d5493aa	0.051898636
191	0x3cd957ea	0.026531179
192	0x3daa1e30	0.08306539
193	0xbd1434ab	-0.03618304
194	0x3cdf0d5b	0.027228048
195	0xbe40fb31	-0.18845822
196	0x3b9c8525	0.0047766143
197	0xbd876497	-0.06610983
198	0xbe96ccaa	-0.2945302
199	0xbdf7f056	-0.12106387
200	0x3d373fd9	0.044738624
201	0x3c14004f	0.009033277
202	0x3d66c79f	0.056342717
203	0x3d5c29c2	0.05375076
204	0x3d872eb4	0.06600705
205	0x3da25521	0.07926393
206	0xbd41f8e1	-0.04735649
207	0x3e2410bc	0.16022009
208	0xbd3b6eb7	-0.045759883
209	0xbd3a0254	-0.045412377
210	0x39da7b22	0.0004167194
211	0x3e061977	0.13095652
212	0x3dafadac	0.08578047
213	0x3e8d4b79	0.27596644
214	0x3d65c0a7	0.05609193
215	0x3d5bd509	0.053669963
216	0xbe48831c	-0.19581264
217	0xbd8ed707	-0.06974607
218	0x3dad9933	0.08476486
219	0xbd46002e	-0.048340015
220	0x3df733a8	0.120703995
221	0xbe51c59f	-0.20485543
222	0x3db3c4ea	0.08777793
223	0xbd086cbf	-0.033306833
224	0x3db276a5	0.08714036
225	0x3d5f544c	0.05452375
226	0xbd861a12	-0.06547941
227	0x3cc46956	0.02397601
228	0xbe437411	-0.19087245
229	0xbd5e4fc1	-0.054275278
230	0xbd9ab2b7	-0.075536184
231	0xbdefae1f	-0.11703133
232	0xbd90a68f	-0.070630185
233	0xbd9f0061	-0.07763744
234	0xbc3cefcb	-0.0115317805
235	0xbce9dd27	-0.028547836
236	0xbe33f805	-0.1757508
237	0x3d7a1849	0.061058316
238	0xbd190266	-0.037355803
239	0xbe06af9a	-0.13152924
240	0xbc54efd2	-0.012996631
241	0xbd5887ac	-0.05286376
242	0x3cb749c2	0.022374038
243	0xbda1725d	-0.07883141
244	0x3c2c144e	0.010502888
245	0x3d68443e	0.056705706
246	0x3cad2694	0.02113656
247	0x3cf3d0c9	0.029762642
248	0x3d95c38d	0.07312689
249	0x3dc7906b	0.097443424
250	0xbe370648	-0.1787349
251	0x3d52ce1f	0.051466104
252	0xbc21bc8f	-0.009871616
253	0xbd52de1b	-0.051481348
254	0x3d63a0a9	0.05557314
255	0x3d13a1a4	0.036042824

actor_mean.0.bias f4 [256]
0	0x3c3b8031	0.011444137
1	0xbb9581e0	-0.0045626014
2	0xbceaa11b	-0.028641274
3	0x3d4792ab	0.048723858
4	0xbcf1c18d	-0.029511238
5	0x3c9238ce	0.017849352
6	0xbc861634	-0.01636801
7	0xbd23c9d3	-0.039987396
8	0x3c318c96	0.010836741
9	0xba643d64	-0.00087066577
10	0x3bb48cb7	0.0055099386
11	0x3c3fb494	0.011700768
12	0x3d1c8801	0.03821564
13	0xbd09b7d5	-0.03362258
14	0x3ca2499e	0.019810494
15	0xbc8ae11e	-0.016953047
16	0x3c104b7d	0.00880706
17	0x3d0c88df	0.034310218
18	0xbb732fc3	-0.0037107326
19	0x3c4f28f4	0.012644041
20	0x3a3d06fc	0.00072108186
21	0xbd8560a5	-0.06512574
22	0x3c7b6f94	0.0153464265
23	0xbca38fcc	-0.019966029
24	0x3d1549fe	0.036447518
25	0xbc349bee	-0.011023505
26	0xbd1d62e4	-0.038424388
27	0xbcf0988d	-0.029369617
28	0x383775d3	4.3740332e-05
29	0xbd3cf145	-0.04612853
30	0xbd7ca16c	-0.06167738
31	0xbcae87ad	-0.02130493
32	0x39c85f76	0.00038218097
33	0x3c0e165e	0.008672325
34	0x3c585313	0.0132034
35	0xbd3fd3b1	-0.046832744
36	0x3cb1743e	0.021661874
37	0x3d270315	0.040774424
38	0x3cbaadca	0.022787947
39	0x3cf481a4	0.029846974
40	0xbcb30d44	-0.021856911
41	0x3c905e15	0.017622987
42	0x3d17207a	0.036896206
43	0xbd363338	-0.04448244
44	0xbcde1ab3	-0.02711234
45	0xbcb3c0b5	-0.021942476
46	0xbc08a6c4	-0.008340541
47	0x3c82da0d	0.015973115
48	0x3d44be82	0.048033245
49	0x3c946305	0.018113622
50	0x3d0b6a08	0.034036666
51	0x3c58e29d	0.013237623
52	0xbc743478	-0.014905088
53	0xbae8182b	-0.0017707398
54	0xbd2d6994	-0.042337015
55	0x3b843a85	0.0040352964
56	0xbc4957f0	-0.012289032
57	0x3c80f51b	0.015741875
58	0xbc53d925	-0.012930189
59	0xbcd6a349	-0.026200907
60	0xbb8ea649	-0.004353319
61	0xbb54a9a3	-0.0032449744
62	0x3d04d612	0.032430716
63	0x3c957096	0.018242162
64	0xbb1a5c0b	-0.0023553397
65	0xbc3bab79	-0.0114544565
66	0x3d06b853	0.03289063
67	0x3c9d0dcf	0.019171624
68	0x3c771108	0.015079744
69	0xbd0125c1	-0.031530146
70	0xbc7f8842	-0.015596451
71	0xbaf4af05	-0.0018667883
72	0xb9ef9d45	-0.00045702807
73	0xbc5fedde	-0.013667552
74	0x3d71be94	0.05901964
75	0x3d2869de	0.041116588
76	0xbb87ecf5	-0.0041481205
77	0x3d244beb	0.040111464
78	0x3cbdc3ac	0.023164593
79	0x3c8dcdf9	0.01731013
80	0x3c782f08	0.015147932
81	0x3c519add	0.01279327
82	0x3d1c48a7	0.038155224
83	0xbc27d387	-0.010243303
84	0x3cbeba83	0.023282295
85	0x3a9ae8f3	0.0011818692
86	0x3b9c46ea	0.004769196
87	0x3d56e7b6	0.05246707
88	0x3ae73937	0.0017640953
89	0x3d28f3ef	0.04124826
90	0x3d17d571	0.037068788
91	0xbbc08da3	-0.0058762594
92	0xbccbbc71	-0.02487013
93	0x3c34e295	0.0110403495
94	0x3bfe275b	0.0077561564
95	0x3ca739a5	0.02041323
96	0xbd4d7bf5	-0.050167043
97	0xbca7ce41	-0.020484092
98	0x3ca0e497	0.01964025
99	0xbb1c9bb3	-0.0023896515
100	0xbbbf348f	-0.005835123
101	0x3b4e7738	0.0031504165
102	0x3c8b57b0	0.017009586
103	0xbcba2f86	-0.022727739
104	0x3c15d9a6	0.00914613
105	0x3b8bcff0	0.0042667314
106	0x3cd625da	0.026141096
107	0x3b5262b8	0.0032102298
108	0x3c634b32	0.013872908
109	0xbb6816aa	-0.00354139
110	0x3c86c2ae	0.016450252
111	0xbc269b80	-0.01016891
112	0x3c1c9d6a	0.009559015
113	0x3c764721	0.015031607
114	0xb83ffa99	-4.5771336e-05
115	0xbd10c8d0	-0.03534776
116	0x3ca7e9c3	0.020497208
117	0xbcc7b507	-0.024378313
118	0xbc108fcf	-0.008823349
119	0xbc9856cf	-0.018596081
120	0x3b6291bf	0.0034571735
121	0xbcc59fbd	-0.02412402
122	0xbb1cf44c	-0.0023949323
123	0xbc95079e	-0.018192109
124	0xbd140b3e	-0.036143534
125	0xba99a007	-0.0011720665
126	0xb54d1ba3	-7.640867e-07
127	0xbc31719f	-0.010830312
128	0xbd249932	-0.04018516
129	0x3c798656	0.015229782
130	0xbb227f7b	-0.0024795223
131	0xbd4d6b4d	-0.050151158
132	0xbcfae187	-0.030625118
133	0xbd71e635	-0.059057433
134	0xbb6b77b1	-0.0035929496
135	0xbc0d5ba2	-0.008627804
136	0x3c739e7b	0.014869328
137	0x3cb58b1b	0.022161057
138	0xbd3fdaa3	-0.046839368
139	0x3c3f1986	0.0116638
140	0x3c121bf7	0.0089178
141	0xbd006be3	-0.03135289
142	0xbcde8f69	-0.027167993
143	0xbcf2046c	-0.029543124
144	0x3b83f5fa	0.0040271254
145	0xbc9ef400	-0.019403458
146	0x3be59cf8	0.0070072375
147	0xbbf5edce	-0.007505155
148	0xbc1aa623	-0.009439024
149	0x3c6015b7	0.013677052
150	0x3cbc8e61	0.02301711
151	0x3d2c5176	0.042069875
152	0xbc90d387	-0.01767899
153	0x3cc2d6de	0.023784097
154	0xbd860a88	-0.065449774
155	0xbd4f9244	-0.0506766
156	0x3c86ff5c	0.016479187
157	0xbce870ad	-0.02837404
158	0xbcde9498	-0.027170464
159	0xbd2a0249	-0.041506086
160	0x3d751fa2	0.05984462
161	0x3ab36460	0.001368653
162	0xbc83df41	-0.016097667
163	0xbcf23e73	-0.029570794
164	0x3c90dc0d	0.017683053
165	0xbb19068e	-0.0023349854
166	0xbc8b9923	-0.017040795
167	0xbb90f23c	-0.004423408
168	0x3d40977e	0.047019474
169	0xbc1ef68c	-0.009702336
170	0xbbfedc41	-0.007777721
171	0xbc4b42ef	-0.012406095
172	0x3cde7550	0.027155548
173	0x3caa9b11	0.020825895
174	0x3d0ed13b	0.034867506
175	0x3ccbbada	0.024869371
176	0x3d448079	0.047974084
177	0xbd071225	-0.03297629
178	0xbbd17020	-0.00639154
179	0x3b44573a	0.0029959218
180	0x3b44103b	0.00299169
181	0xbc21b6c6	-0.009870237
182	0xbc057357	-0.008145175
183	0xbc2a557f	-0.01039636
184	0x3c16ae10	0.009196773
185	0x3d47570f	0.04866701
186	0xbd02b846	-0.031914018
187	0xbcec4397	-0.028840823
188	0xbb21b903	-0.0024676926
189	0xb6f82894	-7.3957e-06
190	0x3d8dd951	0.069262154
191	0x3b9be439	0.004757431
192	0x3c3aea99	0.0114084715
193	0x3cd8ee75	0.026480893
194	0x3c5c5446	0.013447827
195	0x3cfd4dcc	0.030920886
196	0xbb088c27	-0.002083549
197	0xbcaee5a9	-0.021349745
198	0x3d110e3a	0.035413958
199	0xbcd65fa5	-0.026168654
200	0x3d4a2777	0.049354043
201	0x3b9431a6	0.00452252
202	0xbc5c2f0b	-0.01343895
203	0xba3fa2f4	-0.00073103537
204	0xbd4ce617	-0.05002412
205	0xbd270394	-0.040774897
206	0x3c160b24	0.00915793
207	0xbd04362a	-0.032278217
208	0xbc8e8efd	-0.017402167
209	0xbca7f226	-0.020501208
210	0xbd777762	-0.060416587
211	0xbd0923e3	-0.03348149
212	0xbc6d4f96	-0.014484307
213	0x3c592a03	0.013254645
214	0xbd0de3f9	-0.03464124
215	0x3c26e99d	0.010187534
216	0x3c5ca067	0.013465977
217	0xbcedd575	-0.029032448
218	0xbd106860	-0.03525579
219	0xbc33b1df	-0.010967701
220	0xbc27a96a	-0.010233263
221	0xbd01ad6d	-0.031659532
222	0x3d27e33a	0.040988185
223	0xbc0c74e6	-0.008572793
224	0xbbc6e8ef	-0.0060702483
225	0xbd1f7c07	-0.03893664
226	0xbb90b752	-0.0044163847
227	0xbd26ce67	-0.040724184
228	0xbc952a31	-0.018208595
229	0xbd4c3225	-0.04985251
230	0x3d884bcc	0.06655082
231	0x3c18b5b5	0.009320666
232	0xbc5eea19	-0.013605618
233	0xbbd815cf	-0.0065943967
234	0x3d24fbec	0.040279314
235	0xbc35f4ab	-0.011105697
236	0x3cf3b614	0.029749908
237	0x3bbccfb0	0.005762063
238	0xbc0c068a	-0.008546481
239	0xbb21556b	-0.0024617563
240	0x3d81fddc	0.06347248
241	0x3d800af3	0.062520884
242	0x3c8bcf43	0.017066604
243	0x3c96b472	0.01839659
244	0xbd40d7a8	-0.047080666
245	0xbcda19a1	-0.026623549
246	0x3cf40d6f	0.029791562
247	0xbcd33561	-0.025782289
248	0x3cf48e2a	0.029852945
249	0xbd945463	-0.07242658
250	0x3c50fdc4	0.012755815
251	0x3baab5c5	0.005209657
252	0x3c44f846	0.012022084
253	0x3babaffe	0.0052394858
254	0xbcfe52c4	-0.031045325
255	0xbd286692	-0.041113444
