mete_aerial_gym_simulator/rl_training/cleanrl/runs/quad__ppo_continuous_action__1__1686654590/latest_model.pth (torch, 564158 bytes, 12 tensors)

actor_logstd f4 [1, 4]
1.8009326 1.9288146 2.3288243 2.2462676
00000000: f684 e63f 66e3 f63f 750b 1540 d9c2 0f40

critic.0.weight f4 [256, 13]
-1.3501005 0.05249714 0.8535509 0.165551 0.30561697 -0.49922174 0.18091261 2.1758156
0.660879 -0.036100037 0.015722092 0.18655983 -0.39245275 -0.69458854 1.7406546 -0.12533222
0.14094044 1.7416519 1.0712097 0.48527455 -0.109743156 0.38630986 0.20229912 0.3780981
0.4176438 -0.22055829 -0.5431471 0.3569898 0.107224286 1.6942807 0.5221981 1.167759
0.20339221 1.269417 0.58710164 0.16530344 0.3617568 0.053062078 -0.33874133 0.5335366
-1.2198327 -0.5874192 -0.436466 2.8274674 -7.0310974 -0.76686853 0.2588053 -0.5471502
-0.23196661 -0.08446116 0.01690019 -0.0310134 -0.3666325 1.4766884 -0.5921308 2.1557007
4.12475 2.0800252 0.50733 0.49774384 0.7547977 -0.1899101 0.1869058 0.2217187
-0.16190903 -0.49521562 2.204849 0.30792373 -4.196122 -2.3582451 5.473029 -1.449882
-0.7728365 0.56169724 0.2264515 -0.19704126 0.026187735 0.07452576 -2.2832572 1.2114917
-2.7265759 0.56265813 -0.9960666 -0.82789147 0.50888586 -0.5290672 0.16789655 -0.36190325
0.17412159 -0.090643585 -0.1702311 0.28436407 1.1037468 -0.9810138 2.2611618 -0.30081144
-0.06818874 0.33669683 0.34047014 -0.3455437 0.44040954 0.35148686 -0.44152987 -0.17907275
-1.0289478 1.229942 0.87901205 -0.03798432 0.03242702 0.16074723 0.06703991 0.27951473
-0.41581994 0.38519657 0.12255123 -0.07974795 -0.6681488 -0.18971705 -0.021444486 0.10332509
2.1227314 -2.7467642 -0.06083174 -2.160559 0.07339793 -0.3435635 -0.059610967 0.010299284
-0.1093896 0.13574204 0.5383055 0.88709164 1.2073103 2.605148 2.0304365 1.1476932
2.0803866 0.8634498 1.0374962 1.0299153 -0.29919302 0.30147332 -0.95612985 0.8811398
0.64842963 -0.9427949 0.17835772 -1.518811 -0.5540279 0.9084721 0.34691453 -0.66949195
0.7175631 -0.11155831 -0.3349093 0.34118766 -0.25012144 -0.5469966 -0.1291642 -0.55106914
-1.3266985 -0.1024389 1.8319565 0.03770908 0.23372689 -0.29541907 -0.304108 0.05793189
0.5648501 0.6351511 1.0641639 -0.44918278 -3.4866066 0.16469103 -3.6416857 -1.3237921
0.1989583 1.0749335 -0.7954696 0.14487629 0.058229055 0.24850509 0.073746495 -1.772319
-1.9011571 4.4022927 1.6788453 -0.5157043 -1.4531019 -0.35242733 -0.662288 -1.1122782
-0.13894519 -0.15606704 -0.615108 0.07419089 -1.0730104 -1.2143404 -0.5879202 -2.0374608
-2.1665733 1.2668114 0.03971425 -0.6388508 -0.45214924 0.20093587 -0.12775347 0.437262
-1.2519192 -1.5064124 -1.1617174 2.0883276 -7.097638 -1.0037893 -1.5978101 -0.7619351
-0.009968585 -0.81483895 -0.20600672 0.053813893 0.059284844 2.0260646 -1.4861317 -0.60625184
3.4381566 3.2763898 4.0871253 -1.0006013 0.69920015 -0.2985848 -0.34707347 0.063497506
0.21985711 0.38669136 -0.95963275 -0.14048195 -2.9077497 -2.3995388 -2.5577123 -5.444579
0.83996046 -0.036454458 0.22955912 -0.04464164 -0.12262155 -0.06453413 -0.04207027 -0.6410598
-1.1171592 0.41888562 2.9037788 -0.4439425 -6.684945 0.85837686 -0.2658243 -0.66008645
00000000: 18d0 acbf 3e07 573d 5082 5a3f 3486 293e
00000010: d479 9c3e fe99 ffbe 2841 393e 9040 0b40
00000020: 5e2f 293f a2dd 13bd 9ecb 803c 8a09 3f3e
00000030: 91ef c8be 8ed0 31bf c5cd de3f 1757 00be
00000040: b152 103e 73ee de3f 661d 893f e875 f83e
00000050: 05c1 e0bd 68ca c53e 8027 4f3e 1396 c13e
00000060: 68d5 d53e 08da 61be b00b 0bbf 5ec7 b63e
00000070: 6898 db3d 31de d83f c6ae 053f 2079 953f
00000080: 0c46 503e 427c a23f 4b4c 163f 4e45 293e
00000090: 3038 b93e 9f57 593d 816f adbe db95 083f
000000a0: 7a23 9cbf 1b61 16bf 7978 dfbe 3af5 3440
000000b0: c0fe e0c0 7f51 44bf 2182 843e 0912 0cbf
000000c0: a888 6dbe f9f9 acbd 4472 8a3c d00f febc
000000d0: 41b7 bbbe 2004 bd3f e295 17bf 00f7 0940
000000e0: f4fd 8340 221f 0540 61e0 013f 48d8 fe3e
000000f0: 6c3a 413f cb77 42be 3c64 3f3e 3a0a 633e
00000100: 7bcb 25be e78c fdbe 3f1c 0d40 2ea8 9d3e
00000110: a246 86c0 7ded 16c0 0e23 af40 bc95 b9bf
00000120: 9dd8 45bf 64cb 0f3f e7e2 673e 2fc5 49be
00000130: a987 d63c f6a0 983d e320 12c0 2912 9b3f
00000140: 3880 2ec0 5d0a 103f 38fe 7ebf b2f0 53bf
00000150: 5846 023f f370 07bf 13ed 2b3e 624b b9be
00000160: ee4c 323e 58a3 b9bd 1051 2ebe 2b98 913e
00000170: 9347 8d3f b823 7bbf e0b6 1040 f503 9abe
00000180: 8aa6 8bbd 8763 ac3e 1a52 ae3e 1beb b0be
00000190: 5c7d e13e 16f6 b33e 3410 e2be d95e 37be
000001a0: 90b4 83bf bd6e 9d3f ef06 613f 7295 1bbd
000001b0: 32d2 043d ec9a 243e 384c 893d 8e1c 8f3e
000001c0: 5ae6 d4be 7c38 c53e 24fc fa3d e552 a3bd
000001d0: cd0b 2bbf 3045 42be 59ac afbc 1b9c d33d
000001e0: d5da 0740 fcca 2fc0 b42a 79bd 9946 0ac0
000001f0: a751 963d 8ee7 afbe a12a 74bd 54be 283c
00000200: a807 e0bd f6ff 0a3e 64ce 093f 7018 633f
00000210: 2589 9a3f bfba 2640 acf2 0140 9ce7 923f
00000220: 0e25 0540 0c0b 5d3f adcc 843f 44d4 833f
00000230: d42f 99be b65a 9a3e edc4 74bf 6192 613f
00000240: 7cff 253f 025b 71bf 68a3 363e 6668 c2bf
00000250: c6d4 0dbf a191 683f c89e b13e d363 2bbf
00000260: 37b2 373f af78 e4bd 3b79 abbe 26b0 ae3e
00000270: eb0f 80be f807 0cbf 9f43 04be de12 0dbf
00000280: 42d1 a9bf 7ccb d1bd 8d7d ea3f d674 1a3d
00000290: 1a56 6f3e 2b41 97be 0bb4 9bbe fd49 6d3d
000002a0: 049a 103f 4399 223f 8636 883f 49fb e5be
000002b0: 9024 5fc0 c4a4 283e 6111 69c0 0572 a9bf
000002c0: b9bb 4b3e 6c97 893f e5a3 4bbf 735a 143e
000002d0: 9781 6e3d 1e78 7e3e 6708 973d 59db e2bf
000002e0: 1e59 f3bf 95df 8c40 67e4 d63f 3205 04bf
000002f0: 3eff b9bf 5b71 b4be b58b 29bf 225f 8ebf
00000300: a647 0ebe 0ad0 1fbe b877 1dbf 65f1 973d
00000310: 6858 89bf 826f 9bbf f081 16bf c265 02c0
00000320: 23a9 0ac0 e026 a23f 69ab 223d ba8b 23bf
00000330: 1b80 e7be 22c2 4d3e ced1 02be cee0 df3e
00000340: e33e a0bf 1fd2 c0bf 28b3 94bf 29a7 0540
00000350: da1f e3c0 2b7c 80bf 0b85 ccbf 2e0e 43bf
00000360: 4753 23bc 4999 50bf 6df3 52be f56b 5c3d
00000370: aad4 723d 0bab 0140 9039 bebf 5233 1bbf
00000380: c20a 5c40 5fb0 5140 bbc9 8240 b413 80bf
00000390: c8fe 323f 1be0 98be 9db3 b1be fb0a 823d
000003a0: 3922 613e 69fc c53e 7eaa 75bf 80da 0fbe
000003b0: 9218 3ac0 0b92 19c0 8fb1 23c0 fe39 aec0
000003c0: a607 573f 4551 15bd 8c11 6b3e 27da 36bd
000003d0: 0221 fbbd 782a 84bd e051 2cbd 7f1c 24bf
000003e0: 13ff 8ebf 2d78 d63e 83d7 3940 6e4c e3be
000003f0: 12eb d5c0 96be 5b3f 1f1a 88be 6dfb 28bf

critic.0.bias f4 [256]
0.5712892 0.8230897 0.27248538 -0.38699007 0.7097256 -0.91993904 0.70900434 0.7450784
0.31684747 -1.5905656 1.6795805 1.4241118 2.23933 -1.1384335 -0.7229204 1.4137446
-0.98511505 -0.49481463 0.74492455 0.68496543 -2.0622237 1.515377 -0.65130854 2.0421355
-1.0577216 -1.1477153 -0.4727825 -1.1615239 -1.5655125 1.0028296 1.9443333 -0.75826967
-1.8971035 -1.1787406 2.580142 0.88298756 -0.46216697 -0.6609577 0.73875314 -1.07209
-0.31507957 0.9320054 -0.3722551 1.1178828 0.889737 0.8207579 0.54703945 1.0053653
-0.7341509 1.528125 0.40260723 1.4393846 -0.08899962 -0.5156907 1.6008892 -2.230317
-0.6434751 -2.5913053 -0.78140134 2.6432824 0.70390654 0.9124567 1.7520142 0.3818767
-2.4827893 -1.1867627 -1.3181926 1.7880142 1.1731308 -0.8070476 -2.3263054 1.2898607
-2.307447 -1.4703584 -1.076483 -1.4059303 -0.3065178 -0.5892593 -2.4056218 -1.2155004
0.35339695 2.5082173 0.65055 -0.40638107 -1.7571228 -2.2465448 -0.6145171 0.29741916
2.07125 -1.5174426 -2.0690467 0.7907586 0.9523801 2.7549257 1.1611143 1.9056808
0.3010894 2.3895097 1.2911589 -1.6459534 0.57023215 1.8204031 -0.834807 -1.324198
1.2412878 -0.62660134 -2.246284 0.9195994 2.6042297 2.6581392 2.5080082 -0.6185842
-0.6899732 -1.6275727 0.4994999 0.59790397 1.0142062 -0.24840972 0.8746095 -0.40207604
-1.9943284 0.56377995 2.138633 -1.9285177 -0.6011827 0.6090012 2.0337977 -0.7602948
1.019288 0.92503154 0.035767082 -1.871566 -0.72193164 -1.0113449 1.7657311 -1.3976839
0.4487943 -0.33487982 -0.48227346 -0.72283477 -1.1716911 -2.4347818 1.8864738 -0.03272527
-2.3662484 -0.4862155 0.32530543 1.9872468 -0.6278617 -1.3792622 -0.5444288 -1.102668
-0.8832077 1.1073464 0.554331 0.61513734 -1.14009 0.3521097 0.5158131 0.63739336
-0.4060592 0.1553818 -0.7659863 -1.6088542 1.627891 -0.8810149 -0.78653324 -0.36913243
-0.74603057 -0.40317732 -1.7378473 -2.711841 1.0795125 -1.7750726 0.18370137 -0.030505814
-1.4810653 0.24524052 0.29473934 2.5846627 1.239346 -0.17649351 0.73370934 1.1259367
-0.6573836 0.68542147 1.5727775 0.6756473 -0.29540667 0.47211736 1.296057 0.24880767
-1.1072272 -0.16849099 1.5422739 -0.81082517 -1.4451293 0.337372 -1.727998 -0.9644659
2.2156098 -0.022387695 0.50864637 -2.5040689 -1.0396763 -1.0689924 -2.2221947 1.7388401
-0.2676962 2.1644037 -0.7567161 0.24275532 -0.50667816 1.184993 1.0035233 -0.30433437
0.3962999 -1.7474204 0.24124235 0.8442533 -2.2462187 0.9352259 2.5109546 0.82872075
0.19739638 -0.80165154 0.5012674 -0.54973143 -0.7407628 -0.6038873 -2.2656624 1.1244637
1.5750427 -0.601066 0.4376283 -0.5381751 -1.0435731 1.2569499 -1.1351321 -0.62635034
-2.3022678 2.0776334 0.3270414 1.4814701 -2.537621 -0.90854967 1.5314323 -2.3605118
-0.20492396 0.07630791 1.9548811 0.967938 -0.5628236 0.8721696 -0.66969734 -1.0276809
00000000: 0240 123f 02b6 523f 3483 8b3e 9023 c6be
00000010: 94b0 353f 2081 6bbf 4f81 353f 75bd 3e3f
00000020: d539 a23e a797 cbbf 7efc d63f 4c49 b63f
00000030: 2f51 0f40 30b8 91bf 5011 39bf 95f5 b43f
00000040: 8030 7cbf 5858 fdbe 60b3 3e3f e559 2f3f
00000050: 79fb 03c0 e0f7 c13f 28bc 26bf 59b2 0240
00000060: 6c63 87bf 56e8 92bf 8c10 f2be d1ac 94bf
00000070: b762 c8bf b85c 803f eadf f83f f61d 42bf
00000080: 4ad4 f2bf f9e0 96bf 0c21 2540 790b 623f
00000090: 26a1 ecbe 8634 29bf ed1e 3d3f 3f3a 89bf
000000a0: 1c52 a1be e897 6e3f 3898 bebe c916 8f3f
000000b0: cec5 633f 311d 523f c70a 0c3f cfaf 803f
000000c0: 50f1 3bbf 9a99 c33f 8922 ce3e c13d b83f
000000d0: 6f45 b6bd 4e04 04bf f0e9 cc3f 84bd 0ec0
000000e0: c9ba 24bf f2d7 25c0 eb09 48bf 8a2b 2940
000000f0: 3833 343f c396 693f 0042 e03f 5885 c33e
00000100: 05e6 1ec0 d7e7 97bf 89ba a8bf a6dd e43f
00000110: 2629 963f ac9a 4ebf 30e2 14c0 281a a53f
00000120: 36ad 13c0 b434 bcbf 32ca 89bf 86f5 b3bf
00000130: e7ef 9cbe b3d9 16bf b5f5 19c0 8495 9bbf
00000140: 72f0 b43e a286 2040 728a 263f 2e11 d0be
00000150: 66e9 e0bf 64c7 0fc0 fe50 1dbf 5347 983e
00000160: 5c8f 0440 8f3b c2bf 436b 04c0 286f 4a3f
00000170: 2fcf 733f b450 3040 659f 943f 59ed f33f
00000180: 6428 9a3e baed 1840 b244 a53f 9aae d2bf
00000190: bcfa 113f f802 e93f e9b5 55bf 527f a9bf
000001a0: 85e2 9e3f f268 20bf 1ec3 0fc0 de6a 6b3f
000001b0: b3ab 2640 f41e 2a40 3583 2040 895b 1ebf
000001c0: 15a2 30bf 4d54 d0bf 73be ff3e 3c10 193f
000001d0: 82d1 813f 1e5f 7ebe 68e6 5f3f e9dc cdbe
000001e0: 2746 ffbf e253 103f 5ddf 0840 abd9 f6bf
000001f0: 1ce7 19bf 81e7 1b3f be29 0240 aea2 42bf
00000200: 0778 823f dece 6c3f 8180 123d 7a8f efbf
00000210: 83d0 38bf c073 81bf 7a03 e23f 4ee7 b2bf
00000220: 5ec8 e53e 5e75 abbe 8cec f6be b30b 39bf
00000230: f9f9 95bf 77d3 1bc0 f977 f13f ef0a 06bd
00000240: 9d70 17c0 3df1 f8be 6f8e a63e 1a5e fe3f
00000250: 8bbb 20bf aa8b b0bf b05f 0bbf 3a24 8dbf
00000260: e619 62bf 87bd 8d3f a3e8 0d3f a479 1d3f
00000270: 78ee 91bf b947 b43e 540c 043f 362c 233f
00000280: fee6 cfbe 681c 1f3e ae17 44bf efee cdbf
00000290: bb5e d03f 318a 61bf 3e5a 49bf edfe bcbe
000002a0: dcfb 3ebf 426d cebe c871 debf ce8e 2dc0
000002b0: 772d 8a3f 9435 e3bf 361c 3c3e 54e7 f9bc
000002c0: 8c93 bdbf 5520 7b3e 13e8 963e 1d6b 2540
000002d0: e4a2 9e3f b7ba 34be 60d4 3b3f b21e 903f
000002e0: 4b4a 28bf c877 2f3f c650 c93f 39f7 2c3f
000002f0: 8b3f 97be 5eb9 f13e 32e5 a53f 70c7 7e3e
00000300: 9fb9 8dbf e788 2cbe 3b69 c53f 3d92 4fbf
00000310: fff9 b8bf 06bc ac3e 0a2f ddbf 3de7 76bf
00000320: 8dcc 0d40 6666 b7bc a636 023f aa42 20c0
00000330: 1d14 85bf bed4 88bf 7038 0ec0 5092 de3f
00000340: 7a0f 89be 9785 0a40 25b8 41bf da94 783e
00000350: a9b5 01bf daad 973f 7473 803f b7d1 9bbe
00000360: d2e7 ca3e 79ab dfbf 3c08 773e fc20 583f
00000370: 0cc2 0fc0 f76a 6f3f 7bb3 2040 0b27 543f
00000380: 4722 4a3e 0939 4dbf 0f53 003f 33bb 0cbf
00000390: a2a2 3dbf 5c98 1abf 9d00 11c0 6dee 8f3f
000003a0: 009b c93f 76df 19bf d110 e03e d8c5 09bf
000003b0: ce93 85bf bce3 a03f 024c 91bf 7f58 20bf
000003c0: 5b58 13c0 f2f7 0440 f871 a73e d0a0 bd3f
000003d0: 6268 22c0 b696 68bf f905 c43f a012 17c0
000003e0: 96d7 51be 5247 9c3d 8b39 fa3f c9ca 773f
000003f0: 3515 10bf 8246 5f3f 4971 2bbf 0c8b 83bf

critic.2.weight f4 [256, 256]
-0.47166786 -0.8806036 0.0033419882 -2.2094886 0.066702805 -0.95371234 0.8276916 -0.035090107
-0.7826638 -0.714597 -0.24265368 0.018128833 -0.49922633 -0.23052756 -0.7836272 0.014655597
-0.9987334 -1.1035175 -0.37909576 0.37148774 0.020406261 0.5226203 0.010207333 -0.5186923
-0.3801064 -0.1059906 -0.23515767 -1.049144 0.48764896 0.05261456 -0.530042 0.07385759
0.03249263 0.5096865 -0.37730366 0.9291773 -0.34039438 0.94820964 -0.36897254 -0.61307174
-1.2005951 -0.3878872 0.82938784 0.9203553 -1.0514629 -0.33442852 -0.52718663 0.022654176
-0.801477 1.12358 -1.4030253 0.22178149 0.3822847 0.56506515 0.6024243 0.01655085
0.13372034 0.41266698 -0.19023982 -0.53281397 -0.48965955 0.32046244 1.0811723 1.6346525
0.094558515 -0.77985585 0.84984577 -0.17517093 0.23479429 0.3245868 0.23307057 0.7522786
0.61223555 -1.1185048 -0.11195132 0.36226246 0.23705806 -0.36480728 0.8204928 -0.27156153
-0.13860554 -1.0805405 -0.029490402 -1.6005945 0.39787707 0.16262056 0.097873606 -0.13242434
-0.45092818 0.33776623 0.09148309 -0.4599583 2.8547752 -0.6805538 -0.11656043 -0.32699504
1.3956555 -0.35990348 -0.058544267 0.42350906 -0.7894074 0.15218394 0.8746203 0.79855
0.013395895 0.5870715 0.7026394 -0.9054234 -0.67733353 -0.26512256 -0.9423742 -0.63183904
-0.03316946 -0.25314412 0.45464376 0.7386592 0.9912567 -0.10948243 1.0936526 -1.8420184
0.84636664 0.6039618 -0.24654111 -0.38505208 0.36206433 -0.06784494 -0.5376502 0.041036513
-0.49772552 -0.48754656 -0.09327921 0.17621906 -0.30600882 0.6108583 0.21010427 -0.17167248
2.069779 0.29920617 0.79724944 -1.4207889 -0.080646895 -0.044882417 -0.29327893 -1.0928999
0.20948042 -1.3721911 0.98192817 -0.88145506 -2.603193 -0.6077303 0.6948142 -0.176732
0.42900345 1.4284831 -0.23084716 0.937263 -0.85209227 0.8625283 1.326479 0.42516267
-0.9374098 0.8739995 -1.2442461 0.41873777 -0.9644451 -0.688599 -0.4564575 0.2865745
0.46655408 -0.17726067 -0.18442865 0.9284542 1.2415019 0.7953559 0.099541135 0.44338122
-0.91841024 1.6651313 0.6061015 -0.08763438 0.92389286 0.21226597 0.6684419 -0.8381774
0.20424265 -0.73147017 0.6035209 -1.1061423 -0.5164405 0.81240857 -0.5533546 1.0396699
-1.2041173 -0.28766784 0.22995639 -0.030194458 0.067658775 -1.1065129 -0.111420445 -0.13791181
-0.19090234 0.79590505 -0.16012004 0.5314863 -1.1695292 0.56921315 1.0515903 0.55938524
-0.44549903 -0.09981743 0.40261033 -0.47803575 0.15292272 1.0588703 0.97547793 -0.45686117
0.8759006 0.20306812 0.52905595 0.7259812 -0.86465013 0.22166096 0.45229852 -0.22873768
-0.28871384 -1.021246 1.4256209 -0.16868192 0.58882093 0.42185625 0.3149922 0.29015642
0.25393263 0.58268714 -0.03901253 -1.0060985 0.10169777 -0.0023773606 -0.119288854 0.57749474
0.81597805 -1.056707 -0.08091491 0.3005321 0.46511012 -0.9137681 0.5200096 0.51184034
-0.82929283 -0.3071141 -0.15135002 0.69837725 -0.35469234 0.5121563 0.2826395 -0.46430746
00000000: 737e f1be 3d6f 61bf 4205 5b3b 4368 0dc0
00000010: 7b9b 883d 7e26 74bf 99e3 533f a5ba 0fbd
00000020: a85c 48bf d4ef 36bf 357a 78be eb82 943c
00000030: 989a ffbe 6b0f 6cbe cb9b 48bf 071e 703c
00000040: feac 7fbf 1040 8dbf d718 c2be a433 be3e
00000050: 082b a73c 72ca 053f a83c 273c 05c9 04bf
00000060: 4e9d c2be 9a11 d9bd 2ccd 70be 5a4a 86bf
00000070: 20ad f93e 5d82 573d d5b0 07bf a642 973d
00000080: fe16 053d d17a 023f f22d c1be 90de 6d3f
00000090: 2c48 aebe debd 723f f8e9 bcbe 45f2 1cbf
000000a0: 1aad 99bf 2799 c6be c352 543f 689c 6b3f
000000b0: 5696 86bf 373a abbe b4f5 06bf 4095 b93c
000000c0: 992d 4dbf 78d1 8f3f 5596 b3bf b01a 633e
000000d0: d2ba c33e 1ca8 103f 7b38 1a3f a695 873c
000000e0: fced 083e 1649 d33e 3ace 42be 7f66 08bf
000000f0: a8b4 fabe a713 a43e db63 8a3f 4b3c d13f
00000100: e5a7 c13d a2a4 47bf 7e8f 593f 0260 33be
00000110: ea6d 703e 3e30 a63e 0daa 6e3e 5595 403f
00000120: 78bb 1c3f 2a2b 8fbf bc46 e5bd 777a b93e
00000130: 59bf 723e 05c8 babe d10b 523f 1d0a 8bbe
00000140: 9cee 0dbe 274f 8abf db95 f1bc 48e0 ccbf
00000150: 8bb6 cb3e 0186 263e f571 c83d 3f9a 07be
00000160: 0fe0 e6be b2ef ac3e 7c5b bb3d a87f ebbe
00000170: a3b4 3640 c638 2ebf 3cb7 eebd e56b a7be
00000180: d7a4 b23f 4545 b8be 1dcc 6fbd 2ed6 d83e
00000190: 9a16 4abf 1bd6 1b3e 1ee7 5f3f c66d 4c3f
000001a0: 757a 5b3c 514a 163f 2de0 333f d4c9 67bf
000001b0: bb65 2dbf 25be 87be 703f 71bf 34c0 21bf
000001c0: b3dc 07bd 1b9c 81be 11c7 e83e c518 3d3f
000001d0: 00c3 7d3f 5338 e0bd cffc 8b3f 42c7 ebbf
000001e0: 7cab 583f 3e9d 1a3f 4675 7cbe 8c25 c5be
000001f0: 7f60 b93e 4af2 8abd 72a3 09bf e715 283d
00000200: e1d5 febe b49f f9be 2c09 bfbd c572 343e
00000210: 30ad 9cbe 3661 1c3f 9325 573e e9ca 2fbe
00000220: 4277 0440 8d31 993e 8a18 4c3f 69dc b5bf
00000230: 332a a5bd a0d6 37bd a828 96be 25e4 8bbf
00000240: 0982 563e f5a3 afbf a55f 7b3f 0aa7 61bf
00000250: b79a 26c0 3794 1bbf 58df 313f 3cf9 34be
00000260: 57a6 db3e 89d8 b63f 3363 6cbe 78f0 6f3f
00000270: b822 5abf a8ce 5c3f 10ca a93f ecae d93e
00000280: 17fa 6fbf 6ebe 5f3f 7543 9fbf cc64 d63e
00000290: e0e5 76bf 0648 30bf ccb4 e9be e5b9 923e
000002a0: 2de0 ee3e d283 35be ddda 3cbe 2daf 6d3f
000002b0: 89e9 9e3f 729c 4b3f 39dc cb3d dd02 e33e
000002c0: ef1c 6bbf 0623 d53f 7829 1b3f a779 b3bd
000002d0: 3e84 6c3f 405c 593e 021f 2b3f cb92 56bf
000002e0: fc24 513e a141 3bbf 5880 1a3f 1296 8dbf
000002f0: 7235 04bf 02fa 4f3f a6a8 0dbf e713 853f
00000300: 8420 9abf 3349 93be b079 6b3e 5e5a f7bc
00000310: af90 8a3d 37a2 8dbf 6730 e4bd c138 0dbe
00000320: e77b 43be 6fc0 4b3f 82f6 23be 7c0f 083f
00000330: 22b3 95bf f4b7 113f 839a 863f df33 0f3f
00000340: 7318 e4be 156d ccbd f122 ce3e 1ac1 f4be
00000350: c697 1c3e 1089 873f ecb8 793f b5e9 e9be
00000360: 063b 603f 17f1 4f3e 3670 073f e7d9 393f
00000370: b659 5dbf 17fb 623e ac93 e73e 363a 6abe
00000380: 4dd2 93be 30b8 82bf bf7a b63f f4ba 2cbe
00000390: f8bc 163f 8bfd d73e a846 a13e 628f 943e
000003a0: 7503 823e fc2a 153f 9acb 1fbd d6c7 80bf
000003b0: ec46 d03d 7ecd 1bbb b74d f4bd b2d6 133f
000003c0: f0e3 503f 2d42 87bf b7b6 a5bd 58df 993e
000003d0: ea22 ee3e b5ec 69bf 591f 053f f807 033f
000003e0: 894c 54bf 0f3e 9dbe 80fb 1abe dac8 323f
000003f0: 3c9a b5be ad1c 033f 20b6 903e b5b9 edbe

critic.2.bias f4 [256]
0.42240757 -0.7336318 0.6092996 -0.31016806 0.3738973 0.6298538 1.186164 0.06267501
-0.17574339 -0.19475824 -0.016344117 -0.052947063 0.9764246 -0.8195839 0.23850127 -0.19284625
0.3231913 0.48323974 -0.29185626 0.24754047 0.49745136 0.13074443 0.024221642 -0.053023845
-0.0527268 -0.44858268 0.39694932 -0.04714099 -0.1400815 -0.021831486 0.49375317 -0.3335408
0.24688244 0.20757388 -0.5789867 -0.43250784 -0.10274918 0.602377 0.3779175 -0.70932347
0.12168237 1.0087805 1.3333827 0.3363737 -0.31980488 -0.008277192 -0.4731827 -1.6674417
-0.06683565 -0.16501518 0.5241943 -0.3592645 0.18291397 -1.072205 -0.12799078 0.78106076
0.77121234 -0.40412104 -0.07457262 -0.1432441 -0.35492513 0.6028901 -0.24903724 0.77278847
-0.317844 0.36522296 -0.0850058 0.3103332 2.304744 -0.5910084 0.45424837 -0.31520447
0.26189804 0.7815681 0.14105618 0.12966554 -0.09532842 0.76390463 -0.0011962412 0.301294
-0.5147149 -0.040447444 -1.4573854 -0.07883442 -1.0999763 -0.26592433 -0.0902433 -0.5475
0.09857287 0.32132247 -0.1155029 0.6893974 0.5299202 0.48816618 -0.31120482 0.44451326
-0.2740256 -0.6077597 -0.42735192 -0.5156546 -0.2039294 -0.15365736 -1.2312292 0.08301683
1.3876323 0.38853642 0.18793839 -0.201504 -0.10904585 0.09641633 0.042051576 -0.3304723
1.3360991 -0.03770939 0.19286413 0.50368416 0.09591604 0.48931053 -0.54844964 -0.3285763
0.3538465 1.0513409 0.6845688 0.22911897 2.100058 -0.069502205 0.057330947 -1.1918962
-0.4119704 0.28294215 -0.7470169 1.4053781 0.8448409 0.45990232 0.60597795 -0.32405406
1.1167214 -0.5875043 -0.60423887 -0.39788213 -1.2155894 -2.2451515 1.815053 -0.77938753
0.9958836 0.65205157 -0.9302596 0.41860473 -0.24306537 -0.47542548 0.22093552 0.84559226
1.5175464 0.1621988 -1.0219265 -0.200921 0.18261912 -0.16385846 0.13826694 0.13743958
0.14148057 0.48873818 1.0112058 1.6890186 -0.20922402 -0.6668719 1.3044093 0.14177051
-0.026217524 -0.32123485 0.8591147 -0.4840193 -0.10338661 -0.83277637 -0.39650956 0.7229299
-0.28856224 -1.2464063 -0.21293063 -0.38126478 0.17814557 -0.319613 -0.854788 0.18126525
-1.1890606 1.729134 2.0674481 0.7340235 -0.680891 -0.1100653 0.079011366 0.59237176
0.19739418 -0.4605859 0.45303038 0.39239296 -0.5160566 0.19345686 -0.061042234 0.45254925
-1.2185514 -0.17175859 -0.090122 -0.3098998 0.14721036 0.2504381 0.5716412 0.20003651
-2.196477 0.48689026 0.79678965 -1.0868349 -0.52733994 0.2533739 0.5433036 0.2818806
0.08893635 -0.12138008 0.09835627 0.7654637 0.06778958 0.3020952 -0.17870715 0.74498045
-0.7673187 1.0309492 0.2582997 -0.6502159 -0.03763229 0.035135478 -1.6593547 0.079171784
-0.18455422 0.47107762 -0.00365362 -0.09579161 0.12791744 -0.118548736 0.6882327 -0.46637505
-0.39510658 0.2758983 0.6184237 -0.5712616 0.1455293 -0.9602402 -0.12580127 0.18365757
0.8490477 0.26675025 0.21761866 -0.21784526 -0.300131 0.57882047 -0.7003022 0.18494523
00000000: ce45 d83e 4bcf 3bbf 0ffb 1b3f 59ce 9ebe
00000010: 786f bf3e 193e 213f 39d4 973f c15b 803d
00000020: 13f6 33be b46e 47be 19e4 85bc 05df 58bd
00000030: f6f6 793f 40d0 51bf ad39 743e 7d79 45be
00000040: 5479 a53e 336b f73e 2f6e 95be 407b 7d3e
00000050: f2b1 fe3e dee1 053e 776c c63c 882f 59bd
00000060: 0ff8 57bd a1ac e5be f13c cb3e e916 41bd
00000070: 8671 0fbe f2d7 b2bc 37cd fc3e dcc5 aabe
00000080: c0ce 7c3e 3f8e 543e 7938 14bf ab71 ddbe
00000090: 296e d2bd 6135 1a3f 677e c13e 3996 35bf
000000a0: 9b34 f93d b81f 813f 49ac aa3f 2c39 ac3e
000000b0: 77bd a3be 0f9d 07bc 0145 f2be bb6e d5bf
000000c0: 21e1 88bd bdf9 28be 9931 063f 84f1 b7be
000000d0: cd4d 3b3e 033e 89bf 0410 03be 99f3 473f
000000e0: 2c6e 453f f4e8 cebe 88b9 98bd 95ae 12be
000000f0: bfb8 b5be 0157 1a3f 9e03 7fbe 77d5 453f
00000100: 73bc a2be 81fe ba3e 8517 aebd fee3 9e3e
00000110: ed80 1340 544c 17bf 3e93 e83e 7b62 a1be
00000120: 8017 863e d914 483f 0871 103e 0bc7 043e
00000130: 8c3b c3bd 418f 433f 32cb 9cba 3543 9a3e
00000140: 5bc4 03bf 38ac 25bd 9b8b babf f173 a1bd
00000150: 06cc 8cbf 3c27 88be 7bd1 b8bd f628 0cbf
00000160: 93e0 c93d 6184 a43e c98c ecbd 597c 303f
00000170: daa8 073f ebf0 f93e 3d56 9fbe 3e97 e33e
00000180: 154d 8cbe 2496 1bbf dfcd dabe f101 04bf
00000190: ded2 50be 5b58 1dbe eb98 9dbf ba04 aa3d
000001a0: ef9d b13f 3fee c63e ec72 403e 1157 4ebe
000001b0: 6e53 dfbd ed75 c53d 463e 2c3d aa33 a9be
000001c0: 4c05 ab3f 2975 1abd 2d7e 453e 72f1 003f
000001d0: a16f c43d e986 fa3e 3267 0cbf 273b a8be
000001e0: 5e2b b53e 5792 863f e73f 2f3f 2a9e 6a3e
000001f0: 5a67 0640 2c57 8ebd dbd3 6a3d 0e90 98bf
00000200: c9ed d2be cbdd 903e 803c 3fbf 6ee3 b33f
00000210: 7e47 583f 5178 eb3e 5f21 1b3f 6aea a5be
00000220: baf0 8e3f af66 16bf 66af 1abf 35b7 cbbe
00000230: 6f98 9bbf 90b0 0fc0 a853 e83f f185 47bf
00000240: 3af2 7e3f daec 263f 7e25 6ebf 5c53 d63e
00000250: 21e6 78be f86a f3be ec3c 623e bc78 583f
00000260: f63e c23f 7117 263e 7dce 82bf 3cbe 4dbe
00000270: 8200 3b3e 83ca 27be d995 0d3e f6bc 0c3e
00000280: 48e0 103e e43b fa3e 316f 813f c331 d83f
00000290: d23e 56be 1eb8 2abf e2f6 a63f 4a2c 113e
000002a0: 22c6 d6bc e578 a4be f1ee 5b3f 61d1 f7be
000002b0: 5cbc d3bd d530 55bf 4d03 cbbe ef11 393f
000002c0: 6ebe 93be 3e8a 9fbf 7d0a 5abe 2335 c3be
000002d0: cb6b 363e 51a4 a3be 63d3 5abf 999d 393e
000002e0: 2333 98bf 4354 dd3f 1251 0440 f7e8 3b3f
000002f0: df4e 2ebf ea69 e1bd b6d0 a13d ada5 173f
00000300: b321 4a3e ead1 ebbe 99f3 e73e bbe7 c83e
00000310: 491c 04bf 8e19 463e 6c07 7abd 89b4 e73e
00000320: 7ef9 9bbf 7ce1 2fbe e291 b8bd 30ab 9ebe
00000330: 50be 163e 6c39 803e 1457 123f 5fd6 4c3e
00000340: 1493 0cc0 ae49 f93e 68fa 4b3f 681d 8bbf
00000350: c0ff 06bf 39ba 813e f215 0b3f a752 903e
00000360: 4324 b63d 1f96 f8bd 036f c93d 6ef5 433f
00000370: 43d5 8a3d 39ac 9a3e 02ff 36be 0ab7 3e3f
00000380: 006f 44bf 25f6 833f dc3f 843e 8d74 26bf
00000390: 5124 1abd 38ea 0f3d bc65 d4bf d124 a23d
000003a0: c8fb 3cbe 1631 f13e 9271 6fbb 642e c4bd
000003b0: cafc 023e aec9 f2bd 0530 303f b6c8 eebe
000003c0: 694b cabe 8b42 8d3e 0451 1e3f 333e 12bf
000003d0: a205 153e 4dd2 75bf 0cd2 00be bb10 3c3e
000003e0: 315b 593f 7d93 883e 6dd7 5e3e d412 5fbe
000003f0: c5aa 99be 942d 143f 0147 33bf 4862 3d3e

critic.4.weight f4 [1, 256]
7.1335044 -2.1330316 3.3954403 2.1508193 -2.2688212 -3.535025 6.0397663 5.1988645
-2.9456763 -4.245753 -1.5012078 -2.1955388 7.436947 -6.901165 3.7674036 4.377589
4.6681347 -3.9755561 -2.7593927 6.6414046 1.4015504 2.139698 3.849707 -2.7475705
-5.6905255 3.090127 -2.175382 -2.9568932 4.0548205 1.5723008 -3.3331335 6.88802
3.4782631 -2.1991932 -6.3972025 -3.3945003 -2.29245 -4.1484385 -1.7269447 -5.1596737
2.0852325 2.5026245 2.7978604 -2.0682726 1.7227143 6.2391233 -1.5772096 -3.605311
-1.5220984 6.506793 -3.088417 -2.9636412 2.8190851 -3.4699728 3.6119478 -1.7126263
-2.245798 -5.6470118 -2.8811827 -1.9164326 3.7557068 1.9840586 -3.5414498 -2.1573625
2.1506073 5.2509713 -2.7064407 -3.0515344 4.1865396 2.2436461 3.9993947 6.1645145
-3.6813471 3.46076 -1.856227 2.3695102 6.866213 2.5185733 4.557367 -6.3731475
3.7084968 1.4627799 -7.1100492 5.2668347 -2.6718762 2.2385244 4.2444916 -3.3709686
-2.8710363 -3.1446679 3.3089645 -2.6435645 -5.197834 -4.5778794 3.1408243 -2.5306532
5.382181 -3.374609 1.6430155 1.777207 6.230642 -3.0443761 -8.667174 3.2717848
2.2853801 -2.9485273 -2.0075395 -3.5418422 2.1573062 -7.236416 -3.3935828 2.282574
1.8850493 1.817756 -5.351412 4.3125525 4.565507 2.4226885 -4.9803395 -0.59469444
5.189306 6.754918 2.1351354 3.8179548 3.773677 1.632019 -3.8787725 -1.9288999
5.2546787 -1.9056898 7.420382 5.609839 -1.9285041 2.4077868 2.6715028 1.9077576
2.7253492 1.8700796 -2.816226 -3.284895 -3.967677 -2.3571968 3.435163 -3.055748
-8.002536 3.8381593 -2.614466 -1.9056153 -1.5333036 1.8733624 -4.804405 2.2572732
3.3424711 6.335975 -2.2784076 -1.4291826 1.4714181 -1.4683727 1.4933573 6.1518087
-2.739098 2.9531593 1.9207152 1.9565666 1.8879004 -6.293209 5.6266975 -1.5279127
-1.526454 10.3548765 3.3841078 3.5666168 2.4522922 -6.185459 2.943645 3.8153007
3.7822268 -4.1426606 2.5505977 2.0341866 -1.6391567 -4.756354 -10.273581 5.1486077
-2.7499332 2.5224354 2.8835728 6.3996477 4.606276 4.7993164 3.1346507 4.720081
-3.1268253 3.1549783 -4.461017 5.817592 2.1225224 -2.1498382 3.7774727 -3.7275627
2.968784 1.828042 -3.0670733 2.393729 -7.5915775 -2.532975 5.1941013 -3.0477307
-3.8442569 4.001979 -7.7633057 -6.609913 -2.0314589 4.2610617 3.6032777 -7.424373
2.4929678 3.7264838 -8.009723 6.094705 1.4513447 3.95039 1.7395374 7.5981565
8.44377 8.522718 -3.811133 -3.4421341 2.5941355 -7.052636 -2.6649716 -3.56747
2.0211692 -3.830294 2.4543002 -2.6071856 7.0813026 -4.535307 -2.394501 -2.308865
2.882527 -5.362245 -4.29425 1.9172415 -1.734299 1.4914231 1.5215484 2.9167683
-4.2498 2.1631026 -2.2030127 2.3988895 2.2403104 -3.300464 -5.5681524 -1.4900004
00000000: ab45 e440 9783 08c0 e54e 5940 06a7 0940
00000010: 5e34 11c0 d93d 62c0 c445 c140 195d a640
00000020: f685 3cc0 35dd 87c0 9427 c0bf b583 0cc0
00000030: 78fb ed40 58d6 dcc0 241d 7140 3615 8c40
00000040: 5c61 9540 836f 7ec0 e499 30c0 6386 d440
00000050: 0166 b33f d0f0 0840 9961 7640 32d8 2fc0
00000060: c918 b6c0 a4c4 4540 7539 0bc0 bd3d 3dc0
00000070: 17c1 8140 2741 c93f 0f52 55c0 a96a dc40
00000080: dd9b 5e40 95bf 0cc0 e2b5 ccc0 7e3f 59c0
00000090: 80b7 12c0 02c0 84c0 860c ddbf 0c1c a5c0
000000a0: 7374 0540 002b 2040 2510 3340 945e 04c0
000000b0: e781 dc3f e6a6 c740 01e2 c9bf 6abd 66c0
000000c0: 1fd4 c2bf a637 d040 a0a8 45c0 4cac 3dc0
000000d0: e46b 3440 0914 5ec0 272a 6740 5737 dbbf
000000e0: 28bb 0fc0 52b4 b4c0 4c65 38c0 aa4d f5bf
000000f0: 805d 7040 a2f5 fd3f 1da7 62c0 3a12 0ac0
00000100: 8da3 0940 f507 a840 5336 2dc0 574c 43c0
00000110: 22f8 8540 e697 0f40 15f6 7f40 b443 c540
00000120: 319b 6bc0 187d 5d40 d998 edbf 0ea6 1740
00000130: 04b8 db40 4e30 2140 f3d5 9140 d3f0 cbc0
00000140: 0358 6d40 5f3c bb3f 8685 e3c0 e989 a840
00000150: 0500 2bc0 fc43 0f40 e0d2 8740 f3bd 57c0
00000160: 0fbf 37c0 3d42 49c0 13c6 5340 2930 29c0
00000170: a854 a6c0 fd7d 92c0 4403 4940 39f6 21c0
00000180: d43a ac40 98f9 57c0 554e d23f 857b e33f
00000190: 6b61 c740 0fd7 42c0 bfac 0ac1 ec64 5140
000001a0: ab43 1240 acb4 3cc0 877b 00c0 8bad 62c0
000001b0: 4e11 0a40 b890 e7c0 7630 59c0 b115 1240
000001c0: 4c49 f13f 3bac e83f c43e abc0 6e00 8a40
000001d0: a218 9240 540d 1b40 f15e 9fc0 e53d 18bf
000001e0: cb0e a640 4a28 d840 0fa6 0840 5f59 7440
000001f0: ed83 7140 00e6 d03f cf3d 78c0 31e6 f6bf
00000200: 5426 a840 a5ed f3bf c573 ed40 cd83 b340
00000210: 39d9 f6bf 2e19 1a40 e7f9 2a40 6731 f43f
00000220: 1f6c 2e40 c55e ef3f 0c3d 34c0 b83b 52c0
00000230: 6cee 7dc0 50dc 16c0 b6d9 5b40 6091 43c0
00000240: 630a 00c1 67a4 7540 6953 27c0 34eb f3bf
00000250: 4b43 c4bf 57ca ef3f b0bd 99c0 2a77 1040
00000260: 0ceb 5540 4fc0 ca40 6ed1 11c0 75ef b6bf
00000270: 6e57 bc3f a3f3 bbbf 5526 bf3f 9edb c440
00000280: 624d 2fc0 9000 3d40 ffd9 f53f c670 fa3f
00000290: b8a6 f13f f861 c9c0 e80d b440 a592 c3bf
000002a0: d862 c3bf 93ad 2541 3995 5840 7343 6440
000002b0: 5bf2 1c40 48ef c5c0 ae64 3c40 e32d 7440
000002c0: 0110 7240 ad90 84c0 fe3c 2340 1d30 0240
000002d0: e3cf d1bf 0d34 98c0 9660 24c1 65c1 a440
000002e0: e8fe 2fc0 956f 2140 758c 3840 eac9 cc40
000002f0: 9d66 9340 0094 9940 1e9e 4840 e70a 9740
00000300: e81d 48c0 2aeb 4940 a7c0 8ec0 b729 ba40
00000310: 68d7 0740 f396 09c0 1dc2 7140 6390 6ec0
00000320: 8f00 3e40 48fd e93f ee4a 44c0 db32 1940
00000330: 34ee f2c0 431c 22c0 1436 a640 050e 43c0
00000340: 4e08 76c0 3610 8040 006d f8c0 6884 d3c0
00000350: 6c03 02c0 9e5a 8840 1a9c 6640 7794 edc0
00000360: c98c 1f40 b67e 6e40 d327 00c1 d307 c340
00000370: aac5 b93f 31d3 7c40 29a9 de3f 1924 f340
00000380: af19 0741 0e5d 0841 9ae9 73c0 ed4b 5cc0
00000390: 5106 2640 32af e1c0 e58e 2ac0 6e51 64c0
000003a0: d65a 0140 8923 75c0 4113 1d40 21dc 26c0
000003b0: 089a e240 3c21 91c0 813f 19c0 72c4 13c0
000003c0: 537b 3840 8397 abc0 7f6a 89c0 2b68 f53f
000003d0: 82fd ddbf f4e6 be3f 19c2 c23f 55ac 3a40
000003e0: 5dfe 87c0 4670 0a40 29fe 0cc0 6887 1940
000003f0: 3f61 0f40 cd3a 53c0 4e2e b2c0 55b8 bebf

actor_mean.0.weight f4 [256, 13]
0.036465846 -0.4557096 -0.19863299 0.90207154 0.47967103 0.35267916 0.26776233 -0.036911793
-0.32676694 -0.26669088 0.07842425 -0.06283261 -0.04286993 -0.10653669 0.03564334 -0.036491305
0.17475624 -0.091930315 -0.06935231 0.12204874 -0.04367475 -0.35213593 -0.050606888 -0.46946633
0.04927278 -0.35120174 -0.33351463 0.13712564 -0.8319246 -0.39467213 -0.6530273 -0.5442582
-0.056438435 -0.1724018 0.21055655 -0.36868468 -0.12321178 -0.15437269 0.20624185 -0.25737277
-0.037372764 -0.14051425 0.20661776 -0.57596576 -0.32909834 0.07822724 -0.13504349 -0.0032779828
-0.15005073 -0.06859106 -0.014559912 -0.48395362 -0.22729653 0.40094718 -0.2625892 -1.3023745
-0.8059544 0.13842249 -0.003130891 -0.11200622 0.3136239 -0.19317016 -0.20838125 -0.21155381
0.3332272 0.013343573 0.26751775 -0.47805777 -0.14362848 -0.18543772 -0.25770396 -0.026502583
-0.14568149 0.08873691 -0.15758155 -0.44082376 0.087265156 -0.3988491 0.21314076 0.060826946
-0.0045285593 0.26576006 0.14982174 -0.019090729 0.031031033 -0.008629335 0.33055833 0.1632549
0.18984297 0.1464674 0.07361821 0.18977754 0.16496038 0.56007767 -0.06273072 0.5570734
0.18576428 -0.057054654 0.1852169 0.026052296 0.30398023 0.06371267 0.104454875 0.6768083
-0.021697052 0.0833357 0.01319397 -0.27654973 -0.029552683 0.28759378 0.06676047 -0.02318946
-0.37901312 -0.007894785 -0.6012973 0.1499858 -0.13355967 0.2889983 -0.28483632 0.13007137
0.72628605 1.1338735 0.8130788 0.047197927 0.1551648 -0.5039065 -0.0077640936 0.3145649
0.23221323 0.33759898 0.14650045 -0.074914664 -0.076193616 -0.033981457 -0.172656 -0.019400137
-0.12077673 0.14039746 0.17332745 -0.06147236 0.4593866 -0.16550474 0.3209422 0.12363228
0.17508757 0.028318873 0.13364871 0.5790756 -0.496969 0.099866726 0.45249534 -0.14468783
-0.02213936 -0.05474615 0.22848746 -0.59073734 -0.09936435 -0.027981026 0.18109174 -0.06561426
-0.22702387 0.14611624 0.043407332 -0.13869646 -0.29167354 -0.13634835 -0.3613961 0.20231606
-0.5150046 -0.24409078 -0.3382296 0.5634426 1.1884214 -0.11893744 0.06294383 -0.0010303393
-0.008652838 -0.43677858 0.3392738 0.2676514 0.20147781 -0.19265305 -0.08210967 0.09749584
0.1443442 -0.16511399 -0.15691866 0.31972185 0.06303859 -0.1104845 -0.39977518 -0.053012453
-0.46723294 0.10112537 -0.25378135 -0.05517297 0.2180612 0.22658518 -1.2466472 -0.5410225
0.43716064 -0.058894772 0.116304204 0.23377837 0.23038286 -0.15795216 -0.049595386 0.097178616
0.14187427 -0.17945036 -0.49704754 1.3797634 0.5090395 0.71349484 0.004816091 0.035869382
-0.33534718 -0.41435605 0.26000392 0.08253092 -0.26189306 0.33168605 -0.05252689 -0.39033622
0.09206472 0.23864272 -0.07560709 -0.09246417 0.12500203 0.39457214 -0.025412038 0.32557115
-0.0852512 0.7616127 -0.14405504 -0.12984113 -0.19955088 0.22852337 -0.33955514 0.20828313
0.042352658 -0.2082767 -0.29448932 -0.20886733 -0.23845042 0.03135796 0.40762052 0.48268816
0.46356168 -0.17040484 -1.9502584 1.1173353 -0.13348725 -0.019408809 0.3414439 0.2480287
00000000: 365d 153d c552 e9be 7266 4bbe 29ee 663f
00000010: 7197 f53e 5d92 b43e 2518 893e d230 17bd
00000020: ff4d a7be b58b 88be e59c a03d 62ae 80bd
00000030: 6198 2fbd e82f dabd c0fe 113d e877 15bd
00000040: 4df3 323e f645 bcbd 9508 8ebd b1f4 f93d
00000050: 4be4 32bd 294b b4be 2b49 4fbd e45d f0be
00000060: 41d2 493d b7d0 b3be 6ec2 aabe aa6a 0c3e
00000070: 03f9 54bf 7712 cabe cc2c 27bf 8154 0bbf
00000080: fd2b 67bd 198a 30be 239c 573e 3dc4 bcbe
00000090: 7556 fcbd e013 1ebe 1031 533e 5dc6 83be
000000a0: 2f14 19bd f8e2 0fbe 9b93 533e 7e72 13bf
000000b0: 947f a8be 9a35 a03d d748 0abe 6dd3 56bb
000000c0: e6a6 19be 7879 8cbd b28c 6ebc c5c8 f7be
000000d0: 6cc0 68be f348 cd3e 1772 86be 35b4 a6bf
000000e0: 0753 4ebf a0be 0d3e a22f 4dbb 8463 e5bd
000000f0: 5093 a03e 66ce 45be e561 55be 90a1 58be
00000100: c19c aa3e 009f 5a3c 16f8 883e fdc3 f4be
00000110: 5813 13be 63e3 3dbe c6f1 83be f21b d9bc
00000120: 872d 15be b2bb b53d 0f5d 21be a7b3 e1be
00000130: 13b8 b23d f335 ccbe 9241 5a3e ad25 793d
00000140: 4f64 94bb b411 883e df6a 193e 2964 9cbc
00000150: cb34 fe3c 0e62 0dbc f13e a93e 4b2c 273e
00000160: 3266 423e 8dfb 153e 25c5 963d 0b55 423e
00000170: 60eb 283e 4061 0f3f f778 80bd 5d9c 0e3f
00000180: fe38 3e3e 24b2 69bd 80a9 3d3e a06b d53c
00000190: 4ca3 9b3e ca7b 823d 70ec d53d 4f43 2d3f
000001a0: 04be b1bc e8ab aa3d 852b 583c ed97 8dbe
000001b0: 7818 f2bc 7e3f 933e b7b9 883d d3f7 bdbc
000001c0: 020e c2be 2159 01bc 9fee 19bf e195 193e
000001d0: dec3 08be 96f7 933e 11d6 91be 6e31 053e
000001e0: e2ed 393f c422 913f ef25 503f 9d52 413d
000001f0: 85e3 1e3e 0400 01bf f069 febb a70e a13e
00000200: 4ec9 6d3e c6d9 ac3e 3704 163e dc6c 99bd
00000210: 660b 9cbd 2430 0bbd bccc 30be 09ed 9ebc
00000220: ca59 f7bd 5ac4 0f3e c07c 313e 71ca 7bbd
00000230: b834 eb3e 137a 29be 8952 a43e ec32 fd3d
00000240: 284a 333e fbfc e73c 35db 083e 4c3e 143f
00000250: b972 febe ed86 cc3d 78ad e73e 0c29 14be
00000260: 9a5d b5bc 803d 60bd 9ef8 693e 903a 17bf
00000270: 897f cbbd 7738 e5bc 1d70 393e c560 86bd
00000280: f278 68be 7f9f 153e e3cb 313d 7206 0ebe
00000290: 3c56 95be e79e 0bbe e908 b9be f12b 4f3e
000002a0: 57d7 03bf eff2 79be 6e2c adbe c63d 103f
000002b0: 311e 983f 7995 f3bd b2e8 803d 730c 87ba
000002c0: a2c4 0dbc 71a1 dfbe 4cb5 ad3e 9b09 893e
000002d0: 3350 4e3e d746 45be 1d29 a8bd e6ab c73d
000002e0: f7ce 133e a413 29be 49af 20be 95b2 a33e
000002f0: 601a 813d b345 e2bd 55af ccbe 9623 59bd
00000300: 2839 efbe d11a cf3d a1ef 81be 0dfd 61bd
00000310: 6f4b 5f3e f205 683e 2392 9fbf 7380 0abf
00000320: 85d3 df3e a53b 71bd e630 ee3d 9963 6f3e
00000330: 7ce9 6b3e 36be 21be 8824 4bbd 9505 c73d
00000340: 7d47 113e d6c1 37be 047d febe 169c b03f
00000350: 6a50 023f 99a7 363f 4dd0 9d3b c6eb 123d
00000360: a0b2 abbe 7a26 d4be 3c1f 853e f905 a93d
00000370: d916 86be c1d2 a93e 7026 57bd 26da c7be
00000380: 6e8c bc3d c25e 743e e4d7 9abd db5d bdbd
00000390: 8800 003e 5c05 ca3e e82c d0bc 43b1 a63e
000003a0: 2e98 aebd 0df9 423f 2a83 13be 13f5 04be
000003b0: 1157 4cbe 0802 6a3e 2cda adbe 2c48 553e
000003c0: fb79 2d3d 7d46 55be 4ec7 96be 51e1 55be
000003d0: 592c 74be 3471 003d a3b3 d03e e722 f73e
000003e0: f557 ed3e 9b7e 2ebe 11a2 f9bf d804 8f3f
000003f0: e2b0 08be 39ff 9ebc bcd1 ae3e 3cfb 7d3e

actor_mean.0.bias f4 [256]
0.29016784 0.17781194 7.965778e-05 0.0134547595 -0.17215616 0.034286987 -0.074061684 -0.1225684
0.18092737 0.07090089 -0.25107163 0.04974059 0.13983412 0.0151473535 0.19437355 -0.08946121
-0.0005290279 -0.028916717 0.09527397 0.046840575 0.005178482 -0.0009629166 -0.09737884 0.022242714
0.14856711 0.12767051 -0.037687086 -0.028735625 -0.062097076 -0.052978676 0.13690937 0.009572857
-0.025226872 -0.029029666 0.001856611 -0.038425226 0.024006978 0.011037457 -0.11363139 0.14152555
-0.11811453 -0.15918899 0.26867923 -0.14198822 -0.008083344 0.21259138 -0.11954559 -0.028026437
0.13573645 0.2687443 -0.07607255 0.06725153 -0.14488494 0.115397125 0.040120896 0.022334425
-0.1733614 -0.14504185 -0.07066515 0.058913194 0.045187242 -0.12977527 0.12828578 0.10544337
0.05147366 0.039138462 0.019498022 -0.04745076 0.05451269 0.0468986 -0.10656193 -0.16509089
-0.19648807 -0.19659035 0.08502866 -0.034557506 -0.039087676 0.15083085 0.015627163 0.10712615
-0.034951966 0.013798451 0.12581068 -0.06805111 -0.14408194 0.0052883998 0.19273627 0.09495886
0.16371857 0.032956295 -0.032539356 0.0106607815 0.07963052 0.016402012 0.028787224 0.0669829
-0.09715704 0.1559927 -0.015813692 0.06983543 -0.14087856 0.16894469 -0.015409536 -0.16158028
0.008229297 -0.0512534 0.043805774 0.14892487 0.12530756 -0.10482193 0.015300418 0.027191585
0.096273966 -0.039340653 -0.094946615 0.07501267 0.015960673 0.0138472235 0.05171283 -0.10832222
-0.022062168 0.006266275 0.002245989 -0.0030618538 0.058894776 0.023396844 -0.10009912 -0.102085255
-0.030576896 0.11165095 -0.15399054 -0.10030343 -0.15454057 -0.0032441006 0.16855426 0.040892217
0.1697559 0.03051203 -0.12581529 -0.11692399 -0.14415014 -0.07934935 -0.106987834 -0.23471838
0.07222935 -0.101983264 0.08158965 0.085188344 -0.013678037 -0.005891221 0.12940896 0.23867634
-0.089450896 -0.090505175 -0.28196648 -0.2536771 0.065351345 0.017269133 -0.18960945 0.026998544
-0.028601732 0.06479372 0.086937964 -0.15967108 0.051589362 0.048118915 0.17953254 -0.16133468
0.019415546 0.03868164 0.21529618 0.012595883 -0.1369952 0.13263193 0.056360368 -0.025408255
0.091969594 0.05466335 -0.053540085 0.039138544 0.14565095 -0.06274255 -0.19528726 -0.052614465
-0.042910535 0.049887754 -0.19860406 -0.21580498 0.15501714 -0.1128204 0.16520047 -0.070721045
0.15434512 -0.16378132 0.16269717 0.082593486 -0.13764031 -0.23118223 -0.09002308 -0.1476081
-0.075500734 -0.023031438 0.021753993 0.068844266 0.030163389 0.04997996 0.17355984 -0.05472391
-0.13942154 -0.1606455 -0.10521393 0.008496928 -0.100616835 -0.14105469 -0.0037787303 -0.08993501
0.114514284 0.14591205 0.07064557 0.06724625 -0.08193321 -0.25036636 0.12882692 0.10071868
-0.064035624 -0.12560931 0.061364006 -0.06962266 -0.016726922 -0.018151503 0.11387753 0.051724274
0.06100227 0.10142312 -0.13625473 0.022967173 0.11722715 0.0073080254 -0.20754296 -0.050685633
0.05447682 -0.105615355 -0.05211486 0.012180403 -0.16049536 -0.14358366 -0.047225256 0.031036803
0.0005838778 -0.22752935 -0.17010348 0.108741336 0.038906105 -0.051310536 -0.08112595 -0.05279444
00000000: e190 943e 5514 363e f20d a738 5a71 5c3c
00000010: b449 30be 8370 0c3d a7ad 97bd 2405 fbbd
00000020: 0645 393e 7c34 913d 768c 80be cabc 4b3d
00000030: ad30 0f3e 9b2c 783c dc09 473e 7037 b7bd
00000040: 76ae 0aba c0e2 ecbc 001f c33d e7db 3f3d
00000050: 41b0 a93b 3d6c 7cba 8f6e c7bd 5a36 b63c
00000060: fa21 183e 0fbc 023e c65d 1abd f966 ebbc
00000070: 8159 7ebd 2b00 59bd f831 0c3e 79d7 1c3c
00000080: 96a8 cebc 9fcf edbc 8759 f33a c563 1dbd
00000090: 48aa c43c 73d6 343c 93b7 e8bd 13ec 103e
000000a0: 08e6 f1bd 7002 23be 5390 893e 5c65 11be
000000b0: 0170 04bc 8eb1 593e 51d4 f4bd b397 e5bc
000000c0: 7ffe 0a3e da98 893e edcb 9bbd 2cbb 893d
000000d0: b85c 14be 5455 ec3d cf55 243d aff6 b63c
000000e0: a785 31be da85 14be e4b8 90bd f64e 713d
000000f0: 4216 393d cfe3 04be 595d 033e b2f2 d73d
00000100: 0bd6 523d a74f 203d 51ba 9f3c ba5b 42bd
00000110: b348 5f3d bf18 403d 243d dabd 960d 29be
00000120: 2b34 49be fb4e 49be 8223 ae3d 2c8c 0dbd
00000130: 661a 20bd 6773 1a3e 8904 803c f464 db3d
00000140: cb29 0fbd e612 623c 84d4 003e 615e 8bbd
00000150: 378a 13be 504a ad3b a85c 453e ca79 c23d
00000160: d7a5 273e 2efd 063d fd47 05bd 8faa 2e3c
00000170: 5315 a33d 835d 863c 2fd3 eb3c 552e 893d
00000180: 45fa c6bd 8dbc 1f3e b78b 81bc e105 8f3d
00000190: 7842 10be d6ff 2c3e 4778 7cbc 4d75 25be
000001a0: 2cd4 063c 16ef 51bd af6d 333d c37f 183e
000001b0: a050 003e e1ac d6bd 9bae 7a3c e3c0 de3c
000001c0: 492b c53d aa23 21bd 5f73 c2bd 3ea0 993d
000001d0: f5bf 823c 77df 623c d5d0 533d 0ad8 ddbd
000001e0: b8bb b4bc 5355 cd3b 7131 133b 62a9 48bb
000001f0: a63b 713d bdaa bf3c c400 cdbd 1312 d1bd
00000200: 667c fabc 41a9 e43d b2af 1dbe e26b cdbd
00000210: e23f 1ebe fa9a 54bb 7d99 2c3e 997e 273d
00000220: 7ed4 2d3e 5df4 f93c b9d5 00be d875 efbd
00000230: 189c 13be e981 a2bd 701c dbbd 045a 70be
00000240: fbec 933d 9adc d0bd 7918 a73d 3a77 ae3d
00000250: d819 60bc 250b c1bb c883 043e 9267 743e
00000260: 0832 b7bd c75a b9bd e95d 90be f7e1 81be
00000270: edd6 853d ff77 8d3c fb28 42be 0d2c dd3c
00000280: 2e4e eabc 92b2 843d 880c b23d d180 23be
00000290: 5e4f 533d 5718 453d 61d7 373e eb34 25be
000002a0: 5a0d 9f3c a470 1e3d 9a76 5c3e f65e 4e3c
000002b0: 7848 0cbe aad0 073e 21da 663d f924 d0bc
000002c0: 8e5a bc3d ade6 5f3d d94c 5bbd bd4f 203d
000002d0: 8625 153e 2b7f 80bd 62f9 47be 4482 57bd
000002e0: f5c2 2fbd 1a57 4c3d dd5e 4bbe fbfb 5cbe
000002f0: d0bc 1e3e 620e e7bd 502a 293e 32d6 90bd
00000300: a60c 1e3e 4ab6 27be 169a 263e c626 a93d
00000310: 95f1 0cbe 09bb 6cbe 055e b8bd 9426 17be
00000320: 21a0 9abd 6dac bcbc 6e35 b23c 39fe 8c3d
00000330: 3619 f73c c9b7 4c3d acb9 313e 2e26 60bd
00000340: 85c4 0ebe 4180 24be 677a d7bd b336 0b3c
00000350: 3310 cebd a470 10be 93a4 77bb d92f b8bd
00000360: 7786 ea3d f869 153e a0ae 903d 67b8 893d
00000370: 99cc a7bd 0530 80be 34eb 033e 9845 ce3d
00000380: 1c25 83bd ba9f 00be d358 7b3d 5396 8ebd
00000390: e606 89bc 76b2 94bc 9f38 e93d d5dc 533d
000003a0: 84dd 793d edb6 cf3d 5c86 0bbe a725 bc3c
000003b0: ca14 f03d 2978 ef3b 2486 54be bd9b 4fbd
000003c0: 1623 5f3d dd4c d8bd 6476 55bd 5090 473c
000003d0: e558 24be 9807 13be 456f 41bd e540 fe3c
000003e0: 600f 193a 74fd 68be 9b2f 2ebe c7b3 de3d
000003f0: 025c 1f3d ff2a 52bd 5d25 a6bd fc3e 58bd

actor_mean.2.weight f4 [256, 256]
-0.119913906 -0.01599423 -0.17233677 -0.13594769 0.06577937 -0.10148481 0.100645 0.17097098
0.025919806 -0.107643746 0.11182348 0.33693653 0.14176856 0.093173474 0.006530749 -0.019750282
-0.29554087 0.0001781136 0.031334065 0.07827281 -0.07470648 -0.023158181 0.11395097 -0.014320821
-0.15961795 -0.059305497 0.38121107 0.029381756 0.08336917 0.21465366 0.075356774 -0.18133949
-0.09952258 -0.184431 0.23146676 0.027267661 0.07333479 -0.066113904 -0.0847373 0.14031819
0.16350308 -0.015980111 -0.11130639 -0.08069115 -0.06332351 0.1484836 0.095963225 0.16800241
-0.3407795 -0.008451201 0.1869169 -0.054223113 0.05602255 0.0121765835 -0.12770006 0.06953533
0.12917276 -0.012095659 0.052595023 0.07807837 -0.060140472 0.2468242 -0.020215923 0.09708877
0.09045992 0.20556347 0.069803424 0.25293687 0.22369295 0.007258923 -0.29403967 0.15943684
0.0045670876 0.10607109 -0.021613173 0.09597289 -0.04753347 0.12436975 0.020251913 0.018032726
0.13075213 -0.03870146 -0.2799921 0.04687574 -0.1257763 0.007048757 -0.13945955 0.05025294
-0.24452008 0.026441514 0.23818511 -0.00031189664 0.016996462 -0.18398644 0.046428427 0.086232334
0.17713952 -0.06350048 -0.15051968 -0.11742192 0.056174926 -0.1946574 0.02532164 -0.20036565
-0.09491245 0.17405441 0.122981824 0.14929636 -0.0011864572 0.24096704 -0.045918785 -0.12955227
-0.009675585 0.30114025 0.116784476 -0.027191889 0.09939332 -0.07002447 -0.070403196 -0.0871613
-0.058991708 0.0606684 0.030251654 -0.07252664 -0.13988511 -0.03619973 -0.12433268 0.05444368
0.2242025 -0.111685395 -0.043949325 0.24003492 0.031184616 0.05278408 -0.33562112 -0.13419531
-0.09159521 -0.18782859 -0.0663463 -0.054110803 0.13383262 -0.0237476 -0.10258297 0.24481682
-0.12776357 0.07035807 -0.07550389 -0.09458008 0.0846262 -0.17660534 -0.0551102 -0.104249775
0.049852982 0.034362253 -0.04263616 0.0019951456 0.09283946 0.06746367 0.10988146 -0.09382657
0.26032826 -0.05987086 -0.119048886 -0.10428626 -0.10779096 -0.18417782 -0.00081164413 0.1235364
-0.028736105 0.016254408 -0.07332411 -0.010758499 -0.18681827 0.091140166 -0.12619616 0.15688163
-0.07555167 -0.016841313 -0.012664015 0.091859795 0.084832445 0.14607926 0.0841506 -0.08511598
-0.10533502 0.037317406 0.17508033 0.08740573 -0.10995942 -0.07531884 0.076450646 0.021720689
-0.188603 0.00820684 -0.047250632 -0.13085787 0.05942775 0.05886468 0.05585851 0.12652178
-0.03323838 -0.035799082 0.08374756 0.16667052 -0.13747086 0.23008727 0.004091489 0.1380835
0.06854134 -0.083659954 0.34300035 0.017944539 -0.038432218 0.0744202 0.09933964 0.06876583
-0.007268183 -0.030899791 0.07897134 0.03895112 0.012184946 -0.04824494 -0.3356145 -0.047285356
0.19502115 0.08812179 0.05602871 0.21015829 0.173643 -0.06933818 0.07147052 0.22583728
0.11237065 0.10012317 0.03692733 -0.12745316 -0.081599765 0.088661686 0.03924814 -0.067429274
-0.00054797385 0.049788702 0.036039256 0.016001025 3.3512697e-05 -0.027665392 0.0074650245 -0.2007366
-0.3774808 0.1758414 -0.009444806 -0.1322699 -0.15192801 0.09887458 0.05886787 0.13136506
00000000: 6c95 f5bd 5506 83bc 0d79 30be df35 0bbe
00000010: 56b7 863d 45d7 cfbd f71e ce3d 0413 2f3e
00000020: c655 d43c 5374 dcbd b503 e53d f282 ac3e
00000030: c72b 113e bcd1 be3d e5ff d53b 58cb a1bc
00000040: 2251 97be 01c4 3a39 2658 003d 7f4d a03d
00000050: b6ff 98bd 3ab6 bdbc 205f e93d e0a1 6abc
00000060: e372 23be 52ea 72bd 192e c33e 02b2 f03c
00000070: 75bd aa3d 2bce 5b3e a754 9a3d 0fb1 39be
00000080: 7fd2 cbbd 7bdb 3cbe 9f05 6d3e 6e60 df3c
00000090: 8d30 963d ba66 87bd c08a adbd 92af 0f3e
000000a0: 5a6d 273e b9e8 82bc 9bf4 e3bd 6741 a5bd
000000b0: c2af 81bd 160c 183e 5e88 c43d d308 2c3e
000000c0: a77a aebe e876 0abc 2567 3f3e 0e19 5ebd
000000d0: e777 653d 4b80 473c cec3 02be 8a68 8e3d
000000e0: dd45 043e df2c 46bc e16d 573d 8de7 9f3d
000000f0: db55 76bd 7cbf 7c3e dd9b a5bc 7ad6 c63d
00000100: 0d43 b93d 3b7f 523e 19f5 8e3d f180 813e
00000110: c40f 653e 42dc ed3b 5e8c 96be 6943 233e
00000120: 82a7 953b cd3b d93d 1c0e b1bc 6f8d c43d
00000130: 75b2 42bd 91b5 fe3d 57e7 a53c 5eb9 933c
00000140: e3e3 053e 6c85 1ebd 205b 8fbe c700 403d
00000150: 81cb 00be 42f9 e63b 7cce 0ebe 07d6 4d3d
00000160: 7963 7abe e09b d83c cce6 733e 0f86 a3b9
00000170: 2a3c 8b3c f166 3cbe bc2b 3e3d 949a b03d
00000180: 1064 353e 8a0c 82bd d521 1abe e77a f0bd
00000190: ae17 663d 4554 47be 546f cf3c a72c 4dbe
000001a0: 7561 c2bd 523b 323e e5dd fb3d 25e1 183e
000001b0: e682 9bba 10c0 763e 5615 3cbd 5aa9 04be
000001c0: 5886 1ebc 0e2f 9a3e b32c ef3d 86c1 debc
000001d0: ba8e cb3d fd68 8fbd 8d2f 90bd a081 b2bd
000001e0: 4aa1 71bd 6e7f 783d 51d2 f73c d988 94bd
000001f0: 0b3e 0fbe 2b46 14bd 22a2 febd 5600 5f3d
00000200: 5795 653e 50bb e4bd 3504 34bd b7cb 753e
00000210: e176 ff3c 1f34 583d 88d6 abbe 7f6a 09be
00000220: 4596 bbbd 2356 40be 92e0 87bd 4aa3 5dbd
00000230: 6b0b 093e 548a c2bc 0517 d2bd 43b1 7a3e
00000240: 74d4 02be e417 903d c9a1 9abd 33b3 c1bd
00000250: 8050 ad3d 08d8 34be 3cbb 61bd e880 d5bd
00000260: a432 4c3d 6fbf 0c3d 41a3 2ebd fdc0 023b
00000270: 9d22 be3d 652a 8a3d 8809 e13d 2528 c0bd
00000280: bf49 853e 263b 75bd e7cf f3bd 0994 d5bd
00000290: 82c1 dcbd 1c99 3cbe 84c4 54ba a700 fd3d
000002a0: fb67 ebbc f727 853c f32a 96bd 6a44 30bc
000002b0: 4a4d 3fbe b2a7 ba3d 9139 01be 94a5 203e
000002c0: d5ba 9abd cbf6 89bc bb7c 4fbc fd20 bc3d
000002d0: a2bc ad3d cd95 153e 2657 ac3d 4951 aebd
000002e0: e3b9 d7bd 23da 183d 4248 333e c601 b33d
000002f0: 6832 e1bd c440 9abd 2892 9c3d 96ef b13c
00000300: 2521 41be fb75 063c e189 41bd 9bff 05be
00000310: 836a 733d 171c 713d e5cb 643d ed8e 013e
00000320: f824 08bd 0fa2 12bd d783 ab3d adab 2a3e
00000330: 29c5 0cbe ff9b 6b3e e611 863b c365 0d3e
00000340: 675f 8c3d e955 abbd be9d af3e 6d00 933c
00000350: 1a6b 1dbd 9e69 983d 9572 cb3d 19d5 8c3d
00000360: f029 eebb 8f21 fdbc babb a13d 368b 1f3d
00000370: 5ea3 473c 7c9c 45bd aad5 abbe 4aae 41bd
00000380: a0b3 473e 3279 b43d 5c7e 653d bc33 573e
00000390: 78cf 313e 2d01 8ebd 235f 923d e341 673e
000003a0: 9522 e63d 600d cd3d 1d41 173d 1583 02be
000003b0: c71d a7bd 4294 b53d a8c2 203d 5c18 8abd
000003c0: e7a5 0fba 3def 4b3d e69d 133d 9514 833c
000003d0: fc8f 0c38 88a2 e2bc 2a9d f43b e58d 4dbe
000003e0: 2a45 c1be c50f 343e 63be 1abc c371 07be
000003f0: 0493 1bbe c17e ca3d 701f 713d 9084 063e
