mete_aerial_gym_simulator/rl_training/rl_games/runs/quad_ppo_26-11-09-10/nn/quad_ppo.pth (torch, 556047 bytes, 36 tensors)

value_mean_std.running_mean f8 [1]
7.168214678195427
00000000: e139 f677 40ac 1c40

value_mean_std.running_var f8 [1]
50.93355262671199
00000000: 5569 08a7 7e77 4940

value_mean_std.count f8 []
3342337.0
00000000: 0000 0080 0080 4941

running_mean_std.running_mean f8 [13]
-0.335950451106068 0.5711791599336243 -0.07805307293460328 -0.00995325547101957 -0.010872301165472708 0.002197093315518223 0.9961961507184489 -0.374949271824462
0.2978708467196196 -0.028800210741333838 0.008288405700082676 0.014267621410838633 -0.003907732114532449
00000000: b8ed 2452 3680 d5bf 1f4b 8284 1947 e23f
00000010: 983e 9b43 49fb b3bf 8be3 e455 5f62 84bf
00000020: 59f5 808f 3744 86bf 2714 f77d a3ff 613f
00000030: 1294 f7bf d6e0 ef3f f848 093b 2bff d7bf
00000040: 14ed 45e2 5010 d33f b5fb 016d cd7d 9dbf
00000050: ebb9 57fb 82f9 803f 1762 cfba 5738 8d3f
00000060: 0f98 22da 8d01 70bf

running_mean_std.running_var f8 [13]
3.2203419751769022 2.5935672780609913 1.4299402334153992 0.0035671512981289813 0.0031042763320689973 0.0006721427455724534 3.011489730409936e-05 0.795717707833791
0.6379196484208791 1.0040446704319288 0.5788978971092771 0.5840699628865492 0.04489092906181672
00000000: 1491 4aa7 42c3 0940 48fb 7933 a0bf 0440
00000010: 580f 9c02 09e1 f63f b987 4ac5 db38 6d3f
00000020: f911 5eaa 236e 693f 111f 248e 5706 463f
00000030: ea0a 15fc e793 ff3e 9dd0 7ffb 8476 e93f
00000040: 1a31 6e77 d669 e43f d7a6 f324 9110 f03f
00000050: 30d7 f9e1 5486 e23f a58e a57d b3b0 e23f
00000060: 2545 6aa0 f1fb a63f

running_mean_std.count f8 []
1671169.0
00000000: 0000 0000 0180 3941

a2c_network.sigma f4 [4]
-0.11852593 -0.106941506 -0.14602286 -0.03570122
00000000: b9bd f2bd 2604 dbbd 0487 15be 713b 12bd

a2c_network.actor_mlp.0.weight f4 [256, 13]
-0.12386166 -0.06403527 -0.0148153175 0.019996006 -0.00067258155 0.18603672 0.012849927 -0.07658817
-0.11256501 -0.042324398 -0.0988905 -0.030687815 0.009852365 0.105457164 0.0961179 -0.2757693
0.14100975 0.054417003 0.21881658 0.19976792 -0.3202629 -0.2821157 -0.1216566 0.24465798
-0.00996778 0.07469588 -0.22161213 0.32091218 -0.068665646 0.16655736 -0.022434385 -0.107223384
0.11144674 -0.12393505 0.11163557 -0.02193659 -0.04543961 -0.15343447 -0.095838524 0.24056341
-0.13687351 0.32230213 0.22131583 0.04377871 -0.17063135 0.19864486 0.18735208 -0.18309289
0.20559494 0.1819456 0.17559052 -0.1935869 -0.13841695 -0.015122561 0.08324444 -0.18582267
-0.22009742 0.14398877 -0.13807851 0.074730836 -0.017289031 0.07191471 0.07445858 0.070702285
0.14256422 -0.28211257 0.12825507 -0.15721366 -0.19825648 -0.007401653 -0.040812846 0.16960044
-0.14956728 -0.19424468 0.14612868 0.0054092235 0.09944107 0.08374092 -0.24387754 0.0052643656
0.061386056 -0.17444162 -0.11346185 0.05988128 0.061475784 -0.055622634 -0.06328191 0.167694
-0.031146508 0.10816182 0.116626546 -0.12703854 -0.24229975 0.29962417 0.023540426 0.16226941
0.11031471 0.048405193 0.14169164 0.19582513 -0.10618139 0.017114522 0.15100749 0.1679077
0.21984851 -0.2906655 -0.34475517 -0.14397882 0.037949376 0.246866 -0.02520834 0.19878066
-0.1484861 -0.2511945 -0.0059654475 0.10431067 0.20709112 -0.43346494 0.0991661 0.40267536
0.06680399 0.122758046 0.13735917 0.12118874 -0.02170683 -0.07277122 -0.054834712 -0.0982072
-0.00951753 -0.04999942 0.10111423 0.12099731 -0.0027348723 0.07727639 0.105978236 0.12670062
0.16851176 -0.07971651 0.22636987 -0.0043824133 -0.03715245 -0.22494693 -0.18821973 -0.16837363
-0.08074384 0.32595012 -0.040064484 -0.09512635 0.0075599747 0.064150326 0.12334103 -0.056916118
0.15411949 0.0057785665 -0.036652002 -0.11985771 -0.19198127 0.024766507 0.090681784 0.0081141805
0.06148051 0.20551096 0.26788735 0.12735288 -0.008113963 -0.11017991 0.14819214 -0.064124435
0.054755136 -0.4993519 -0.14277366 -0.34588748 0.14561065 -0.17760934 -0.14123838 0.09162673
-0.22275741 0.17003877 -0.109101996 -0.063986726 0.011437918 0.10991432 -0.3653282 0.30601856
0.31794477 0.17655697 -0.1138137 0.04033273 -0.06518395 0.2543951 -0.06378789 0.21557014
0.002816069 0.01567932 0.025654282 0.077758335 0.14932266 0.006333656 0.016540406 -0.10587181
0.15898006 0.23097576 0.41238308 0.24854945 -0.1538526 -0.053390633 0.13372585 -0.11743516
0.24810472 -0.19831444 -0.2518636 0.088353015 -0.112942405 -0.016436651 0.23559843 0.32927012
0.2926791 -0.08600225 -0.16525425 0.20902474 -0.010340856 -0.18710811 0.2446181 -0.22549814
0.11890098 0.051048398 -0.21641134 -0.08854566 -0.10443977 0.16084671 0.0011523728 -0.1263763
0.07415526 -0.15912184 -0.37089095 -0.35866976 0.28846914 0.16093817 -0.06414492 0.03041592
0.23563522 -0.039623514 -0.1948317 0.20999092 0.11162051 0.022972124 -0.017566895 0.23254162
0.3156593 -0.21988395 0.12180007 0.06358429 -0.16555223 0.21748058 -0.22053508 0.31731623
00000000: 2fab fdbd ec24 83bd f2bb 72bc aace a33c
00000010: 2f50 30ba 6980 3e3e 8088 523c 42da 9cbd
00000020: 7c88 e6bd 595c 2dbd 1a87 cabd 0365 fbbc
00000030: d06b 213c edf9 d73d 76d9 c43d a231 8dbe
00000040: dc64 103e 5de4 5e3d 7411 603e f68f 4c3e
00000050: 80f9 a3be 7871 90be 1827 f9bd 9f87 7a3e
00000060: e64f 23bc 27fa 983d 4aee 62be 9a4e a43e
00000070: 93a0 8cbd 038e 2a3e 51c8 b7bc ef97 dbbd
00000080: 303e e43d a9d1 fdbd 31a1 e43d 5db4 b3bc
00000090: e21e 3abd ed1d 1dbe fd46 c4bd 4156 763e
000000a0: 9228 0cbe c904 a53e 9ea0 623e 4e51 333d
000000b0: fcb9 2ebe 8f69 4b3e 39d9 3f3e b47c 3bbe
000000c0: 7b87 523e f34f 3a3e 00ce 333e a53b 46be
000000d0: 2cbd 0dbe 9ec4 77bc 107c aa3d 4c48 3ebe
000000e0: 3861 61be cb71 133e 7464 0dbe 7b0c 993d
000000f0: baa1 8dbc 0548 933d bd7d 983d 5ccc 903d
00000100: 5bfc 113e 0f71 90be 4c55 033e 9efc 20be
00000110: bf03 4bbe 9189 f2bb 5f2b 27bd bdab 2d3e
00000120: 2a28 19be 14e8 46be c2a2 153e db3f b13b
00000130: c2a7 cb3d 5c80 ab3d 09bb 79be b380 ac3b
00000140: f26f 7b3d d3a0 32be b05e e8bd 1346 753d
00000150: 08ce 7b3d 8fd4 63bd f299 81bd fab7 2b3e
00000160: f626 ffbc f283 dd3d e6d9 ee3d 6416 02be
00000170: 6d1d 78be 5768 993e dad7 c03c f429 263e
00000180: aeec e13d 8644 463d 9d17 113e 6286 483e
00000190: a175 d9bd c133 8c3c b5a1 1a3e ffef 2b3e
000001a0: f81f 613e 1cd2 94be c083 b0be 2f6f 13be
000001b0: ce70 1b3d 71ca 7c3e b881 cebc 288d 4b3e
000001c0: bd0c 18be 919c 80be cd79 c3bb d5a0 d53d
000001d0: b20f 543e 1eef ddbe 9917 cb3d 772b ce3e
000001e0: 88d0 883d 9268 fb3d e2a7 0c3e cd31 f83d
000001f0: 86d2 b1bc 1409 95bd 5d9a 60bd db20 c9bd
00000200: 6aef 1bbc 31cc 4cbd fa14 cf3d 70cd f73d
00000210: 8b3b 33bb 1543 9e3d 1e0b d93d cfbd 013e
00000220: 598e 2c3e 6942 a3bd 81cd 673e 599a 8fbb
00000230: 2b2d 18bd 7d58 66be acbc 40be 236a 2cbe
00000240: 075d a5bd efe2 a63e a81a 24bd 9bd1 c2bd
00000250: aab9 f73b 3f61 833d 399a fc3d e020 69bd
00000260: 80d1 1d3e 215a bd3b 6920 16bd f677 f5bd
00000270: bd96 44be 21e3 ca3c 5fb7 b93d 57f1 043c
00000280: fdd2 7b3d 7771 523e 8828 893e cb68 023e
00000290: 6df0 04bc 01a6 e1bd aebf 173e ac53 83bd
000002a0: ec46 603d 0dab ffbe 4233 12be 2a18 b1be
000002b0: f51a 153e 39df 35be cba0 10be cca6 bb3d
000002c0: 851a 64be a51e 2e3e de70 dfbd 790b 83bd
000002d0: 1b66 3b3c c21a e13d 4c0c bbbe 77ae 9c3e
000002e0: a8c9 a23e 5acb 343e 2817 e9bd ef33 253d
000002f0: 2a7f 85bd 1340 823e 3aa3 82bd 6bbe 5c3e
00000300: cc8d 383b eb71 803c ee28 d23c c33f 9f3d
00000310: 0ae8 183e 8f8a cf3b bf7f 873c 52d3 d8bd
00000320: abcb 223e e984 6c3e e023 d33e bf83 7e3e
00000330: 898b 1dbe 23b0 5abd 6eef 083e d881 f0bd
00000340: 2a0f 7e3e f112 4bbe 44f4 80be 6df2 b43d
00000350: 594e e7bd 28a6 86bc b740 713e 1896 a83e
00000360: 09da 953e f321 b0bd 6938 29be 950a 563e
00000370: b26c 29bc 4599 3fbe 2b7d 7a3e fce8 66be
00000380: 5b82 f33d 2018 513d ef9a 5dbe 6d57 b5bd
00000390: 85e4 d5bd 00b5 243e 370b 973a ca68 01be
000003a0: b7de 973d d6f0 22be 6be5 bdbe 90a3 b7be
000003b0: 3ab2 933e facc 243e 695e 83bd cf2a f93c
000003c0: 5c4a 713e 444c 22bd f681 47be dc07 573e
000003d0: 4b99 e43d 0930 bc3c 73e8 8fbc 641f 6e3e
000003e0: 199e a13e 4229 61be 5172 f93d 7b38 823d
000003f0: 8686 29be 3bb3 5e3e f3d3 61be 4677 a23e

a2c_network.actor_mlp.0.bias f4 [256]
0.20263937 -0.011901172 0.16111188 -0.045234118 0.3215978 0.08851121 0.19909663 0.14944999
-0.26192075 -0.045286506 0.16083682 0.086164065 -0.006467665 -0.22930025 -0.12735227 -0.15036432
-0.12651315 -0.008426987 -0.26575795 -0.07327681 -0.09096871 -0.039596595 0.14870451 0.15050001
0.19862913 -0.22351547 0.08136799 -0.21672542 -0.07327391 0.162824 0.19726418 0.11126446
-0.17347643 -0.04641043 -0.23856024 0.21305309 0.2322002 0.172534 0.2175943 -0.17026958
0.13726848 0.1347549 0.23451239 0.12939689 0.19327483 -0.17574705 0.16959567 -0.011968145
0.113361605 0.20220196 -0.13622674 -0.19661151 -0.18068445 0.03551937 0.14002769 0.011098782
0.22663362 -0.20933652 0.1219599 -0.013086533 -0.25168732 0.12281225 -0.26935035 -0.22308019
-0.26563555 -0.23480198 0.23805214 -0.05103838 -0.2471794 0.19081642 -0.25353876 -0.21399178
-0.0008548144 0.0680993 -0.07755673 -0.17777935 0.06105238 -0.16621248 -0.10126343 0.24807188
0.15181597 -0.24728823 0.08299929 -0.28397217 -0.23552284 -0.14716984 -0.18455914 -0.22309925
-0.14608482 0.050231557 0.10084274 0.05646482 0.175786 0.15349339 -0.19270995 0.018804641
0.09867324 0.04902071 0.1258254 -0.16206573 -0.16709368 -0.14473228 -0.23183885 0.10657217
0.06194523 0.00638037 -0.23247375 0.06861014 0.14022161 0.1332617 -0.19530019 0.10317166
-0.22066435 -0.26048964 -0.22090021 -0.072575465 0.107217774 0.10364084 0.28033647 0.21291623
0.1793588 -0.23551482 0.12999721 0.03999389 -0.09208835 0.11346129 -0.14701845 -0.1903153
0.1500137 0.21087502 0.059027515 0.080887616 0.015900826 0.113863915 0.30537677 -0.2592067
0.07207175 0.12758595 -0.25959018 -0.16338952 0.037654404 0.23986098 -0.008875144 0.20181763
0.020920936 -0.19246061 -0.24092007 -0.12894458 0.12894163 0.15870994 0.19332327 0.24568312
0.05018564 0.006394624 0.019738851 0.17327726 0.085485645 -0.24402328 -0.065333046 0.13442674
-0.29965588 0.10849611 0.12720597 0.13281418 -0.16914205 -0.26231667 0.14009713 0.094679005
-0.19167604 0.029419744 -0.1723281 0.033076677 0.17256293 -0.14211558 0.07027671 -0.21697439
-0.17322291 -0.03628533 -0.12514488 0.18818475 -0.29744774 0.2360101 -0.22421753 -0.048499044
-0.0918573 -0.17196867 0.13777542 0.16768992 0.23477112 -0.15915294 0.16277711 0.044810593
-0.108370036 -0.21262245 0.07579002 -0.007454446 0.06155878 0.041278593 0.32762823 0.15489769
-0.07921246 -0.1843428 -0.07343961 0.16352995 0.18431562 0.23023462 -0.2611619 0.013360645
0.08804922 0.042347275 0.050744336 0.15968643 0.09925095 0.17155126 -0.30337754 0.14596702
-0.24291167 -0.24851489 -0.14973596 0.1359257 0.093891874 0.14560784 -0.24301623 0.16626874
-0.08195927 0.13684802 0.27949926 0.15312006 -0.1909341 0.113307804 0.0832806 -0.05386327
-0.038926207 -0.021963662 0.103404365 -0.17260182 0.102747604 -0.06056532 -0.011165857 -0.21070184
-0.27326834 -0.2137502 -0.2263888 -0.08719253 0.18068682 -0.23381552 -0.29590473 0.10113535
0.12708387 0.2508987 0.009311363 -0.20381929 0.002223793 0.23603526 -0.42569402 0.26994112
00000000: b280 4f3e 22fd 42bc 83fa 243e 6947 39bd
00000010: 78a8 a43e 5e45 b53d fddf 4b3e 6b09 193e
00000020: 7a1a 86be 587e 39bd 68b2 243e c976 b03d
00000030: b5ee d3bb afcd 6abe a268 02be 1bf9 19be
00000040: aa8c 01be 5811 0abc 6d11 88be 2712 96bd
00000050: ce4d babd 0a30 22bd ff45 183e ad1c 1a3e
00000060: 6f65 4b3e 3de1 64be 43a4 a63d 45ed 5dbe
00000070: a210 96bd 56bb 263e 9fff 493e 9fde e33d
00000080: cea3 31be dd18 3ebd 2349 74be 972a 5a3e
00000090: e4c5 6d3e c1ac 303e 0ad1 5e3e 265b 2ebe
000000a0: 1c90 0c3e 30fd 093e 0424 703e 9e80 043e
000000b0: d6e9 453e 09f7 33be 7daa 2d3e 0a16 44bc
000000c0: 212a e83d 080e 4f3e 067f 0bbe 8754 49be
000000d0: 5805 39be c27c 113d 6b63 0f3e aad7 353c
000000e0: a512 683e 505c 56be 1dc6 f93d e668 56bc
000000f0: 29dd 80be fd84 fb3d 4ae8 89be 226f 64be
00000100: 6201 88be ee6f 70be f1c3 733e 9f0d 51bd
00000110: 991c 7dbe 6165 433e d5cf 81be a920 5bbe
00000120: a015 60ba a577 8b3d 10d6 9ebd ca0b 36be
00000130: 0f12 7a3d 9b33 2abe 3463 cfbd 8e06 7e3e
00000140: a575 1b3e 2039 7dbe 88fb a93d cd64 91be
00000150: e62c 71be b1b3 16be 12fd 3cbe 2174 64be
00000160: 4297 15be 9bbf 4d3d a386 ce3d a847 673d
00000170: 3f01 343e 5f2d 1d3e c255 45be 310c 9a3c
00000180: 3215 ca3d f1c9 483d 60d8 003e 8ff4 25be
00000190: 9b1a 2bbe b334 14be 2a67 6dbe 8342 da3d
000001a0: 48ba 7d3d 6c12 d13b 990d 6ebe 7983 8c3d
000001b0: 4196 0f3e c175 083e c6fc 47be aa4b d33d
000001c0: d6f5 61be e65e 85be aa33 62be 72a2 94bd
000001d0: fe94 db3d a641 d43d 4388 8f3e b606 5a3e
000001e0: d5a9 373e cc2a 71be fd1d 053e a2d0 233d
000001f0: d198 bcbd 655e e83d 018c 16be 04e2 42be
00000200: 319d 193e 9fef 573e d6c6 713d 68a8 a53d
00000210: 7342 823c 7c31 e93d 585a 9c3e beb6 84be
00000220: 5b9a 933d e4a5 023e 01e9 84be 954f 27be
00000230: 813b 1a3d 1e9e 753e 0d69 11bc 48a9 4e3e
00000240: 6262 ab3c 6514 45be c0b3 76be 0c0a 04be
00000250: 4609 043e dc84 223e 89f6 453e 5b94 7b3e
00000260: 758f 4d3d fe89 d13b 5fb3 a13c 986f 313e
00000270: 1913 af3d 3de1 79be 55cd 85bd 2aa7 093e
00000280: 7f6c 99be 3533 de3d 4842 023e 7100 083e
00000290: 9333 2dbe 5f4e 86be 9f75 0f3e 11e7 c13d
000002a0: b946 44be ad01 f13c c776 30be 697b 073d
000002b0: 56b4 303e bf86 11be 3ced 8f3d 892e 5ebe
000002c0: 5961 31be ed9f 14bd fb25 00be 81b3 403e
000002d0: 124b 98be a2ac 713e 4899 65be efa6 46bd
000002e0: ae1f bcbd 8e18 30be 0015 0d3e e8b6 2b3e
000002f0: d767 703e fdf8 22be 0baf 263e 508b 373d
00000300: 1cf1 ddbd b3b9 59be cc37 9b3d 6d44 f4bb
00000310: 0f25 7c3d be13 293d e3be a73e 809d 1e3e
00000320: 243a a2bd 5cc4 3cbe 8267 96bd 6574 273e
00000330: 3cbd 3c3e a0c2 6b3e 03b7 85be 9be6 5a3c
00000340: 2653 b43d 5674 2d3d 4bd9 4f3d d784 233e
00000350: 1544 cb3d 22ab 2f3e 4d54 9bbe 6178 153e
00000360: d6bd 78be b07a 7ebe 6254 19be 1b30 0b3e
00000370: 624a c03d 391a 153e 3fd9 78be 5a42 2a3e
00000380: 43da a7bd e321 0c3e 871a 8f3e 81cb 1c3e
00000390: 3b84 43be ec0d e83d 058f aa3d bb9f 5cbd
000003a0: 1671 1fbd 23ed b3bc abc5 d33d 88be 30be
000003b0: 566d d23d 5713 78bd 00f1 36bc 39c2 57be
000003c0: d4e9 8bbe 55e1 5abe 77d2 67be ff91 b2bd
000003d0: f705 393e 566d 6fbe d380 97be 0d20 cf3d
000003e0: 4622 023e cb75 803e b08e 183c 01b6 50be
000003f0: 0ebd 113b 3ab3 713e 91f4 d9be b935 8a3e

a2c_network.actor_mlp.2.weight f4 [128, 256]
-0.042852063 0.07536109 0.02660154 -0.019425793 -0.17585814 0.0074784895 -0.11426045 -0.03796639
0.01289874 -0.07083141 0.023616413 -0.15485637 0.028068757 0.08572003 -0.041846383 0.081156366
0.12516145 0.0012228166 -0.0029347613 0.04784678 -0.034067433 0.07357248 0.024224686 -0.04650936
-0.13094003 -0.03205194 0.043019753 0.036445428 0.041187357 0.0034039512 0.0033039511 -0.0130082145
0.038180612 -2.5924865e-05 0.009277207 0.018673478 -0.040450335 -0.05444367 -0.046462912 -0.03482159
0.07654812 0.060051195 -0.014619916 -0.013410973 -0.08166567 0.055419426 -0.066606954 0.068918735
-0.044963595 0.0724954 0.059373308 -0.05327558 0.087745585 0.013473018 -0.08325598 -0.07231348
-0.08673265 -0.019187182 0.033276223 -0.045165513 0.03854082 0.13197258 0.03838494 -0.01496518
0.11282882 -0.0047691423 0.02448265 -0.072054535 0.05976586 -0.10041876 0.09905423 0.0056341393
-0.048679944 -0.08566316 0.061066046 0.046608046 -0.048557 0.036701825 -0.04549739 -0.035331503
-0.06717281 0.034901626 0.074819595 -0.05995139 0.06778119 -0.044504773 -0.029682858 0.05800064
0.008047224 0.03456203 0.0077828057 0.02556346 -0.07585505 -0.05944085 0.057313453 -0.058371823
0.08143061 0.10458786 0.046456855 0.028132157 -0.0497075 -0.031336553 0.07440998 -0.037854787
0.014306359 0.008271754 0.0038328366 -0.03612057 0.01967199 -0.0014231026 -0.008251508 0.07715661
-0.0040161493 0.100274965 0.18603276 0.009194754 0.043269157 0.0431806 -0.12089384 -0.09905155
-0.040235907 -0.028345974 -0.04572097 -0.03462339 -0.07412015 0.02216225 0.07594155 -0.009755932
-0.006503289 -0.051076207 0.014003502 0.063976526 -0.07674898 -0.0462571 -0.07702655 -0.028461725
-0.10320703 -0.04843278 0.07826554 0.035478078 0.07665698 0.037726313 -0.046739787 -0.016611375
0.066742495 -0.004048301 -0.0209648 0.09051836 0.029346267 0.052383307 -0.018392917 -0.074649714
-0.026204484 -0.0050308416 0.017922433 0.009191039 0.0038716097 0.013431355 0.052439786 -0.011435044
0.013912692 -0.009619274 0.029641578 0.09241502 0.06581373 0.08108703 -0.00673012 -0.02232863
-0.008083138 -0.053978734 0.06854858 0.07929661 -0.08523382 0.04731621 -0.0965387 0.07644899
0.08056951 -0.02932202 -0.0058325534 -0.022485636 0.055967428 -0.08908315 0.04896775 -0.019766983
-0.068428524 -0.08825456 0.015162637 0.029399881 0.029740347 -0.025667192 0.022885121 0.02626509
-0.031417236 0.03956416 -0.095839605 0.024080994 -0.031918842 -0.0065268874 -0.09112142 0.015393218
0.029592456 0.03998087 -0.027518883 -0.022063052 -0.05068734 0.03222009 0.10600526 -0.02363985
-0.024280006 0.0024232578 -0.016392468 -0.035399552 0.12716374 -0.051926285 0.05744995 0.06137184
-0.04402193 0.050732326 -0.042864963 0.016832355 -0.052277565 -0.102024734 0.06941055 -0.028677143
0.037038676 0.004572155 -0.01529812 -0.047511708 -0.002073378 -0.07715707 0.0046596345 0.09887398
-0.059499428 -0.033830613 -0.067479804 0.06866699 0.022050839 -0.08840323 -0.054448664 0.1450924
-0.012548943 0.0042069517 0.006591758 -0.017416997 -0.045106146 0.061970998 0.015006863 -0.046122406
-0.027192269 -0.13077584 0.012805582 0.06187037 0.00034971448 -0.05961967 0.03031065 -0.018061863
00000000: a585 2fbd ea56 9a3d 79eb d93c d722 9fbc
00000010: 2814 34be 1e0e f53b 6201 eabd a582 1bbd
00000020: 3d55 533c 0f10 91bd 3577 c13c ab92 1ebe
00000030: 73f0 e53c fc8d af3d 1d67 2bbd 4f35 a63d
00000040: 532a 003e eb46 a03a 2055 40bb fcfa 433d
00000050: 4b8a 0bbd 2bad 963d d972 c63c 9980 3ebd
00000060: 2515 06be e548 03bd 7b35 303d cd47 153d
00000070: 13b4 283d d314 5f3b 1a87 583b 6820 55bc
00000080: 4663 1c3d 3979 d9b7 6dff 173c 1ff9 983c
00000090: 40af 25bd 5300 5fbd e54f 3ebd 15a1 0ebd
000000a0: 43c5 9c3d 3ef8 753d 5f88 6fbc b3b9 5bbc
000000b0: 5540 a7bd 7bff 623d 3a69 88bd 4425 8d3d
000000c0: bf2b 38bd 7878 943d 6d31 733d 7f37 5abd
000000d0: f5b3 b33d efbd 5c3c 1c82 aabd 1719 94bd
000000e0: e3a0 b1bd 702e 9dbc a64c 083d 79ff 38bd
000000f0: fbdc 1d3d d223 073e 8739 1d3d 8430 75bc
00000100: cc12 e73d 7746 9cbb d78f c83c 5491 93bd
00000110: 0ccd 743d 5aa8 cdbd f2dc ca3d 969e b83b
00000120: 9f64 47bd 2b70 afbd 6420 7a3d 14e8 3e3d
00000130: b4e3 46bd a754 163d 795b 3abd c4b7 10bd
00000140: e691 89bd 02f5 0e3d 043b 993d 978f 75bd
00000150: ddd0 8a3d a34a 36bd 7729 f3bc 1492 6d3d
00000160: 81d8 033c ea90 0d3d e806 ff3b 766a d13c
00000170: e459 9bbd 4078 73bd 83c1 6a3d 4b17 6fbd
00000180: 17c5 a63d 2932 d63d 8b49 3e3d 6975 e63c
00000190: 179a 4bbd c25a 00bd 4264 983d 9f0d 1bbd
000001a0: 3865 6a3c 4086 073c 5430 7b3b 2af3 13bd
000001b0: 2727 a13c 6687 baba 5531 07bc 4904 9e3d
000001c0: e799 83bb f65c cd3d 5f7f 3e3e 98a5 163c
000001d0: 003b 313d 24de 303d 3197 f7bd 8adb cabd
000001e0: 68ce 24bd d135 e8bc e945 3bbd 41d1 0dbd
000001f0: 4ecc 97bd 9b8d b53c 3e87 9b3d 58d7 1fbc
00000200: 8b19 d5bb 4935 51bd f26e 653c 2006 833d
00000210: 922e 9dbd 1678 3dbd 19c0 9dbd 9028 e9bc
00000220: 355e d3bd 7361 46bd af49 a03d 7651 113d
00000230: 56fe 9c3d e886 1a3d 3872 3fbd 9414 88bc
00000240: 4ab0 883d 9ca7 84bb 5fbe abbc b161 b93d
00000250: 9567 f03c e18f 563d beac 96bc f3e1 98bd
00000260: c9aa d6bc c2d9 a4bb 11d2 923c 0396 163c
00000270: d5ba 7d3b 300f 5c3c 1acb 563d 0d5a 3bbc
00000280: 0ff2 633c 299a 1dbc e5d2 f23c 1644 bd3d
00000290: 59c9 863d f510 a63d 5788 dcbb 88ea b6bc
000002a0: 236f 04bc ce18 5dbd 3363 8c3d 4366 a23d
000002b0: 128f aebd a4ce 413d 15b6 c5bd 4a91 9c3d
000002c0: a101 a53d bc34 f0bc 011f bfbb cc33 b8bc
000002d0: 1a3e 653d 3a71 b6bd 6892 483d 5eee a1bc
000002e0: 4124 8cbd cfbe b4bd b66c 783c 05d8 f03c
000002f0: 07a2 f33c 0144 d2bc 9479 bb3c e329 d73c
00000300: 5caf 00bd 070e 223d 8e47 c4bd 8145 c53c
00000310: 55bd 02bd 80df d5bb de9d babd d633 7c3c
00000320: e16b f23c fbc2 233d 486f e1bc 93bd b4bc
00000330: 879d 4fbd 37f9 033d 4919 d93d 5ca8 c1bc
00000340: dde6 c6bc 85cf 1e3b 7f49 86bc 1fff 10bd
00000350: 3637 023e a8b0 54bd a450 6b3d 0a61 7b3d
00000360: 5750 34bd b3cc 4f3d 2c93 2fbd 02e4 893c
00000370: 0021 56bd 58f2 d0bd 1e27 8e3d 54ec eabc
00000380: deb5 173d 04d2 953b f7a4 7abc a39b 42bd
00000390: 83e1 07bb 8704 9ebd d9af 983b 717e ca3d
000003a0: acb5 73bd f891 0abd da32 8abd 47a1 8c3d
000003b0: f6a3 b43c c10c b5bd 9005 5fbd 1a93 143e
000003c0: 159a 4dbc 78da 893b adff d73b 17ae 8ebc
000003d0: 39c1 38bd 4dd5 7d3d 58df 753c d9ea 3cbd
000003e0: 52c2 debc 1aea 05be 81ce 513c c96b 7d3d
000003f0: e259 b739 c133 74bd 0a4e f83c 79f6 93bc

a2c_network.actor_mlp.2.bias f4 [128]
-0.098923825 0.047508437 -0.07951447 -0.21170351 -0.14803259 -0.23591512 0.046746366 0.046777423
0.04494747 -0.01199889 0.06562697 -0.19268659 -0.08985403 0.105038024 -0.17470509 0.01943304
-0.14232977 -0.12177025 -0.06613163 0.10084978 0.043630954 -0.20077239 -0.054991446 0.03734748
0.054234896 0.019134702 -0.14547159 0.076407 0.08980204 -0.09923592 0.033117697 -0.0423036
0.011231798 -0.24698123 0.053714484 0.07181534 -0.02969139 -0.26470682 -0.0681656 -0.24848044
0.028934652 0.05019211 0.07977099 -0.14778581 0.053701762 -0.12229832 0.048723947 0.058202125
0.057097103 0.0402868 0.04897192 0.078104176 0.14132792 0.13763557 -0.031361684 -0.1675602
0.06466587 0.03684979 0.06496641 -0.20232353 -0.05113007 0.029476298 0.063271336 -0.06640231
-0.1968909 -0.08175127 0.008544584 -0.1772247 0.05181383 0.07040261 0.1562187 -0.13717471
0.070221305 0.07210632 0.08527076 0.06789539 -0.11960194 -0.15324801 0.09281623 0.103385724
-0.1636323 0.06666053 -0.15669635 -0.11328503 0.12804073 -0.031756025 0.13537186 0.0714436
0.0469362 0.076199874 -0.025579933 0.06670657 -0.078542 -0.03879488 -0.03025684 -0.10996534
-0.20989168 0.0926749 -0.18758224 -0.03908036 -0.1876264 -0.18882984 -0.0441841 -0.13131572
0.067650154 0.044344746 -0.119928405 0.054829188 -0.029390574 0.034838516 -0.11559824 -0.07631273
0.048565466 -0.20683454 0.074578345 -0.1296471 -0.13223736 0.019563451 0.04686546 0.076155454
0.0032290826 0.098844625 -0.09837533 0.032460064 0.030888246 -0.042930104 0.08250487 0.04877597
00000000: 9398 cabd 3598 423d 7cd8 a2bd cec8 58be
00000010: db95 17be bc93 71be 1e79 3f3d af99 3f3d
00000020: d71a 383d fe96 44bc 6f67 863d a24f 45be
00000030: 6405 b8bd 2d1e d73d e4e5 32be 0a32 9f3c
00000040: e5be 11be ae62 f9bd 0570 87bd 548a ce3d
00000050: 5fb6 323d 4797 4dbe b63e 61bd acf9 183d
00000060: 6925 5e3d 61c0 9c3c 81f6 14be 467b 9c3d
00000070: 22ea b73d 343c cbbd 6ca6 073d 8a46 2dbd
00000080: 9305 383c a6e8 7cbe b803 5c3d ec13 933d
00000090: 5c3b f3bc a787 87be 689a 8bbd a871 7ebe
000000a0: 5d08 ed3c 3e96 4d3d f95e a33d 2a55 17be
000000b0: 61f6 5b3d 8b77 fabd c392 473d 5a65 6e3d
000000c0: a7de 693d c603 253d c896 483d 15f5 9f3d
000000d0: 44b8 103e 57f0 0c3e 1c75 00bd e794 2bbe
000000e0: 8a6f 843d ceef 163d 1c0d 853d e62d 4fbe
000000f0: c46d 51bd 4778 f13c 6794 813d effd 87bd
00000100: c59d 49be 366d a7bd 95fe 0b3c 647a 35be
00000110: bd3a 543d 3e2f 903d cbf7 1f3e 8777 0cbe
00000120: 30d0 8f3d 7aac 933d 70a2 ae3d bd0c 8b3d
00000130: ddf1 f4bd 0ced 1cbe 7016 be3d e5bb d33d
00000140: 3a8f 27be 5185 883d 0275 20be fb01 e8bd
00000150: 1c1d 033e 9b12 02bd ec9e 0a3e 0651 923d
00000160: 2c40 403d ae0e 9c3d 028d d1bc 749d 883d
00000170: a1da a0bd 61e7 1ebd 31dd f7bc 8235 e1bd
00000180: d8ed 56be 57cc bd3d 8f15 40be ba12 20bd
00000190: 2321 40be 9c5c 41be 63fa 34bd a177 06be
000001a0: 2a8c 8a3d d6a2 353d 069d f5bd 9294 603d
000001b0: 80c4 f0bc d5b2 0e3d c5be ecbd d949 9cbd
000001c0: 95ec 463d 6fcc 53be 88bc 983d 36c2 04be
000001d0: 3b69 07be 8843 a03c fff5 3f3d 64f7 9b3d
000001e0: 049f 533b 0d6f ca3d 0179 c9bd d8f4 043d
000001f0: 5909 fd3c 7ad7 2fbd 50f8 a83d 50c9 473d

a2c_network.actor_mlp.4.weight f4 [64, 128]
0.18783793 -0.011692415 -0.015027948 0.022336366 0.07502242 -0.15536447 -0.0835664 -0.13526763
-0.087361895 0.012279564 -0.31242466 0.08785338 0.03972127 -0.41882905 0.21591106 -0.022171434
0.08654187 -0.10199945 0.040440165 0.03658283 0.13670659 0.12041379 0.1044344 -0.22236931
0.11530379 -0.09570034 -0.015609062 -0.10966888 -0.23812379 0.089894705 -0.005315389 0.015990654
0.07871679 0.15461345 -0.3228963 -0.27591714 0.17217354 0.020847388 0.2162719 0.16622221
0.034702517 -0.12974203 -0.26333183 -0.075919166 0.17958398 -0.0002637237 0.0031022339 0.096156515
-0.18128291 -0.21250829 -0.2610047 -0.26627627 -0.09934368 -0.30710024 -0.1501082 -0.012270723
-0.23724073 0.039515153 0.005946663 0.0061059073 -0.0035712195 0.03605618 -0.020113481 0.017404443
0.18917799 0.07597505 0.17887762 -0.062703446 -0.16070762 -0.07878274 -0.40370575 0.16831087
-0.18991815 -0.13520022 0.13247664 -0.08244215 0.25483575 0.016924651 -0.17526984 -0.11735276
-0.067383975 -0.17370595 -0.18884838 0.0857872 -0.027785935 0.009319645 0.0047438294 -0.12853561
-0.022414876 -0.34730995 0.27497974 -0.4053496 0.17676634 -0.06477127 -0.17676218 0.12318874
-0.09848117 -0.08242191 -0.012146291 0.059238505 0.036682647 -0.0030007698 0.036486126 0.1510771
-0.13663958 -0.14214593 0.0119516365 -0.069606185 -0.0040761624 0.045054868 -0.08917589 0.071889505
0.010764727 -0.1430944 -0.07771874 0.108834885 -0.12910017 0.016813548 -0.03120706 0.020467065
-0.022523912 -0.009850197 -0.096621595 -0.028880227 -0.010826309 0.0714413 -0.10129974 -0.13151836
0.07206793 -0.11293353 -0.15871733 -0.10749873 -0.016187483 -0.11066443 0.008440803 -0.061782945
0.0045040282 -0.07735894 -0.16003782 0.0016384326 0.032511838 -0.08885773 0.022381265 -0.0032122023
-0.046455063 0.047311943 0.0655367 -0.17044657 0.110507704 0.07294455 0.03828608 -0.17746475
0.010888921 -0.24896285 0.02826324 0.005535382 -0.054630026 0.08635097 0.09016763 0.075290255
-0.101872586 -0.035504926 -0.14269403 -0.1137914 0.008945829 -0.017327363 0.110865556 -0.11720901
0.09670418 0.030858453 -0.13449669 0.049773023 -0.005385527 -0.0690025 -0.16595963 -0.1539236
-0.061184146 0.031622883 -0.11335082 -0.09308923 -0.09239554 -0.16519777 -0.021562207 -0.06166081
-0.07165915 0.07363906 -0.14111625 -0.03680853 -0.050044883 -0.09310562 0.018721242 0.043711036
0.034562435 0.07429433 0.09421878 -0.041159082 0.043976575 -0.010093125 0.012773715 -0.021304812
-0.015964614 -0.14069155 0.06468582 0.10014456 0.16780216 -0.056184027 -0.17112061 0.03928363
-0.02874881 -0.07002124 0.004076947 -0.043719213 -0.06532935 0.06978722 0.0051479097 -0.073196284
-0.049849503 -0.0262713 0.07428627 -0.086717956 0.0732668 0.16692445 0.0046375655 0.1319385
-0.07397762 0.061097197 0.020570474 0.12578988 0.060358364 -0.12842654 -0.034404013 -0.043170594
-0.06333388 -0.05236094 -0.1439534 -0.06511274 0.10011068 0.056706812 0.13241117 0.18089385
-0.036925007 -0.054415014 0.052804668 0.021273352 -0.063172184 -0.06965551 -0.06812209 -0.13962549
-0.020846061 -0.090928346 -0.031390276 -0.14902352 -0.16142933 0.09095674 -0.1636995 -0.038791478
00000000: 9658 403e 8b91 3fbc c837 76bc c1fa b63c
00000010: 5ba5 993d dd17 1fbe dc24 abbd 9983 0abe
00000020: cbea b2bd 3930 493c 20f6 9fbe 79ec b33d
00000030: c5b2 223d c370 d6be ca17 5d3e dea0 b5bc
00000040: dd3c b13d 16e5 d0bd 96a4 253d e1d7 153d
00000050: d0fc 0b3e 819b f63d b4e1 d53d c8b4 63be
00000060: 6524 ec3d 8afe c3bd 27bd 7fbc 149a e0bd
00000070: b9d6 73be b71a b83d b72c aebb d5fe 823c
00000080: 4536 a13d fd52 1e3e aa52 a5be 0345 8dbe
00000090: 434e 303e 24c8 aa3c 6276 5d3e 2836 2a3e
000000a0: 3a24 0e3d 18db 04be 6ed3 86be 827b 9bbd
000000b0: dde4 373e 6544 8ab9 d94e 4b3b b5ed c43d
000000c0: 3aa2 39be c69b 59be 68a2 85be 5d55 88be
000000d0: b374 cbbd 3e3c 9dbe f7b5 19be 240b 49bc
000000e0: 3cef 72be a4da 213d 3adc c23b 1014 c83b
000000f0: 1f0b 6abb a5af 133d 07c5 a4bc c393 8e3c
00000100: e0b7 413e cf98 9b3d b22b 373e aa6a 80bd
00000110: 8a90 24be d858 a1bd 85b2 cebe af59 2c3e
00000120: e779 42be ed71 0abe f5a7 073e 6ed7 a8bd
00000130: d579 823e 91a5 8a3c f079 33be a556 f0bd
00000140: 9c00 8abd f9df 31be 7861 41be 33b1 af3d
00000150: 549f e3bc 6db1 183c 2072 9b3b d79e 03be
00000160: 679f b7bc 9cd2 b1be 25ca 8c3e fc89 cfbe
00000170: 3c02 353e cda6 84bd 2501 35be 614a fc3d
00000180: 7fb0 c9bd d1cc a8bd 3d01 47bc 13a4 723d
00000190: 8b40 163d 90a8 44bb 7a72 153d f5b3 1a3e
000001a0: 3feb 0bbe b48e 11be ccd0 433c b08d 8ebd
000001b0: 5491 85bb 748b 383d d9a1 b6bd ce3a 933d
000001c0: 8a5e 303c 5787 12be 012b 9fbd d3e4 de3d
000001d0: d632 04be 91bc 893c f3a5 ffbc 8caa a73c
000001e0: 1184 b8bc b862 21bc 8be1 c5bd 3a96 ecbc
000001f0: d560 31bc d14f 923d 3d76 cfbd c0ac 06be
00000200: 5a98 933d b249 e7bd cc86 22be 4b28 dcbd
00000210: 9d9b 84bc 08a4 e2bd 4b4b 0a3c 1d10 7dbd
00000220: 8796 933b 5d6e 9ebd f4e0 23be adc0 d63a
00000230: 222b 053d 0bfb b5bd ea58 b73c d083 52bb
00000240: aa47 3ebd 2bca 413d 1b38 863d 8c89 2ebe
00000250: dd51 e23d f463 953d ddd1 1c3d 52b9 35be
00000260: 7267 323c 1ef0 7ebe 4f88 e73c 2662 b53b
00000270: bcc3 5fbd c7d8 b03d cea9 b83d c731 9a3d
00000280: 93a2 d0bd 9d6d 11bd 621e 12be 770b e9bd
00000290: 8791 123c 1df2 8dbc 7b0d e33d 470b f0bd
000002a0: d70c c63d deca fc3c 80b9 09be ccde 4b3d
000002b0: 1379 b0bb 2f51 8dbd 52f1 29be 269e 1dbe
000002c0: 3a9c 7abd ff86 013d 7a24 e8bd 91a5 bebd
000002d0: df39 bdbd 9b29 29be 3aa3 b0bc 0c90 7cbd
000002e0: 08c2 92bd 13d0 963d c780 10be 8bc4 16bd
000002f0: ddfb 4cbd 29ae bebd 4a5d 993c 580a 333d
00000300: 5791 0d3d a027 983d c7f5 c03d 6d96 28bd
00000310: c820 343d a25d 25bc d848 513c 6e87 aebc
00000320: 39c8 82bc 7211 10be 007a 843d 9718 cd3d
00000330: 54d4 2b3e 3921 66bd 3e3a 2fbe dfe7 203d
00000340: a082 ebbc 4c67 8fbd e997 853b eb12 33bd
00000350: 65cb 85bd 9aec 8e3d ccaf a83b efe7 95bd
00000360: fe2e 4cbd e936 d7bc 6623 983d 2f99 b1bd
00000370: e70c 963d 3eee 2a3e b8f6 973b e31a 073e
00000380: 9481 97bd 0e41 7a3d 6983 a83c 10cf 003e
00000390: 553a 773d 3f82 03be 39eb 0cbd a6d3 30bd
000003a0: 31b5 81bd 6d78 56bd 8568 13be d459 85bd
000003b0: d406 cd3d 6745 683d cb96 073e 3d3c 393e
000003c0: ad3e 17bd 47e2 5ebd b549 583d 7445 ae3c
000003d0: 6b60 81bd 8ca7 8ebd 9883 8bbd fcf9 0ebe
000003e0: 5cc5 aabc a438 babd 1793 00bd 9f99 18be
000003f0: bb4d 25be 8747 ba3d d7a0 27be d0e3 1ebd

a2c_network.actor_mlp.4.bias f4 [64]
-0.035646707 -0.10727519 0.0607863 0.07571933 0.0384143 0.09956173 0.058354627 0.08223276
-0.078817785 -0.112110846 0.05404451 0.054463543 -0.042739943 0.079637766 -0.114175044 0.083211064
-0.06389351 -0.1499223 -0.09465628 0.06357814 -0.08004848 0.07139968 0.09391223 0.081148066
0.053033948 0.068687946 -0.10351648 0.059926733 -0.039147012 0.07520653 -0.07678552 -0.041312903
-0.07997586 0.011374894 -0.063841 0.07374819 0.04473688 -0.102561206 0.06438203 -0.027577914
0.03606475 0.038800683 0.07007281 0.051176485 0.07786574 0.07426056 -0.09019378 -0.083347194
-0.0503931 0.060513873 0.10395636 0.039987933 0.06755383 -0.10675215 0.07982828 -0.07085296
0.050586574 0.075366296 0.03381754 0.10699539 0.054895736 0.052888773 0.08051508 0.06312091
00000000: 4802 12bd 18b3 dbbd 0efb 783d bc12 9b3d
00000010: 5058 1d3d 05e7 cb3d 4305 6f3d a669 a83d
00000020: 386b a1bd 5f9a e5bd c75d 5d3d 2a15 5f3d
00000030: 1410 2fbd 2019 a33d 9bd4 e9bd 906a aa3d
00000040: 9ada 82bd 3b85 19be 27db c1bd 4235 823d
00000050: 75f0 a3bd ff39 923d 0e55 c03d f530 a63d
00000060: 203a 593d 44ac 8c3d 7300 d4bd bc75 753d
00000070: 9e58 20bd e205 9a3d ba41 9dbd b837 29bd
00000080: 62ca a3bd c35d 3a3c 12bf 82bd 4b09 973d
00000090: 053e 373d 9c0b d2bd bada 833d 14eb e1bc
000000a0: a2b8 133d 77ed 1e3d 5582 8f3d 6f9e 513d
000000b0: 1378 9f3d ec15 983d 84b7 b8bd efb1 aabd
000000c0: ff68 4ebd 65dd 773d 12e7 d43d 63ca 233d
000000d0: aa59 8a3d dfa0 dabd 027d a33d 5b1b 91bd
000000e0: de33 4f3d a559 9a3d 4384 0a3d 6620 db3d
000000f0: 5ada 603d e6a1 583d 17e5 a43d 8945 813d

a2c_network.value.weight f4 [1, 64]
-0.013195845 -0.21735236 0.0039289435 0.0077084987 0.0076224757 0.11929072 0.0041212128 0.122458145
-0.004674688 -0.044946987 0.0032682447 0.042463057 0.002524749 0.11508717 -0.20749542 0.0015868455
0.0028395974 0.004746109 -0.07004282 0.01121052 -0.00082025334 0.11498496 0.0043504843 0.10716362
0.011507657 -0.0028918844 -0.003381395 -0.0071320166 0.002011349 0.11033746 0.010986147 -0.0021221768
0.0029504593 0.0011965078 0.0019867418 0.0022987488 0.012881616 -0.12385533 0.104915164 0.008194196
0.0027790174 0.00036869885 0.11148797 0.011470006 0.10709797 0.100728124 -0.12108475 -0.042667486
-0.00088837184 -0.012613018 -0.002148535 0.0038536552 0.10424962 -0.17174895 0.024243169 -0.0016766058
-0.007874888 0.12837958 -0.00033150928 0.15111035 0.008377566 0.0050264564 0.08938262 0.023734543
00000000: 6333 58bc 9e91 5ebe 5ebe 803b 9397 fc3b
00000010: f6c5 f93b b14e f43d 3d0b 873b 56cb fa3d
00000020: 202e 99bb 551a 38bd 0c30 563b beed 2d3d
00000030: 4276 253b d2b2 eb3d ae79 54be b3fd cf3a
00000040: 8a18 3a3b 3f85 9b3b 9c72 8fbd 54ac 373c
00000050: 4506 57ba 3c7d eb3d 828e 8e3b 9a78 db3d
00000060: 9d8a 3c3c c585 3dbb 659a 5dbb b1b3 e9bb
00000070: d6d0 033b 9bf8 e13d 3eff 333c 3814 0bbb
00000080: 7e5c 413b 24d4 9c3a ff33 023b 9ba6 163b
00000090: 6a0d 533c dda7 fdbd c3dd d63d f340 063c
000000a0: 2d20 363b ec4d c139 ce53 e43d b1ec 3b3c
000000b0: 2e56 db3d 8c4a ce3d 48fb f7bd 1ac4 2ebd
000000c0: a0e1 68ba d5a6 4ebc 70ce 0cbb 9b8d 7c3b
000000d0: d380 d53d f5de 2fbe 9c99 c63c 8ec1 dbba
000000e0: ad05 01bc f075 033e 6cce adb9 acbc 1a3e
000000f0: 0f42 093c f9b4 a43b 3c0e b73d f26e c23c

a2c_network.mu.weight f4 [4, 64]
-0.1275268 0.007828967 0.006385462 0.005486764 -0.013478824 -0.13146664 0.007601155 0.035190336
-0.027815545 -0.037492905 -0.00332964 0.111126535 0.0020842617 -0.05044562 -0.008656792 -0.002825929
0.0030709896 0.02237246 -0.08507812 -0.061185516 -0.029810073 -0.09486626 0.0032217056 0.028853828
-0.029932696 -0.0027582329 -0.0057051852 0.04275912 -0.013470945 0.047474153 -0.029795988 -0.000700476
0.005235967 0.0017860021 0.02955498 0.02020005 0.0041025686 0.044566337 0.13653721 0.0022200753
0.0028241246 0.0072380146 -0.035052095 -0.00801268 -0.026390016 0.07180587 -0.05942541 -0.08133422
0.0111386385 -0.0034917723 0.015312804 0.01191655 0.08234861 0.07330842 0.019816801 -0.05536553
0.0054342938 -0.02264146 0.005853551 0.025063735 0.006292478 0.020807423 0.05989687 -0.03730368
-0.07068172 -0.057582337 -0.008857525 0.003147714 0.0016367185 0.01845382 -0.0060529755 -0.060250714
-0.060533006 -0.077773154 -0.002299837 0.043469343 -0.00694647 -0.08333658 -0.0039029187 -0.009377077
-0.012975138 -0.01037911 -0.064661235 -0.06524343 -0.00038711238 -0.007127862 0.00067882676 -0.109288074
-0.09047106 0.0072388584 0.007932527 0.002259262 -0.0061213286 0.053209405 0.04117042 0.0022652869
0.016099684 0.003990688 -0.04715776 0.058599 0.012426823 -0.04959738 0.02923384 0.005661998
0.016067052 -0.019782772 -0.022014534 0.017870585 0.06119826 0.053158104 0.011671228 0.0815862
0.002158272 0.019038685 -0.014079907 0.017419891 -0.034691356 0.095407344 0.013663582 0.039497577
0.007329045 -0.09553384 0.0018942421 0.04804604 -0.010390294 0.027402496 0.08684976 -0.016116412
-0.014378344 0.08135788 0.01678573 -0.003646961 0.0025267901 0.047567997 0.0057358015 0.101622485
-0.0060656285 -0.009291489 0.0026223045 -0.05272608 -0.0034003942 -0.07007316 -0.018748777 0.007930974
0.006237203 0.00019127208 0.011532793 -0.021636488 -0.017968722 0.0065439325 0.00803986 -0.029525368
0.03611454 0.006820196 -0.012026648 0.009211182 0.017154498 -0.09664321 0.042246446 0.0050907894
0.0074336305 -0.0044252723 0.023046263 0.032754607 -0.00026355035 -0.0114624975 -0.053388316 -0.0026157638
-0.0023466935 -0.009626064 -0.09060302 0.024551844 0.011393403 0.00741771 0.06837935 -0.094779864
0.006789443 -0.020561043 -0.010144288 0.0009447828 0.0494109 -0.029851682 0.026196158 0.04666523
0.010066113 -0.027731316 0.0063433056 0.007796675 0.003802882 0.040418275 0.071830474 0.034933075
0.022805942 -0.086471915 0.006364089 -0.020955455 0.00664056 -0.0030002384 0.0001151633 0.011752932
-0.035288576 0.037577376 0.010048411 -0.023647545 0.012564153 0.03919354 0.08941952 0.003244012
-0.010842895 -0.013316237 0.04057383 0.010291204 -0.0035315724 0.010500381 -0.0042579225 0.044635125
0.030873472 0.023474494 0.0152511345 -0.00878351 -0.008884371 0.0041446546 0.059387926 0.0009879884
0.0014081085 0.0013867882 0.022793546 -0.032619797 0.009593 -0.016115347 -0.0067087673 0.0039785253
0.00036946675 -0.005976719 -0.0059365225 0.003160647 -0.044182826 -0.013479105 -0.13161887 -0.018856054
0.0077013555 0.039892208 -0.006096237 -0.012166754 -0.0126455175 0.05566975 -0.006782745 0.018177655
-0.00024885262 -0.015205132 0.0013815411 0.03415107 -0.00011642052 0.038201008 0.033575065 -0.05701098
00000000: 6396 02be 1145 003c 233d d13b 50ca b33b
00000010: 49d6 5cbc 319f 06be 1c13 f93b be23 103d
00000020: 6ddd e3bc 2992 19bd 1736 5abb 4f96 e33d
00000030: 1c98 083b 11a0 4ebd 38d5 0dbc 3933 39bb
00000040: a842 493b 7346 b73c 703d aebd aa9d 7abd
00000050: 4134 f4bc 3e49 c2bd 4023 533b dd5e ec3c
00000060: 6a35 f5bc 78c3 34bb 90f2 babb 3024 2f3d
00000070: 3db5 5cbc 4274 423d b716 f4bc 26a0 37ba
00000080: 7a92 ab3b 4918 ea3a 491d f23c 937a a53c
00000090: d76e 863b 318b 363d 69d0 0b3e af7e 113b
000000a0: f314 393b de2c ed3b c992 0fbd 9e47 03bc
000000b0: e02f d8bc f50e 933d 0f68 73bd 8e92 a6bd
000000c0: d67e 363c 38d6 64bb 8ee2 7a3c a23d 433c
000000d0: 63a6 a83d ba22 963d d856 a23c f7c6 62bd
000000e0: 2912 b23b 957a b9bc 25cf bf3b 7652 cd3c
000000f0: 2231 ce3b 5474 aa3c 6c56 753d becb 18bd
00000100: 94c1 90bd 75db 6bbd 271f 11bc e149 4e3b
00000110: 2987 d63a 772c 973c 0a58 c6bb 74c9 76bd
00000120: 75f1 77bd 8847 9fbd ddb8 16bb e90c 323d
00000130: 379f e3bb 5eac aabd 1cc8 7fbb 50a2 19bc
00000140: ac95 54bc 250d 2abc 1c6d 84bd 599e 85bd
00000150: 58f5 cab9 d790 e9bb 4bf3 313a 6dd2 dfbd
00000160: e448 b9bd f233 ed3b 6ef7 013c 2010 143b
00000170: 6d95 c8bb 1bf2 593d 50a2 283d 3575 143b
00000180: 7ce3 833c 51c4 823b 7f28 41bd 8105 703d
00000190: e099 4b3c 9f26 4bbd ce7b ef3c 4888 b93b
000001a0: 0d9f 833c 7b0f a2bc d357 b4bc 5565 923c
000001b0: 07ab 7a3d 50bc 593d ae38 3f3c aa16 a73d
000001c0: cc71 0d3b 04f7 9b3c 69af 66bc 29b4 8e3c
000001d0: 8618 0ebd ed64 c33d 37dd 5f3c 36c8 213d
000001e0: 7c28 f03b 3fa7 c3bd 3848 f83a edcb 443d
000001f0: 0d3c 2abc 337b e03c 49de b13d 9106 84bc
00000200: 2593 6bbc f69e a63d 3a82 893c da01 6fbb
00000210: 8198 253b a9d6 423d 64f3 bb3b 731f d03d
00000220: 2ec2 c6bb 543b 18bc f8da 2b3b 4df7 57bd
00000230: 26d9 5ebb 8482 8fbd 0997 99bc eaf0 013c
00000240: 7361 cc3b 3590 4839 0af4 3c3c 013f b1bc
00000250: 2433 93bc 7c6e d63b 9eb9 033c 2fdf f1bc
00000260: d7ec 133d f37b df3b 6b0b 45bc 7fea 163c
00000270: 9787 8c3c e0ec c5bd 9c0a 2d3d a3d0 a63b
00000280: d095 f33b e001 91bb 84cb bc3c b229 063d
00000290: 212d 8ab9 33cd 3bbc b5ad 5abd 3c6d 2bbb
000002a0: fcca 19bb a4b6 1dbc 138e b9bd f320 c93c
000002b0: 65ab 3a3c 4310 f33b 790a 8c3d f21b c2bd
000002c0: fa79 de3b a26f a8bc 3a34 26bc 4dab 773a
000002d0: 1563 4a3d 848b f4bc 5399 d63c 0a24 3f3d
000002e0: 57ec 243c c92c e3bc 81db cf3b 407b ff3b
000002f0: c639 793b a28d 253d db1b 933d fc15 0f3d
00000300: 87d3 ba3c 3018 b1bd d989 d03b c6aa abbc
00000310: 0e99 d93b a69f 44bb d383 f138 5f8f 403c
00000320: c18a 10bd bcea 193d 17a2 243c 7fb8 c1bc
00000330: e1d9 4d3c 6889 203d 9521 b73d 7d99 543b
00000340: 66a6 31bc 592c 5abc bf30 263d 709c 283c
00000350: f471 67bb ca09 2c3c 0b86 8bbb 52d3 363d
00000360: 5dea fc3c 954d c03c e5df 793c b6e8 0fbc
00000370: c18f 11bc e2cf 873b c140 733d 647f 813a
00000380: 4890 b83a e4c4 b53a 88b9 ba3c 569c 05bd
00000390: f52b 1d3c 5504 84bc 38d5 dbbb 4a5e 823b
000003a0: fdb4 c139 5ad8 c3bb 2987 c2bb db22 4f3b
000003b0: 0df9 34bd 77d7 5cbc 19c7 06be 0378 9abc
000003c0: a75b fc3b 0366 233d f1c2 c7bb 1157 47bc
000003d0: 252f 4fbc f705 643d ca41 debb 4ee9 943c
000003e0: 6f78 82b9 f21e 79bc d414 b53a fee1 0b3d
000003f0: ca26 f4b8 a978 1c3d 0286 093d 5884 69bd

a2c_network.mu.bias f4 [4]
-0.041543826 -0.041191466 0.028576013 -0.016853232
00000000: dc29 2abd 62b8 28bd 3e18 ea3c ca0f 8abc

exp_avg f4 [4]
0.0005295823 0.0048166723 -0.003540208 -0.0014847053
00000000: abd3 0a3a 2dd5 9d3b d602 68bb 719a c2ba

exp_avg_sq f4 [4]
0.00020195829 0.00023885911 0.00024085556 0.00017602633
00000000: c4c4 5339 4176 7a39 2c8e 7c39 b593 3839

exp_avg f4 [256, 13]
4.196608e-05 -9.052854e-05 0.000104074556 0.00013116674 1.780012e-05 -5.9396767e-05 7.071236e-05 0.00010040371
-0.0001877398 3.6627767e-05 -0.00015586548 -2.990846e-05 9.126971e-05 5.3830874e-05 -2.7255028e-05 5.2361873e-05
-0.00018569989 -0.00012454437 6.086788e-05 -3.5551761e-06 -4.0870887e-05 0.00031709584 -8.0483376e-05 2.7966067e-05
1.9935387e-05 1.630387e-05 0.000129567 1.6637807e-05 7.9034704e-05 0.00016847318 -5.785153e-05 -5.128461e-05
-6.69237e-05 -0.00018257058 -0.00014007672 -1.4211532e-05 -7.561019e-05 0.00011043657 3.7197406e-05 -0.00011567795
-2.2203969e-05 -6.412503e-05 -0.00010461848 0.00013608015 7.0386996e-05 4.0672814e-05 0.00011419599 -9.547453e-05
0.00013414888 0.00018364388 -4.100892e-05 1.8790037e-06 8.2213846e-05 -0.00016812579 9.0172936e-05 0.00019233652
-5.5467694e-06 -4.7634785e-05 0.0001558793 0.00016144436 -0.0004565423 0.00013364434 -0.00022032612 -2.6387504e-05
-2.0817784e-05 -2.3757311e-06 7.007047e-05 6.8988666e-05 0.00012886594 9.5646436e-05 -0.00013489331 -0.00010929974
-0.000120787525 -3.8054146e-05 -7.240943e-05 -9.276267e-05 0.00012742645 0.00014183614 4.2281795e-06 -3.218178e-05
8.785025e-05 0.00014870023 8.844192e-05 -0.00010951367 1.7394681e-05 1.236151e-05 -0.00030144418 1.8061548e-05
-0.00014212895 4.238495e-05 0.00010030083 6.543751e-06 -2.027052e-05 -2.5337882e-05 5.513906e-06 1.060887e-05
-5.2561313e-06 2.6942798e-05 2.2726848e-05 3.9107786e-06 4.664514e-06 -7.5133275e-06 3.2602367e-07 -4.3520818e-06
-3.8141745e-05 9.044773e-05 -4.3538763e-05 -0.0001482105 -6.424991e-05 8.26661e-05 -0.00010805177 -1.2574853e-05
0.0004543843 -0.000116152725 0.0001062888 -2.1223392e-05 -4.8552858e-05 -1.5986745e-05 5.6696616e-05 1.7523093e-05
0.00016871434 0.00018708946 -0.00014077289 -5.8347607e-05 -0.00010327417 -0.00015128423 -1.1720081e-05 -6.903156e-05
0.00012207672 0.00017352233 9.3721035e-05 -6.629535e-05 1.7411996e-05 1.4681328e-05 -9.027895e-05 3.4367284e-05
6.039898e-05 -3.4688674e-05 -0.00013157116 3.5177964e-05 -9.9244986e-05 -3.5392168e-05 -0.00011406104 -2.589926e-05
1.3597263e-05 -2.15005e-05 0.00020495229 0.00017155209 -8.665782e-05 2.428126e-05 2.6944654e-05 -0.00033866352
0.00010179601 -3.0877214e-05 6.798699e-05 8.504348e-05 -5.758072e-06 2.0517427e-06 3.2153406e-05 -3.9991137e-05
-2.7536416e-05 1.4381816e-05 -2.4908537e-05 -7.896364e-05 0.000114215494 -8.021887e-05 -5.2665044e-05 2.9218183e-05
2.6610364e-06 -8.489921e-05 0.00015113228 0.00011374409 0.00011016736 0.0002125077 -9.354049e-05 -0.00031229854
-0.00026940068 0.00019979187 -0.00017889788 -7.718367e-06 0.0002794873 0.00032047392 -3.985537e-05 9.64608e-05
4.7985686e-05 0.00015333106 0.0001820794 -7.375024e-05 -0.00016061182 -0.00018364555 -8.299903e-05 -7.1250244e-05
-2.6450869e-05 0.00017692972 6.569146e-05 3.7236965e-05 5.796173e-05 -4.4403107e-05 -8.693363e-05 -6.189515e-05
0.0001286482 -3.437824e-05 -8.309648e-05 0.00019036599 -3.635866e-05 4.884574e-05 -6.172492e-05 -0.00011746755
5.855176e-06 7.352283e-05 -8.5915395e-05 -9.464558e-05 -4.9995102e-05 0.00010379566 -7.196776e-05 -2.515471e-05
0.00024925696 -4.7220756e-06 0.00012953812 -5.2160813e-05 -0.00010338749 0.00016375643 5.1156763e-05 -1.675381e-06
8.358148e-05 -0.00017510731 -1.6934455e-05 -2.9237666e-05 -0.00014593656 -6.6907116e-05 1.1539535e-05 -1.7050552e-05
6.0024322e-05 -4.0892784e-05 -0.00023614142 0.00017687945 4.1370477e-05 0.00014775003 0.00045737159 -0.00021384524
-0.00022183885 -9.408276e-05 8.755657e-05 -9.3481525e-05 6.437255e-05 0.00026061918 0.0004344649 0.00016435787
7.54407e-05 -5.8743703e-05 -2.6493182e-05 -0.00022267601 6.197406e-05 -5.4421398e-05 -0.00014464669 7.5289674e-05
00000000: bc04 3038 24da bdb8 9a42 da38 ce89 0939
00000010: 7751 9537 cb20 79b8 694b 9438 d58f d238
00000020: 05dc 44b9 c4a0 1938 d26f 23b9 eee3 fab7
00000030: 0d68 bf38 76c8 6138 baa1 e4b7 229f 5b38
00000040: 6fb8 42b9 2098 02b9 634c 7f38 7695 6eb6
00000050: c86c 2bb8 e23f a639 2fc9 a8b8 ac98 ea37
00000060: eb3a a737 4bc4 8837 60dc 0739 6b91 8b37
00000070: 6fbf a538 2da8 3039 9ba5 72b8 6e1a 57b8
00000080: 6359 8cb8 6b70 3fb9 8fe1 12b9 116e 6eb7
00000090: e990 9eb8 2f9a e738 6904 1c38 2098 f2b8
000000a0: a942 bab7 dd7a 86b8 9e66 dbb8 bdb0 0e39
000000b0: bb9c 9338 1a98 2a38 817c ef38 7f39 c8b8
000000c0: 51aa 0c39 8790 4039 fe00 2cb8 1332 fc35
000000d0: 396a ac38 ec4a 30b9 3a1b bd38 f1ad 4939
000000e0: 631e bab6 76cb 47b8 8873 2339 6449 2939
000000f0: 125c efb9 e122 0c39 5807 67b9 bc5a ddb7
00000100: daa1 aeb7 c06e 1fb6 ccf2 9238 02ae 9038
00000110: 3020 0739 ca95 c838 2672 0db9 da37 e5b8
00000120: 4f4f fdb8 549c 1fb8 84da 97b8 9489 c2b8
00000130: c79d 0539 d9b9 1439 c9df 8d36 ecfa 06b8
00000140: 3e3c b838 6aec 1b39 e579 b938 b4aa e5b8
00000150: cbea 9137 4864 4f37 270b 9eb9 e182 9737
00000160: 7308 15b9 7ec6 3138 9958 d238 6592 db36
00000170: 9c0a aab7 b08c d4b7 1804 b936 c0fc 3137
00000180: d35d b0b6 3803 e237 89a5 be37 5539 8336
00000190: df83 9c36 fe1a fcb6 5a08 af34 1908 92b6
000001a0: 63fa 1fb8 c1ae bd38 649d 36b8 f468 1bb9
000001b0: e8bd 86b8 065d ad38 da99 e2b8 95f8 52b7
000001c0: 6e3a ee39 0597 f3b8 5de7 de38 e308 b2b7
000001d0: 3ca5 4bb8 461b 86b7 87cd 6d38 8efe 9237
000001e0: e9e8 3039 722d 4439 6f9c 13b9 44ba 74b8
000001f0: e694 d8b8 0da2 1eb9 5da1 44b7 09c5 90b8
00000200: b801 0039 8cf3 3539 198c c438 0c08 8bb8
00000210: fa0f 9237 d34f 7637 2454 bdb8 9725 1038
00000220: e954 7d38 ae7e 11b8 5df6 09b9 0d8c 1338
00000230: bf21 d0b8 0d72 14b8 0e34 efb8 3d42 d9b7
00000240: cd1f 6437 f95b b4b7 76e8 5639 aae2 3339
00000250: 10bc b5b8 9caf cb37 3407 e237 a68e b1b9
00000260: 517b d538 2882 01b8 3d94 8e38 5f59 b238
00000270: 7635 c1b6 acb0 0936 75dc 0638 28bc 27b8
00000280: 01fe e6b7 6e49 7137 adf2 d0b7 4899 a5b8
00000290: fa86 ef38 2e3b a8b8 a9e4 5cb8 9219 f537
000002a0: 4294 3236 eb0b b2b8 4379 1e39 e589 ee38
000002b0: a709 e738 9ad4 5e39 2b2b c4b8 00bc a3b9
000002c0: 593e 8db9 397f 5139 8996 3bb9 227e 01b7
000002d0: 2788 9239 4805 a839 612a 27b8 ff4a ca38
000002e0: 3d44 4938 7ec7 2039 91ec 3e39 5caa 9ab8
000002f0: e869 28b9 fa90 40b9 c40f aeb8 2f6c 95b8
00000300: cfe2 ddb7 3686 3939 d6c3 8938 e32e 1c38
00000310: ef1b 7338 793d 3ab8 2350 b6b8 b5cd 81b8
00000320: bde5 0639 5b31 10b8 1544 aeb8 fb9c 4739
00000330: d07f 18b8 b7df 4c38 5072 81b8 e958 f6b8
00000340: 9477 c436 4530 9a38 7a2d b4b8 757c c6b8
00000350: d5b1 51b8 dfac d938 66ed 96b8 5403 d3b7
00000360: b4ae 8239 5272 9eb6 a0d4 0739 3fc7 5ab8
00000370: bcd1 d8b8 08b6 2b39 2891 5638 a7dd e0b5
00000380: 7748 af38 039d 37b9 770e 8eb7 6943 f5b7
00000390: 8c06 19b9 7c50 8cb8 ed99 4137 c807 8fb7
000003a0: a0c2 7b38 4b84 2bb8 bb9c 77b9 b778 3939
000003b0: 3685 2d38 59ed 1a39 60cb ef39 a53b 60b9
000003c0: 6a9d 68b9 4c4e c5b8 939e b738 830b c4b8
000003d0: c0ff 8638 b7a3 8839 e4c8 e339 7b57 2c39
000003e0: eb35 9e38 9263 76b8 ad3d deb7 237e 69b9
000003f0: 12f8 8138 8842 64b8 4dac 17b9 d6e4 9d38
