mete_aerial_gym_simulator/rl_training/cleanrl/runs/quad__ppo_continuous_action__1__1686669781/latest_model.pth (torch, 564158 bytes, 12 tensors)

actor_logstd f4 [1, 4]
0	0xbe8c14ad	-0.27359524
1	0x3f98aee3	1.1928371
2	0x3e324708	0.17409909
3	0x3e964908	0.29352593

critic.0.weight f4 [256, 13]
0	0xbfda46f1	-1.70529
1	0x3ee49254	0.4464289
2	0xbee9b66a	-0.45646983
3	0xbffed457	-1.9908551
4	0x3e9682b6	0.293966
5	0x3f8ba9b3	1.0911163
6	0xbee65d12	-0.44992882
7	0xbe79cd67	-0.24394761
8	0xbe0c0a09	-0.13675703
9	0x3eca4026	0.39502066
10	0xbceea9f5	-0.029133776
11	0xbdb53904	-0.088487655
12	0x3e5ac2fd	0.21363445
13	0x3f894a24	1.0725751
14	0xbe7bd427	-0.24592648
15	0xbda9fdda	-0.083003715
16	0xc0764b73	-3.848355
17	0x3f215f2c	0.63035846
18	0x3f8a90ff	1.0825499
19	0x3de7eb8a	0.113242224
20	0x3eaf2e3e	0.34214967
21	0x3f1f6604	0.6226504
22	0x3ebaeab1	0.3650718
23	0xbda61bab	-0.08110746
24	0xbe28c682	-0.16481975
25	0x3e8e04b4	0.27737963
26	0xbe95b19a	-0.29237062
27	0xbef411a7	-0.47669718
28	0xbf990ce9	-1.1957065
29	0xbf32b0b4	-0.6980088
30	0xbebe2893	-0.3714033
31	0xbe47beff	-0.19506453
32	0x3e67c945	0.22635372
33	0x3e2fbeb8	0.17162597
34	0x3ed863ea	0.42263728
35	0x3daa4805	0.08314518
36	0xbdc40354	-0.09570947
37	0x3d9b7937	0.07591479
38	0x3a92cec3	0.0011200536
39	0x3f4bcd59	0.7961021
40	0xbf8d1b3e	-1.1023939
41	0x3f87bd8c	1.060472
42	0x405aca1e	3.4185863
43	0x404f7ed6	3.2421165
44	0xc0800ca3	-4.0015426
45	0xbf05cb50	-0.52263355
46	0xbd5c1d3b	-0.053738814
47	0xbe96eb39	-0.29476336
48	0xbe74e729	-0.23916306
49	0x3e313678	0.17305934
50	0x3da201bb	0.07910486
51	0x3e16fee0	0.14745665
52	0xbf7b73ce	-0.9822358
53	0xbf12df63	-0.5737211
54	0xbf14f80e	-0.58191
55	0xc00fcd4a	-2.2469049
56	0x4054847d	3.3205864
57	0x3f0d20a5	0.55127937
58	0x3f183b3e	0.59465396
59	0xbf169a85	-0.5882953
60	0x3f2f713d	0.6853216
61	0xbf45ede0	-0.77316093
62	0xbea19b2b	-0.31563696
63	0x3e6326ca	0.22182766
64	0xbf159a7b	-0.58438843
65	0x3e1bb0bb	0.15204136
66	0x4019109c	2.3916388
67	0xbd852d69	-0.06502802
68	0xc0d0fa46	-6.530551
69	0xc08e4b0e	-4.446662
70	0x4052fc8c	3.2966642
71	0xbf89a958	-1.0754805
72	0x3e499a6c	0.19687814
73	0x3f4a068f	0.7891626
74	0xbe807094	-0.2508589
75	0x3d6a9028	0.057266384
76	0x3e49d574	0.19710332
77	0xbdf60bf9	-0.12014002
78	0xbf8d9e87	-1.1064004
79	0x3f9938c6	1.1970451
80	0xbfecb107	-1.8491524
81	0xbfdaf1ea	-1.7105076
82	0xc09b4b6a	-4.852956
83	0xbfa44a54	-1.2835183
84	0x3dd20079	0.102539964
85	0xbfd55eec	-1.6669593
86	0x3fab593a	1.3386605
87	0xbc9a6f20	-0.018851817
88	0x3e5ec4d4	0.21754771
89	0xbdbb55f5	-0.091472544
90	0x3e04dd05	0.12974937
91	0xbf846077	-1.0341939
92	0x3d41d9a3	0.047326695
93	0xbe70c38c	-0.23512095
94	0x3f824aba	1.0179055
95	0x3f34519b	0.7043702
96	0xbfa0cfad	-1.2563378
97	0x3eb68ab8	0.3565271
98	0x3b251023	0.002518662
99	0x3f8f3119	1.1186858
100	0x3ed1c76f	0.40972468
101	0x3e455146	0.19269285
102	0x3e0a76f4	0.1352194
103	0x3d8c91ab	0.068637215
104	0xbeff88b2	-0.49908978
105	0x3f6b182e	0.9183377
106	0x3f15089a	0.5821625
107	0xbcaaeee0	-0.020865858
108	0xbd0b0cc2	-0.033947714
109	0xbf39fbc1	-0.7264977
110	0x3f64f01d	0.89428884
111	0x3e8cadb0	0.27476263
112	0xbccedf9f	-0.025253115
113	0x3f7ed4e8	0.9954362
114	0xbde753f3	-0.11295309
115	0xbd52a768	-0.051429182
116	0x3df496a5	0.11942796
117	0xbc8a2346	-0.016862523
118	0x3dc77d9a	0.097407535
119	0x3dbaf554	0.09128824
120	0x3ff72c01	1.9310304
121	0xbfe210ea	-1.7661412
122	0xbdf96c9f	-0.12178921
123	0xc040ed20	-3.014473
124	0x3e1eaa6d	0.154947
125	0xbe750778	-0.2392863
126	0x3f04221c	0.51614547
127	0x3e173db3	0.1476963
128	0xbdfda407	-0.12384801
129	0x3dffb059	0.124848075
130	0x3ebe8cbf	0.37216756
131	0x3e82980e	0.25506634
132	0x3fa9a376	1.3253009
133	0x3ff3ce1d	1.9047276
134	0x400bf095	2.186559
135	0x3e499ceb	0.19688766
136	0x402b9698	2.6810665
137	0x3f139810	0.57653904
138	0x3f26fa12	0.65225327
139	0x3f72e810	0.9488535
140	0xbf4a9c23	-0.79144496
141	0x3e920ae6	0.2852394
142	0xbf4dca37	-0.8038668
143	0x3f56e3cf	0.8394136
144	0x3ee47fdb	0.44628796
145	0xbeedad91	-0.46421483
146	0x3e89aa9a	0.2688797
147	0xbdf56938	-0.119829595
148	0xc00f23f7	-2.2365701
149	0x3fbce5b9	1.4757606
150	0x3e63fb6f	0.22263883
151	0x3ebb5e6a	0.3659547
152	0x3f1b5b47	0.60686153
153	0xbedb82d6	-0.42873257
154	0xbeb0b8e1	-0.3451605
155	0x3f029a7f	0.5101699
156	0xbdef0e83	-0.1167269
157	0xbeb898c3	-0.36054048
158	0xbdedda9b	-0.11613961
159	0xbf16a83f	-0.58850473
160	0xbfaf84c6	-1.3712394
161	0xbc9cf445	-0.019159446
162	0x402b3c08	2.675539
163	0xbbcfc882	-0.006341041
164	0xbd29dccc	-0.041470334
165	0xbed13964	-0.40864098
166	0x3c21a8eb	0.009866933
167	0xbce6f185	-0.028191337
168	0x3e94fc92	0.29098946
169	0x3eb82f3a	0.3597353
170	0x3fab6973	1.3391556
171	0xbdfa0d86	-0.12209611
172	0xc0e948d4	-7.29014
173	0x3e94fb94	0.2909819
174	0xc01de04c	-2.466815
175	0xbf27e138	-0.6557803
176	0xbe28666f	-0.16445325
177	0x3f2ac470	0.6670599
178	0xbeb937ad	-0.3617529
179	0x3da7a82e	0.081863746
180	0xbd96cb31	-0.073629744
181	0xbd940ab2	-0.072286025
182	0xbe99f68d	-0.30070916
183	0xbf7be632	-0.98398125
184	0xbf1d4607	-0.6143498
185	0x410c132a	8.754679
186	0x4015cfc4	2.340806
187	0x3f8723c3	1.0557789
188	0xbe79d3fc	-0.24397272
189	0xbf11801c	-0.56836104
190	0xbef9c153	-0.48780307
191	0xbe1313d1	-0.14363028
192	0x3d58790e	0.05284982
193	0xbdc2975b	-0.09501525
194	0xbf0582e4	-0.5215285
195	0xbfa1492b	-1.2600454
196	0xbf830b40	-1.0237808
197	0xbfca836d	-1.5821358
198	0x3e8c5805	0.27410904
199	0xbf1504b0	-0.5821028
200	0xbfe3cc54	-1.7796731
201	0x3fc80671	1.5626966
202	0x3efbd054	0.4918238
203	0xbf258a93	-0.6466457
204	0xbf4ef93a	-0.8084904
205	0x3df110e6	0.11770801
206	0xbcd766a3	-0.026294058
207	0xbb3ac65d	-0.0028499581
208	0xbf39eb0e	-0.7262429
209	0xc0030da3	-2.0477073
210	0xbf9df362	-1.23399
211	0x400955c9	2.145861
212	0xc0df9b1e	-6.987685
213	0xbf9eb0e8	-1.2397738
214	0xbee5dc86	-0.4489481
215	0x3ec70356	0.38869733
216	0xbebae9f1	-0.36506608
217	0xbd913f2e	-0.07092129
218	0x3eae65ba	0.34061986
219	0xbe37c6f4	-0.17946988
220	0x3eda9e7e	0.42699045
221	0x3f88bc2b	1.0682424
222	0xbff0ddff	-1.8817748
223	0xbe19a6fd	-0.15005107
224	0x409c1879	4.8779874
225	0x40d079d0	6.5148697
226	0x404f326c	3.2374525
227	0xbf0aa962	-0.5416471
228	0x3ea366b0	0.31914282
229	0xbf89d94f	-1.0769442
230	0xbe42c370	-0.19019866
231	0xbe3a26f2	-0.18178919
232	0x3da24fa2	0.07925345
233	0x3d8a5160	0.06753802
234	0xbf6ed104	-0.9328768
235	0xbf52394e	-0.8211869
236	0xc025f99a	-2.5933595
237	0xc07004ed	-3.7503006
238	0xc0873f35	-4.2264657
239	0xc065f4e3	-3.5930717
240	0x3f39ef7b	0.72631043
241	0xbf16aed1	-0.588605
242	0x3e8898ce	0.2667908
243	0xbe6b8ae1	-0.23002197
244	0xbe390c5f	-0.18071125
245	0x3e194e13	0.14971189
246	0x3dd8efab	0.10592588
247	0xbf6209f6	-0.8829645
248	0xbf49e30e	-0.7886208
249	0x3e91455a	0.28373224
250	0x4088e26e	4.2776403
251	0xbf955f7d	-1.1669766
252	0xc084f299	-4.154614
253	0x3fff5656	1.9948223
254	0xbe2103b6	-0.15724072
255	0xbf194cf6	-0.5988306

critic.0.bias f4 [256]
0	0xbd3e075f	-0.04639375
1	0x3ece6f65	0.40319362
2	0x3e96032d	0.29299298
3	0xbd9c15bd	-0.07621334
4	0x3f443414	0.76641965
5	0xbf065894	-0.5247891
6	0x3e79eeec	0.24407548
7	0x3f45593a	0.77089274
8	0x3f955f42	1.1669695
9	0xc01aaa6a	-2.4166512
10	0x400bd486	2.1848464
11	0x40034909	2.0513327
12	0x4040f457	3.0149133
13	0xbec42776	-0.38311356
14	0x3f0a8930	0.5411558
15	0x3fda96f6	1.707732
16	0x3e409429	0.18806519
17	0x3c754138	0.014969163
18	0x3f18426e	0.59476364
19	0x3fdd9d79	1.7313682
20	0xbfd23433	-1.642218
21	0x3fa57f3b	1.2929453
22	0xbfae5a30	-1.3621273
23	0x4040c1e0	3.0118332
24	0xbedab809	-0.42718533
25	0x3f21593e	0.630268
26	0xbf631ec9	-0.8871885
27	0xbe8edff3	-0.27905235
28	0xc034fafd	-2.827819
29	0x3fd84259	1.6895248
30	0x4043cc75	3.059354
31	0xc0120bee	-2.2819781
32	0xbffc41bc	-1.970756
33	0xbf5bf25b	-0.8591668
34	0x4055df8f	3.34177
35	0xbe9592ec	-0.29213655
36	0xbf39ecee	-0.7262715
37	0xc03f9545	-2.9934857
38	0x3eab50eb	0.33460173
39	0xbfa0a504	-1.2550359
40	0xbf910b35	-1.1331545
41	0x3f6e4b91	0.93084055
42	0xc00ef890	-2.233921
43	0x3ea03d61	0.31296828
44	0x3fe7770c	1.8083205
45	0x3ff950f4	1.947783
46	0x3f083000	0.5319824
47	0x3fb401a0	1.4062996
48	0xbeda6008	-0.4265139
49	0x3ea3c89a	0.31988984
50	0x401f5f4f	2.4901922
51	0x3f1a5a5c	0.6029413
52	0xbf9e7d8f	-1.2382067
53	0xbfd7598a	-1.68242
54	0x3fcfb6ea	1.6227696
55	0xc04b31b3	-3.1749084
56	0xbee9c65d	-0.45659152
57	0xc0368eb7	-2.8524606
58	0x3edc66de	0.4304723
59	0x40527dc4	3.2889261
60	0x4000af83	2.0107124
61	0x3e7c449c	0.24635547
62	0x3faf8905	1.371369
63	0x3fea6521	1.8312112
64	0xc0535a3a	-3.302382
65	0xbf2cd9f4	-0.6752007
66	0xc036ca11	-2.8560832
67	0x40446ef6	3.0692725
68	0x3edd71fa	0.4325102
69	0xc022d2cd	-2.5441163
70	0xc03f9c8f	-2.9939306
71	0x3f8eccee	1.115629
72	0xc047dec0	-3.1229706
73	0xbf09a5eb	-0.53768796
74	0xbf03eff8	-0.5153804
75	0xbfbb1f94	-1.4619012
76	0xbb9a143c	-0.004702119
77	0xbeb234e0	-0.34805965
78	0xc03a4907	-2.9107072
79	0xbe53d0ed	-0.20685168
80	0x3e581581	0.21101953
81	0x405da7b2	3.4633603
82	0x3ec5e057	0.3864772
83	0xbd81c109	-0.06335647
84	0xc03ec552	-2.9807935
85	0xc04338b7	-3.0503366
86	0xbe85cf98	-0.26134944
87	0x3fab15ce	1.3366029
88	0x405d095c	3.4536963
89	0xbef834eb	-0.48477873
90	0xc0520215	-3.281377
91	0x3e91431b	0.2837151
92	0x3f51f43c	0.820133
93	0x40521aef	3.282894
94	0x3f0ae248	0.5425153
95	0x40229c56	2.540792
96	0x3f5adce2	0.8549329
97	0x404c9cae	3.197063
98	0x3f47b705	0.7801364
99	0xc03a3899	-2.9097044
100	0x3f85be2a	1.0448658
101	0x3fb16e92	1.3861868
102	0xbfdc565f	-1.7213858
103	0xbfc44af4	-1.5335374
104	0x3ed0ed2f	0.40805957
105	0xbfd6a7a0	-1.6769905
106	0xc0524643	-3.2855384
107	0x401735e1	2.3626635
108	0x403e3d26	2.9724822
109	0x405543f2	3.332272
110	0x405675cf	3.3509405
111	0xbf1ad973	-0.6048805
112	0xbfe990e5	-1.8247343
113	0xbfb1220b	-1.3838514
114	0x400406cb	2.0629146
115	0x3fc8708b	1.5659345
116	0x3f19da72	0.60098946
117	0x3ef6e20a	0.4821933
118	0x3da548fe	0.08070563
119	0xbef577cd	-0.47942963
120	0xc04ed0f7	-3.2315042
121	0xbeb2f8fe	-0.3495559
122	0x403d8c9d	2.9617074
123	0xc00fbeac	-2.2460127
124	0xbff7f11c	-1.9370456
125	0x3f28b0c9	0.6589475
126	0x404a1d82	3.158051
127	0xbef1b7f0	-0.47210646
128	0x3e5f71df	0.21820782
129	0x3fea26cc	1.829309
130	0xbf53cb28	-0.82731867
131	0xc036e1e4	-2.8575373
132	0xbec6f8ae	-0.38861603
133	0xc0014e0d	-2.0203888
134	0x4028bb26	2.6364226
135	0xbf330652	-0.6993152
136	0x3cc75ac7	0.024335278
137	0xbe3cf35b	-0.18452208
138	0x3fde4580	1.736496
139	0x3e2dfbcd	0.16990586
140	0xbfa11af3	-1.2586349
141	0xc04aeb79	-3.170622
142	0x4046cbab	3.106181
143	0xbf3af668	-0.73032236
144	0xc042dedc	-3.0448523
145	0x3dbb528b	0.09146603
146	0x3f3ed1ce	0.74538887
147	0x404de744	3.2172403
148	0xbfa7ca83	-1.3108677
149	0xbfbc2672	-1.4699233
150	0xbf372ec3	-0.7155573
151	0xbeaed5ee	-0.3414759
152	0xbfec172b	-1.844457
153	0x3d23bb74	0.03997369
154	0x3fc0e46e	1.5069711
155	0xbe5d8317	-0.21632038
156	0xbfb04218	-1.377017
157	0x3f979e84	1.184525
158	0x3f525311	0.82158
159	0x3e6f9814	0.23397857
160	0xbfc86f5e	-1.5658987
161	0x3fbe3f1f	1.4863013
162	0xbe372c9d	-0.17888112
163	0xc0274302	-2.6134648
164	0x403a83d1	2.9142954
165	0x3da90ab1	0.08253992
166	0x3ead1bef	0.33810374
167	0xbfc391bb	-1.5278848
168	0xbfd45d0c	-1.6590896
169	0xbe0fc00a	-0.14038101
170	0xbfce72f1	-1.6128827
171	0xc05753ed	-3.3644974
172	0x3ea3366f	0.31877467
173	0xc039dbf3	-2.9040496
174	0x3f01c4dc	0.5069101
175	0x3f534e5f	0.8254146
176	0x3f27b499	0.65509945
177	0xbe1eae3b	-0.15496151
178	0xbf01ada3	-0.50655574
179	0x404e36ef	3.2221029
180	0x3f6c06a1	0.92197615
181	0x3d0dfbc4	0.03466393
182	0x3fdd8a8c	1.7307906
183	0x40198a20	2.3990555
184	0xbfdc5ab2	-1.7215178
185	0x3fbc879d	1.4728886
186	0x3f5a3de1	0.8525067
187	0x3fbf3701	1.4938661
188	0xbe6d052c	-0.23146504
189	0xbe8452a3	-0.25844297
190	0x3fde4310	1.7364216
191	0x3efb0923	0.49030408
192	0xbe5d150c	-0.2159006
193	0x3c1262b4	0.0089346655
194	0x3f854243	1.0410846
195	0xbf4ddcf6	-0.80415285
196	0xbf83e35f	-1.0303763
197	0x3fc1c5e6	1.5138519
198	0xc0283921	-2.6284869
199	0xbf3433c7	-0.70391506
200	0x403f34ca	2.987597
201	0xbfc335da	-1.5250809
202	0x4007042f	2.1096303
203	0xc042876a	-3.039515
204	0x3deaf049	0.11471612
205	0xc00619dc	-2.0953283
206	0xc050031e	-3.2501903
207	0x3fe4d7b0	1.7878323
208	0xbfc96df5	-1.5736681
209	0x4032097d	2.781829
210	0xbf85a7e4	-1.0441861
211	0x3ff3608c	1.9013839
212	0xbf5cb0a9	-0.8620706
213	0x3f22deb0	0.63621044
214	0x3f88dd4c	1.0692534
215	0xc013f014	-2.3115282
216	0x3e572acc	0.2101242
217	0xc003ca98	-2.0592403
218	0x3fd94e31	1.6976987
219	0x3f716486	0.9429401
220	0xc005f410	-2.0930214
221	0x3fb7a6d4	1.4347787
222	0x40380e09	2.8758566
223	0x3f6287ac	0.8848827
224	0xbd83ebe9	-0.06441481
225	0xbee0716a	-0.43836528
226	0x3fb97551	1.4488927
227	0xbef09af6	-0.46993226
228	0xbfba0ee9	-1.45358
229	0xbf9d7290	-1.2300587
230	0xc037d325	-2.8722622
231	0x4014ba32	2.3238645
232	0x3ff6b4d3	1.9273933
233	0xbe822006	-0.25415057
234	0x3f36137b	0.71123475
235	0x3f3f5634	0.7474091
236	0xc06f2aa8	-3.7369785
237	0x4013ece0	2.3113327
238	0xbfe99ac6	-1.8250358
239	0xc0402c13	-3.00269
240	0xc04d52fa	-3.2081895
241	0x403c66e7	2.9437807
242	0x3fc5f4e2	1.5465357
243	0x3f9232a4	1.1421704
244	0xc033efad	-2.8115036
245	0xbd3eb4e9	-0.046559248
246	0x3ff63260	1.9234123
247	0xc04b2b8c	-3.174533
248	0x3f016f16	0.5056013
249	0x3eba72f5	0.3641583
250	0x3fd9f635	1.7028261
251	0x3bc2780d	0.0059347213
252	0xbfe79ee7	-1.8095368
253	0x3f87af04	1.0600286
254	0xbfadba36	-1.3572452
255	0xbeae75d9	-0.34074286

critic.2.weight f4 [256, 256]
0	0xbdfd92f5	-0.123815455
1	0xbf736609	-0.9507757
2	0x3e915cb1	0.2839103
3	0xc00816ba	-2.1263871
4	0xbe2729d4	-0.1632455
5	0xbfa78bd3	-1.3089546
6	0x3f35ca50	0.7101183
7	0xbe82f01d	-0.25573817
8	0xbf9891d4	-1.1919503
9	0xbef8b2a8	-0.48573804
10	0xbefb609c	-0.49097145
11	0xbd5a6853	-0.053322148
12	0xbf441f04	-0.76609826
13	0xbdc95c68	-0.09832078
14	0xbf5d8924	-0.86537385
15	0xbe376667	-0.17910157
16	0xbf1731c6	-0.59060323
17	0xbf6df30d	-0.9294899
18	0xbe49d114	-0.19708663
19	0x3e69cc63	0.22831874
20	0x3e6e80e3	0.23291354
21	0x3ec4a97f	0.38410565
22	0xbdb255c9	-0.087077685
23	0xbf4663a2	-0.7749578
24	0xbeec76aa	-0.46184283
25	0xbecd72dd	-0.40126696
26	0xbe520d84	-0.20512968
27	0xbf629a51	-0.8851672
28	0x3f321900	0.69569397
29	0x3c5211a0	0.012821585
30	0xbf494c50	-0.7863207
31	0x3f036b8d	0.51335984
32	0x3bea9e11	0.0071599563
33	0x3f5e5754	0.86852
34	0xbf221f91	-0.63329417
35	0x3f5dd172	0.86647713
36	0xbe84a651	-0.2590814
37	0x3f485d9d	0.7826784
38	0xbec5b3c1	-0.38613704
39	0xbed02cf0	-0.40659285
40	0xbf59c41f	-0.8506488
41	0xbe8d8ab5	-0.27644888
42	0x3f9689b9	1.176078
43	0x3f7493f4	0.9553826
44	0xbf7b4ea1	-0.98166853
45	0xbf041a29	-0.5160242
46	0xbeb456bb	-0.3522242
47	0xbdf13323	-0.11777332
48	0xbf77fd5e	-0.9687098
49	0x3fa47980	1.2849579
50	0xbf8ae823	-1.0852093
51	0xbe1c49ac	-0.15262479
52	0x3f13a6b1	0.57676226
53	0x3f34bc64	0.7059996
54	0x3ea89af0	0.32930708
55	0x3e8d1932	0.27558285
56	0x3ec094e0	0.37613583
57	0x3f2b3f5d	0.6689356
58	0xbf452170	-0.77004147
59	0xbf49fe68	-0.7890382
60	0xbe7d5c85	-0.24742325
61	0x3db2cf8c	0.08730993
62	0x3f6d2a6e	0.9264287
63	0x3fb2c8ac	1.396749
64	0x3eb32813	0.34991512
65	0xbf542b83	-0.82878894
66	0x3f84c00d	1.0371109
67	0xbedd11e3	-0.4317771
68	0xbd30191b	-0.042992692
69	0x3f12e361	0.573782
70	0x3efa93f6	0.4894101
71	0x3f36e278	0.71439314
72	0x3f5e4cb6	0.868358
73	0xbf8d039d	-1.1016728
74	0xbe201a11	-0.15634944
75	0x3f0fa1f0	0.5610647
76	0x3ee98ae4	0.45613778
77	0xbebfd9ea	-0.37470943
78	0x3f8bb853	1.0915626
79	0xbeb7a293	-0.35866222
80	0x3ca02f59	0.019553827
81	0xbfab1daa	-1.3368428
82	0x3bd79b0f	0.0065797637
83	0xbfd7816b	-1.683637
84	0x3f276071	0.6538153
85	0x3ed699a9	0.41914108
86	0x3df13bb6	0.11778967
87	0xbd2ca8c4	-0.042153135
88	0xbf36216b	-0.7114474
89	0x3ed390eb	0.413215
90	0x3eb205c5	0.34770027
91	0xbf305506	-0.68879735
92	0x40186feb	2.381831
93	0xbf6fb726	-0.9363884
94	0xbe3d22a1	-0.18470241
95	0xbf14fe6b	-0.5820071
96	0x3f54ac58	0.83075476
97	0xbf1db4c1	-0.61603934
98	0x3ebe7b80	0.37203598
99	0x3f313717	0.69224685
100	0xbf5bfd1c	-0.8593309
101	0xbdaceb54	-0.08443323
102	0x3f7d638d	0.9898003
103	0x3f4ecb1e	0.8077868
104	0xbdc90614	-0.098156124
105	0x3ede3e57	0.43406937
106	0x3f761ec2	0.9614068
107	0xbf2d8f63	-0.67796916
108	0xbf6f020b	-0.9336249
109	0xbf056dd1	-0.5212069
110	0xbf996e95	-1.1986872
111	0xbe98ebb9	-0.29867342
112	0xbebafc81	-0.3652077
113	0xbd6720b8	-0.056427687
114	0x3ec81576	0.39078873
115	0x3f7d19ce	0.988675
116	0x3f4fa739	0.81114537
117	0xbe8971fe	-0.26844782
118	0x3f96e21e	1.1787755
119	0xbff772cd	-1.933191
120	0x3f8d212d	1.102575
121	0x3eba96fa	0.3644331
122	0xbf00b277	-0.50272316
123	0xbe19012c	-0.14941853
124	0x3f2c8121	0.67384535
125	0xbed8674e	-0.42266315
126	0xbf4b3fce	-0.79394233
127	0xbcbd4a80	-0.023106813
128	0xbe3078ae	-0.17233536
129	0xbf19e303	-0.6011202
130	0x3d65616a	0.056001104
131	0x3edd6a62	0.43245226
132	0xbe076f5c	-0.13226074
133	0x3f19a299	0.6001373
134	0xbdd97080	-0.10617161
135	0xbe01ee58	-0.12688577
136	0x3fe27b23	1.7693828
137	0xbe03dec8	-0.12877953
138	0x3f359aee	0.7093953
139	0xbf864c9b	-1.0492128
140	0x3dae48c1	0.085099705
141	0x3e5051e4	0.20343739
142	0xbf0c3afd	-0.5477751
143	0xbf2de10c	-0.6792152
144	0x3eee7919	0.46576765
145	0xbfa0c29d	-1.2559391
146	0x3f5e8b70	0.86931515
147	0xbf91acc4	-1.1380849
148	0xc00fd4af	-2.2473562
149	0xbe8649eb	-0.2622827
150	0x3f02b9ed	0.5106495
151	0xbe03dd5d	-0.12877412
152	0x3f1cd286	0.61258733
153	0x3f9db8a1	1.2321969
154	0xbceda454	-0.029009022
155	0x3f713472	0.9422065
156	0xbf2cbf1d	-0.67479116
157	0x3f7aa1a4	0.97902894
158	0x3f84c9f6	1.0374134
159	0x3f668007	0.90039104
160	0xbf56b9f4	-0.8387749
161	0x3ed1f7cc	0.41009367
162	0xbf96864c	-1.1759734
163	0x3f2c0150	0.671895
164	0xbf9c567e	-1.2213895
165	0xbf77774d	-0.96666414
166	0xbe3a22c6	-0.18177328
167	0x3ed543e5	0.41653362
168	0x3e636fca	0.22210613
169	0x3e5a43ce	0.21314928
170	0xbe77460f	-0.24147819
171	0x3f97a318	1.1846647
172	0x3f884be7	1.0648164
173	0x3f868660	1.0509758
174	0x3e201953	0.1563466
175	0x3e0a7fd3	0.13525324
176	0xbf09180d	-0.53552324
177	0x3fb027e0	1.3762169
178	0x3f08f8fc	0.5350492
179	0xbeb00890	-0.34381533
180	0x3f63c62d	0.8897427
181	0x3e77a211	0.24182917
182	0x3f0a6e75	0.54074794
183	0xbf4eac58	-0.80731726
184	0x3efa80ff	0.4892654
185	0xbf77e99f	-0.9684085
186	0x3e981c26	0.29708976
187	0xbf8cd5ff	-1.1002806
188	0xbdc1d8ab	-0.09465154
189	0x3f2cca6d	0.6749638
190	0xbf385a7f	-0.72013086
191	0x3f3edc2a	0.74554694
192	0xbf6e2cfb	-0.93037385
193	0xbe381614	-0.17977172
194	0xbdac8f6f	-0.08425795
195	0xbe19e193	-0.15027456
196	0xbdc20028	-0.09472686
197	0xbf179849	-0.59216744
198	0x3d32259c	0.0434929
199	0xbe0f16c8	-0.13973534
200	0xbee4cf21	-0.44689277
201	0x3f4ec850	0.807744
202	0xbf1d1cf2	-0.6137229
203	0x3f49a5ee	0.78768814
204	0xbf77eb09	-0.9684301
205	0x3f59a52f	0.85017675
206	0x3fa76690	1.3078175
207	0x3e6f9c97	0.23399578
208	0xbdc0b54d	-0.094095804
209	0xbebeb5c0	-0.3724804
210	0x3ee7c45c	0.45266998
211	0xbf031f59	-0.5121971
212	0x3e08d186	0.13361177
213	0x3f3e99fc	0.7445371
214	0x3f2253df	0.6340923
215	0xbe4049ce	-0.18778154
216	0x3f567f51	0.8378802
217	0x3ed18dda	0.40928537
218	0x3ee37e5a	0.44432336
219	0x3efd2e28	0.49449277
220	0xbf1bd4c0	-0.60871506
221	0x3e2cb217	0.16864811
222	0x3e33c265	0.17554624
223	0xbe14dfa4	-0.14538437
224	0xbe8c85f2	-0.27445942
225	0xbfbde0cf	-1.4834231
226	0x3f754b2f	0.95817846
227	0xbea64317	-0.3247306
228	0x3f44d5a9	0.7688852
229	0x3ee8c3a4	0.45461762
230	0x3f118515	0.5684369
231	0x3e8771cf	0.26454017
232	0x3d8e5723	0.06950214
233	0x3f391a72	0.7230598
234	0x3dcb5c8a	0.0992976
235	0xbf80145d	-1.0006214
236	0x3ef6937d	0.481594
237	0xbead6cb9	-0.3387201
238	0x3e1af9ed	0.15134402
239	0x3eda0e80	0.42589188
240	0x3f893f16	1.0722377
241	0xbfa80caf	-1.3128871
242	0x3bf0bb0e	0.0073465174
243	0x3d6c93de	0.057758205
244	0x3f38a553	0.72127265
245	0xbf1bbb8a	-0.60833037
246	0x3f3b7680	0.7322769
247	0x3f44a55d	0.76814824
248	0xbf1cfb7d	-0.6132124
249	0xbeb3baaa	-0.3510335
250	0xbecdf044	-0.4022237
251	0x3f005f4b	0.50145406
252	0xbdaf1e49	-0.08550698
253	0x3f3c729f	0.736124
254	0x3eb67732	0.35637814
255	0xbec7a0fb	-0.38990006

critic.2.bias f4 [256]
0	0x3e2a3957	0.16623436
1	0xbf3bcf4b	-0.7336318
2	0x3f1bff06	0.6093601
3	0xbe9ece59	-0.31016806
4	0x3ec55d5c	0.3854779
5	0x3eb4456d	0.35209218
6	0x3fb3eec0	1.4057236
7	0xbe7f81b5	-0.24951823
8	0x3ea5df6b	0.32397017
9	0xbe811850	-0.2521386
10	0xbc857c86	-0.016294729
11	0xbd739b10	-0.05947405
12	0x3f13a327	0.57670826
13	0xbea31e31	-0.31858972
14	0x3e4b56d5	0.19857343
15	0xbf4861b0	-0.7827406
16	0xbb8bca80	-0.0042660832
17	0x3f887008	1.0659189
18	0x3ea61ae8	0.32442403
19	0xbe447c56	-0.19188055
20	0x3efea808	0.49737573
21	0x3e05e1de	0.13074443
22	0x3cc8df9b	0.024520686
23	0xbd21b544	-0.03947951
24	0x3e831e11	0.25608876
25	0xbee281e5	-0.44239727
26	0x3ea33d90	0.31882906
27	0xbd82a46c	-0.06379017
28	0xbddcc846	-0.107803866
29	0xbd257cb7	-0.04040214
30	0x3f00ae30	0.5026579
31	0xbf40333c	-0.7507818
32	0x3e7ccec0	0.24688244
33	0x3e6634b2	0.22481039
34	0xbe7516a1	-0.23934413
35	0x3db32fb1	0.08749331
36	0x3ed2b7d2	0.4115587
37	0x3f240949	0.6407667
38	0x3f005073	0.50122756
39	0xbf830410	-1.0235615
40	0x3dd3f694	0.103497654
41	0x3ee2bdcf	0.44285437
42	0x3fb3fdfc	1.4061885
43	0x3ebdc24e	0.37062305
44	0xbe95f4db	-0.29288372
45	0x3ea1f493	0.31631908
46	0xbef244dc	-0.4731816
47	0xbfeee848	-1.8664637
48	0xbd88e121	-0.06683565
49	0xbecddf71	-0.40209535
50	0x3f11400d	0.5673836
51	0xbed99d16	-0.4250266
52	0x3e63dee4	0.22252995
53	0xbf0868c7	-0.5328488
54	0xbd874f15	-0.066068806
55	0x3f4ec6bd	0.80772
56	0x3f47c19b	0.78029794
57	0xbf09a121	-0.5376149
58	0x3ed534dd	0.41641894
59	0xbe12ae95	-0.1432441
60	0xbf35d177	-0.71022743
61	0x3f1a7dbf	0.60348123
62	0xbe9cc894	-0.3062178
63	0x3f4ec452	0.8076831
64	0xbe9a66c7	-0.30156538
65	0xbe323f2f	-0.17406915
66	0xbdb3619f	-0.08758854
67	0x3e9ee3d0	0.31033182
68	0x4015a7f2	2.3383756
69	0xbf174c93	-0.5910122
70	0xbd93fe6e	-0.07226263
71	0xbf03cb5c	-0.51482177
72	0x3e9d5bf7	0.30734226
73	0x3f5ae0aa	0.8549906
74	0x3e3ca026	0.18420467
75	0x3e033d57	0.12816368
76	0xbed98889	-0.4248698
77	0x3f3b0b1f	0.73063844
78	0xbf072827	-0.5279564
79	0x3ec797a2	0.38982874
80	0xbf4db91e	-0.8036059
81	0xbd25ab87	-0.040446784
82	0xbfb9fdfb	-1.4530634
83	0xbf17379f	-0.59069246
84	0xbf8ccc06	-1.0999763
85	0x3e318c81	0.17338754
86	0xbf1cbc51	-0.6122485
87	0xbc1fa5fa	-0.009744162
88	0x3d9ac8e6	0.075578496
89	0x3e792d19	0.2433361
90	0xbcbd4fe3	-0.023109382
91	0x3f3eedda	0.7458168
92	0x3f1ab999	0.6043945
93	0x3e67e615	0.22646363
94	0xbee475df	-0.44621179
95	0x3ee3973e	0.44451326
96	0xbf1daa6a	-0.61588156
97	0xbf1b48f8	-0.60658216
98	0xbedacddf	-0.42735192
99	0xbf0401f1	-0.5156546
100	0xbf1c804b	-0.6113326
101	0xbe811476	-0.25210923
102	0xbf9b0a15	-1.2112452
103	0x3dc5b3a3	0.096534036
104	0x3fb19e01	1.3876344
105	0x3ec6ee3f	0.38853642
106	0x3e4072ec	0.18793839
107	0xbe4e7382	-0.2016125
108	0xbe242bf6	-0.16032395
109	0x3dc57408	0.09641272
110	0x3bdedc18	0.0068011396
111	0xbec044f5	-0.3755261
112	0x3fb372eb	1.4019445
113	0xbd227be2	-0.039668925
114	0x3e874e9d	0.26427165
115	0x3f222f26	0.6335319
116	0x3ede551b	0.43424305
117	0x3efa840a	0.48928863
118	0xbe4d78a0	-0.20065546
119	0x3db651d7	0.089023285
120	0xbd83e139	-0.06439442
121	0x3f2c5684	0.6731951
122	0xbd005ca9	-0.031338368
123	0x3e6c483c	0.2307443
124	0x3fc4b341	1.5367204
125	0xbd8e57ab	-0.06950315
126	0xbd2406e7	-0.040045645
127	0xbf9cce0e	-1.2250383
128	0xbf3ae3db	-0.7300393
129	0x3e90ddcb	0.28294215
130	0xbf72fbcd	-0.9491547
131	0x3fd8480e	1.6896989
132	0x3f624d17	0.8839888
133	0x3eeb821a	0.45997697
134	0x3f20ed84	0.6286242
135	0xbea5ea8c	-0.32405508
136	0x3f01d9d6	0.50723016
137	0xbf1666af	-0.5875043
138	0xbf248a45	-0.6427348
139	0xbecbb735	-0.39788213
140	0xbf5c34ba	-0.86017954
141	0xbfd40527	-1.6564072
142	0x3fb310cb	1.39895
143	0xbf4868f0	-0.7828512
144	0x3fa43105	1.282746
145	0x3e3a2184	0.18176848
146	0xbf798b07	-0.97477764
147	0x3f007351	0.5017596
148	0xbe78e621	-0.24306537
149	0xbef36af8	-0.47542548
150	0x3e623cec	0.22093552
151	0x3f585504	0.84504724
152	0x3f71e800	0.9449463
153	0xbd760207	-0.060060527
154	0xbf8d40d8	-1.1035414
155	0xbe4dbe3c	-0.200921
156	0x3e3b0082	0.18261912
157	0xbe035a02	-0.12827304
158	0x3e0d95d9	0.13826694
159	0xbebf4a86	-0.37361544
160	0x3d9b1dd9	0.07574052
161	0x3f5b9196	0.8576902
162	0x3f81eb48	1.0149927
163	0x3fe129a5	1.7590834
164	0xbe563f2e	-0.20922539
165	0xbea5a92a	-0.32355624
166	0x3f52c814	0.82336545
167	0x3e112c4a	0.14177051
168	0xbcd6c622	-0.026217524
169	0xbebd823e	-0.3701343
170	0x3f4337ab	0.7625682
171	0xbf93b992	-1.1541007
172	0xbdd3bc5c	-0.10338661
173	0xbf2b8e8b	-0.6701438
174	0xbecb03c2	-0.39651304
175	0x3e8d7846	0.27630824
176	0xbe96f8ed	-0.2948679
177	0xbf856b86	-1.0423439
178	0xbe42d0d8	-0.1902498
179	0xbec3359d	-0.3812684
180	0x3e37f935	0.17966159
181	0x3e48665f	0.19570301
182	0xbf84e2d7	-1.0381726
183	0xbea9091d	-0.33014765
184	0xbf92c55b	-1.1466478
185	0x3fe85ade	1.815273
186	0x40095783	2.1459663
187	0x3f3a25a6	0.72713697
188	0xbf35daf1	-0.71037203
189	0xbeda098f	-0.42585418
190	0x3e826662	0.25468737
191	0x3f7fe4a9	0.9995828
192	0x3f15e585	0.58553344
193	0xbeebd1ac	-0.46058404
194	0x3f6ff4ff	0.9373321
195	0x3e0e4170	0.1389215
196	0xbf0cea8f	-0.5504541
197	0x3e46198e	0.19345686
198	0xbed9ec8b	-0.4256328
199	0x3eef1238	0.46693587
200	0xbfafce16	-1.3734767
201	0xbe59343d	-0.21211334
202	0xbdb891e2	-0.090122
203	0xbe9eabb2	-0.30990368
204	0x3f20a8c5	0.6275752
205	0x3e64efb3	0.22357063
206	0x3e1ea291	0.15491702
207	0x3e510cbc	0.20415014
208	0xc010e8bc	-2.264205
209	0x3e88fc88	0.26755166
210	0x3f9828f5	1.1887499
211	0xbf670dfe	-0.90255725
212	0xbc264da6	-0.010150349
213	0xbe3cc7c3	-0.18435578
214	0xbcbaaab3	-0.022786474
215	0x3f073afe	0.5282439
216	0x3dba263d	0.090893246
217	0xbe000df1	-0.12505318
218	0x3f008943	0.50209445
219	0x3effc042	0.4995137
220	0x3e3f3bd4	0.18675166
221	0xbe923504	-0.28556073
222	0xbe36ff02	-0.17870715
223	0x3f4b3770	0.79381466
224	0xbf842117	-1.0322598
225	0x3f319f74	0.6938393
226	0x3e60782c	0.21920842
227	0xbf26775c	-0.6502588
228	0xbf12e7e1	-0.5738507
229	0x3e82f496	0.2557723
230	0xbf8b14ed	-1.0865761
231	0x3da21b6d	0.07915387
232	0xbe1d4a4b	-0.15360372
233	0x3eb738c4	0.35785496
234	0xbd1713c3	-0.03688408
235	0x3ef1ffc8	0.47265458
236	0xbd923c17	-0.071403675
237	0x3e44e704	0.1922875
238	0x3f6b5ffa	0.91943324
239	0xbef66467	-0.48123476
240	0xbeca4b69	-0.39510658
241	0x3e9608fa	0.29303724
242	0x3f6f2abe	0.93424594
243	0xbf123e33	-0.5712616
244	0x3e3e6982	0.18594936
245	0xbf7165e3	-0.9429609
246	0xbe00dc76	-0.12584099
247	0xbe9aa8e7	-0.30206987
248	0x3f9f32fa	1.2437432
249	0xbea92d20	-0.3304224
250	0x3e5ee90c	0.21768588
251	0xbe5f26db	-0.21792166
252	0xbeb474d3	-0.3524538
253	0x3f20c656	0.62802637
254	0xbed812f7	-0.4220197
255	0x3e3d6248	0.18494523

critic.4.weight f4 [1, 256]
0	0x40e96a2f	7.294212
1	0xc0eab84a	-7.334996
2	0x41098f0a	8.597422
3	0xc0434603	-3.0511482
4	0x403bb55b	2.932944
5	0x3ffcd16c	1.975141
6	0x4133d98a	11.24061
7	0x40b8cd0c	5.77503
8	0xc089ef24	-4.310442
9	0xc117348e	-9.450331
10	0x406cd962	3.700768
11	0xc0ecb84d	-7.3974977
12	0x413a1dd0	11.632278
13	0xc11e42a3	-9.891269
14	0xbfb7b878	-1.435317
15	0x4104c158	8.297203
16	0x405abfc0	3.4179535
17	0xc0310a0d	-2.7662385
18	0xbfd1c029	-1.6386768
19	0x417a95e4	15.661594
20	0xc0733a35	-3.8004277
21	0xc043fc3e	-3.0622706
22	0x4110d3c2	9.051699
23	0x401d14f5	2.454404
24	0xc13cc4c1	-11.798036
25	0x4104ac76	8.292105
26	0xbfa3944d	-1.2779633
27	0xc1028abf	-8.158874
28	0x41141b4f	9.256667
29	0xc0684cad	-3.62968
30	0x3fef3c6c	1.8690314
31	0x40e2d8ea	7.088979
32	0x410ae24e	8.68025
33	0x40402d8a	3.0027795
34	0xc1069ebe	-8.413755
35	0xc093cb7c	-4.6185894
36	0xbe58c999	-0.21170653
37	0x3f86d603	1.0534061
38	0x405e929b	3.477698
39	0xc125c7ea	-10.361307
40	0xc04778aa	-3.1167397
41	0x409c1145	4.877108
42	0x40fffddd	7.999739
43	0x404896e1	3.134209
44	0xc05eadca	-3.4793572
45	0x41370cda	11.440638
46	0x4067fc31	3.6247675
47	0xc10ce695	-8.806294
48	0x406b831a	3.6798768
49	0x4186ecfe	16.865719
50	0x400745dd	2.113639
51	0xc102a642	-8.16559
52	0x4100562e	8.02104
53	0xc126079b	-10.376857
54	0x410d057c	8.813839
55	0x405f541b	3.4895084
56	0x403d3254	2.9561968
57	0xc12d9513	-10.848895
58	0xc005b92d	-2.0894272
59	0xc0e3c9f2	-7.1184015
60	0x3ffa147b	1.95375
61	0x40e5f3f0	7.1860275
62	0xc10bbe43	-8.733951
63	0x4042dd13	3.0447433
64	0xc0434a5d	-3.0514138
65	0x41732e0f	15.198745
66	0xc0fd1347	-7.908603
67	0x4009a0c0	2.1504364
68	0x411636e6	9.388403
69	0xc03d5526	-2.958322
70	0x41032d3d	8.1985445
71	0x3ff50cf7	1.9144582
72	0x3fc2a791	1.5207387
73	0x410a9a19	8.6626215
74	0x40562127	3.3457735
75	0xc0354989	-2.8326132
76	0x400fb1f1	2.2452357
77	0x40f71126	7.7208433
78	0x4131e57c	11.118526
79	0xc004ea05	-2.0767834
80	0x40144d76	2.3172278
81	0xc06f4f03	-3.7391975
82	0xbff43b8c	-1.9080672
83	0x413d06f7	11.8142
84	0xc0fbf68c	-7.873846
85	0xc0270cd0	-2.610157
86	0x412d9daf	10.850997
87	0xc11d5c78	-9.835075
88	0xc1012b09	-8.073007
89	0xc1058b73	-8.346545
90	0x4108169b	8.505519
91	0x4023bd5f	2.5584333
92	0xbf9729af	-1.1809596
93	0xc11c78f3	-9.779529
94	0x4105cceb	8.362529
95	0x402af6d3	2.671315
96	0x3f519855	0.81873065
97	0xc10939b5	-8.576589
98	0xc063c609	-3.558962
99	0xc05b2f62	-3.424767
100	0x40a6f141	5.21695
101	0xc103f033	-8.246142
102	0xc19fb77f	-19.964598
103	0x41079509	8.473886
104	0x40ef9856	7.4873457
105	0x40103877	2.2534463
106	0x404c7188	3.1944294
107	0xc10be6b6	-8.743826
108	0x40eb9532	7.3619623
109	0xc0023430	-2.0344353
110	0xc10986e0	-8.595428
111	0xc03adb66	-2.919641
112	0x40e2c6dc	7.086775
113	0xc0589752	-3.3842359
114	0xbfe2e323	-1.7725567
115	0x41182c69	9.510842
116	0x411c4a76	9.768179
117	0x40f3fd38	7.6246605
118	0xc0337aa7	-2.804361
119	0xbfbd1324	-1.4771466
120	0x410cf95e	8.810881
121	0x413c2056	11.7578945
122	0x40a8dacc	5.2767086
123	0x411051b4	9.019947
124	0x41060641	8.376527
125	0xc0647a33	-3.5699584
126	0xc1114cd0	-9.081253
127	0xc0e42678	-7.129696
128	0x40dd576d	6.916922
129	0x4052f642	3.2962804
130	0x4109274c	8.572094
131	0x412cfc32	10.811571
132	0x40518125	3.2735074
133	0x40f3831d	7.609755
134	0x40fbf37c	7.873472
135	0xc052d462	-3.2942128
136	0x40190fb3	2.3915832
137	0xc0553db9	-3.3318923
138	0xc1004a7e	-8.018187
139	0xc107ca3c	-8.486874
140	0xc0d4679c	-6.6376476
141	0xc02b01e4	-2.6719904
142	0x407e8ac8	3.9772205
143	0xc1041fa7	-8.257728
144	0xc062b042	-3.542008
145	0x411aab27	9.666785
146	0xc0f9dda8	-7.8083076
147	0x4052fd64	3.2967157
148	0x406acb86	3.668672
149	0xc05507f4	-3.3286104
150	0xc1201a10	-10.006363
151	0x40eeb216	7.459239
152	0x40c974ed	6.295523
153	0x418c4d2a	17.537678
154	0xc0ef620e	-7.4807196
155	0x40717577	3.7727945
156	0xc06ec178	-3.7305584
157	0x406ef5d0	3.7337532
158	0xc06d5a03	-3.7086189
159	0x41056b74	8.338734
160	0xc0fe1bf2	-7.9409113
161	0x410275f3	8.153796
162	0x40e3ed06	7.1226835
163	0x40e51286	7.158511
164	0xc05419c1	-3.314072
165	0xbfdaa36a	-1.708112
166	0x40bcfd46	5.905917
167	0x406b23d8	3.6740627
168	0x406b3bbe	3.6755214
169	0x40a4e430	5.152855
170	0x41095fe0	8.585907
171	0x40f53296	7.662425
172	0xc02ffaac	-2.7496748
173	0xc0f58482	-7.6724253
174	0xc0108873	-2.2583282
175	0x4085a7e7	4.176746
176	0xbfb5b5db	-1.4196123
177	0xbfb86ebb	-1.4408792
178	0x40f81346	7.7523527
179	0xc04abcf7	-3.1677835
180	0x40640542	3.562821
181	0xc127ee0a	-10.495615
182	0xc1782592	-15.509172
183	0x4122fd9a	10.186914
184	0xc0fe7505	-7.9517846
185	0x40f72d40	7.7242737
186	0x41015e46	8.085516
187	0x4139a02e	11.601606
188	0xbf1884d7	-0.595777
189	0x3ec12df6	0.37730378
190	0x410562ab	8.336589
191	0x411eb4dc	9.919155
192	0xc11ca02f	-9.789107
193	0xc00301ff	-2.0469968
194	0xbfb3541f	-1.4010047
195	0x409e9ba1	4.9564977
196	0xc045158e	-3.0794406
197	0x40435614	3.0521288
198	0xbf36ff23	-0.7148306
199	0x3fbcf2a4	1.4761548
200	0xc00ecaca	-2.2311273
201	0xc057ef0b	-3.373965
202	0xc1044e0d	-8.269055
203	0xc033ba32	-2.8082395
204	0xc18a8dbf	-17.319212
205	0xc0f7808d	-7.734442
206	0x408d072e	4.4071264
207	0xc103fed2	-8.249712
208	0xc110d1de	-9.051237
209	0x3dbf92d6	0.093541786
210	0xc187954a	-16.947895
211	0xc1854ac1	-16.6615
212	0xbfd7450b	-1.6817945
213	0x3fd848fa	1.6897271
214	0x4103ff27	8.249793
215	0xc0e5740e	-7.170417
216	0xc02d6044	-2.7090006
217	0xbfbcdd0d	-1.4754959
218	0xc1272988	-10.447639
219	0x40d0680d	6.5127015
220	0x40d4e7d0	6.6532974
221	0x40cb80e3	6.3594832
222	0xc05d9890	-3.4624367
223	0x414ccd33	12.800097
224	0x415c347c	13.762814
225	0x412d81f9	10.844232
226	0xc1103589	-9.01307
227	0xc10a4e4e	-8.644117
228	0x40951ba9	4.6596265
229	0xc0329477	-2.7903116
230	0xc13ead12	-11.9172535
231	0xc10c4faa	-8.769449
232	0xc04b92fd	-3.1808465
233	0xc11079f8	-9.029778
234	0x40f5001e	7.6562643
235	0xc092c951	-4.5870748
236	0x4119d47f	9.614379
237	0xc04c8450	-3.1955757
238	0x4033acc6	2.8074203
239	0xc0f058bd	-7.5108323
240	0xc01471d1	-2.3194468
241	0xbe241d97	-0.16026913
242	0x3e99b59a	0.30021363
243	0xc0523902	-3.2847295
244	0x405dee96	3.4676871
245	0xc06d79dd	-3.710563
246	0xc06b8c1e	-3.680427
247	0x40441317	3.0636652
248	0xc01b3c8e	-2.425571
249	0x40aca06e	5.3945837
250	0x403feee4	2.9989557
251	0xc03365a3	-2.8030784
252	0xc03d8c1a	-2.9616761
253	0x3ff368ba	1.9016335
254	0xbf8aab15	-1.083346
255	0x406d9103	3.7119758

actor_mean.0.weight f4 [256, 13]
0	0x3e888f2c	0.2667173
1	0xbed873b9	-0.4227579
2	0xbe340086	-0.17578325
3	0x3f89a1e5	1.0752531
4	0x3f0659da	0.5248085
5	0x3e04d5e4	0.12972218
6	0x3de737e0	0.11289954
7	0xbcfd1b26	-0.030896734
8	0xbf2318fa	-0.63709986
9	0xbe3f13b3	-0.18659858
10	0x3f09ec9b	0.53876656
11	0xbdcc64e3	-0.0998018
12	0x3c5048ba	0.012712652
13	0x3e941427	0.28921625
14	0x3da85d9e	0.08220981
15	0x3e72974d	0.23690529
16	0x3dd29027	0.10281401
17	0xbc31c3eb	-0.010849933
18	0xbeac87d8	-0.3369739
19	0x3ccf643b	0.025316348
20	0x3d8d5f55	0.06902949
21	0xbe8e3585	-0.27775207
22	0xbe13c437	-0.14430319
23	0xbe6fac8e	-0.23405668
24	0xbe2c1fa8	-0.16808951
25	0xbf211c8f	-0.629342
26	0xbed62645	-0.41826072
27	0x3db384b3	0.08765545
28	0xbf84cc5e	-1.0374868
29	0xbf8bfc02	-1.0936282
30	0xbf8760bd	-1.0576397
31	0xbf430607	-0.7618107
32	0x3d1d2525	0.038365502
33	0xbea84ec1	-0.32872584
34	0x3ea23535	0.3168122
35	0xbf109029	-0.5646997
36	0xbe81bbf5	-0.25338712
37	0xbe9a7291	-0.30165532
38	0xbe0221c3	-0.12708192
39	0xbe6e4899	-0.23269881
40	0xbe63a843	-0.22232156
41	0xbde5e2bf	-0.11224889
42	0x3d192075	0.03738447
43	0xbf5843ed	-0.84478647
44	0xbf2d0e50	-0.67599964
45	0x3e208474	0.15675527
46	0xbe5418ea	-0.20712629
47	0xbcce9e59	-0.02522199
48	0xbea6d090	-0.32580996
49	0xbe13493b	-0.14383404
50	0xbeb1748d	-0.34659234
51	0xbf5766e0	-0.8414135
52	0xbed4d5af	-0.41569278
53	0x3ee6f095	0.45105425
54	0xbe866b45	-0.26253715
55	0xbffabae0	-1.958828
56	0xbf7a1d8c	-0.97701335
57	0x3e9ec979	0.31013086
58	0x3dcc2bcb	0.0996929
59	0xbe7ee935	-0.24893649
60	0x3f14b680	0.5809097
61	0xbe71dd80	-0.23619652
62	0xbf0d5b54	-0.5521748
63	0xbec188cb	-0.37799677
64	0xbe6523c8	-0.2237693
65	0x3d7053ff	0.058673855
66	0x3e0de51b	0.13856928
67	0xbf139eed	-0.57664376
68	0xbf495fa8	-0.78661585
69	0xbee626a7	-0.44951364
70	0xbef27675	-0.47356
71	0x3c821cb7	0.015882833
72	0xbde6deb6	-0.112729475
73	0x3e755c4b	0.23960988
74	0xbed42090	-0.41431093
75	0xbf14ad77	-0.58077186
76	0x3ab41ccb	0.0013741491
77	0xbf4b1161	-0.79323393
78	0x3e791079	0.2432269
79	0x3ebcad54	0.3685099
80	0xbbf498fe	-0.007464527
81	0x3d603214	0.05473526
82	0x3e49c002	0.19702151
83	0x3db1a42e	0.08673893
84	0x3d675f43	0.056487333
85	0x3dd82926	0.105547234
86	0x3e923018	0.28552318
87	0x3e9c8092	0.3056684
88	0x3d9d7743	0.07688763
89	0x3e561b80	0.20908928
90	0x3ebe2e48	0.37144685
91	0x3dc967d8	0.0983426
92	0x3eb695f5	0.35661283
93	0x3f2f3bfd	0.6845091
94	0x3ef5c3f2	0.48001057
95	0x3f6f5f84	0.9350512
96	0x3f15d602	0.58529675
97	0xbda34cb3	-0.079736136
98	0x3e757652	0.23970917
99	0x3d6433ae	0.055713348
100	0x3e9864a5	0.29764286
101	0x3e9f32f9	0.31093577
102	0x3ef62bbe	0.48080248
103	0x3f93385b	1.1501573
104	0x3e145eb8	0.14489257
105	0x3dae7067	0.08517533
106	0x3e12598e	0.14291975
107	0xbef014a1	-0.4689074
108	0x3cec39d0	0.02883616
109	0xbcb70d61	-0.022345247
110	0x3c8afb7c	0.01696562
111	0xbe6d276e	-0.23159572
112	0xbe7d3b7e	-0.24729726
113	0xbc310cf3	-0.01080631
114	0xbe371be9	-0.1788174
115	0x3ce2bd9b	0.027678302
116	0xbe9d2eef	-0.3069987
117	0x3ed42ea8	0.41441846
118	0xbe5f2a5f	-0.21793507
119	0x3d8221e7	0.063541226
120	0x3fb3d9e9	1.4050876
121	0x3fd0e855	1.6320902
122	0x3f704366	0.9385284
123	0xbdaac493	-0.08338275
124	0x3e8a3083	0.26990137
125	0xbf29cf4d	-0.6633194
126	0xbd947324	-0.07248524
127	0x3f3f8c1d	0.7482317
128	0x3f05f24b	0.52322835
129	0x3f40f0d9	0.75367504
130	0x3db1ce18	0.086818874
131	0xbcf826db	-0.030291965
132	0xbe713365	-0.23554762
133	0x3e8f0abb	0.27937874
134	0xbe8dd4ff	-0.27701566
135	0x3e75e82d	0.2401435
136	0xbda982d3	-0.08276906
137	0x3e3be021	0.18347217
138	0x3d7749a9	0.060372982
139	0xbcd258cf	-0.025677113
140	0x3eac297a	0.33625394
141	0x3d7c6f70	0.061629713
142	0x3f22822d	0.6347988
143	0x3ee63c49	0.4496787
144	0x3d9fd2d0	0.07803881
145	0xbb2be3cc	-0.0026228307
146	0x3ea4895c	0.32136047
147	0x3f949eed	1.1611
148	0xbf464784	-0.77452874
149	0x3cc156e0	0.023600996
150	0x3f1d3509	0.6140905
151	0xbe54a600	-0.20766449
152	0xbd208935	-0.03919335
153	0x3e33f65a	0.17574444
154	0x3ebf161d	0.3732156
155	0xbefacb5d	-0.4898328
156	0xbe564e19	-0.2092823
157	0xbe60c8ec	-0.21951646
158	0x3e4ea5fa	0.20180503
159	0xbe8d7f2c	-0.27636087
160	0xbe8b84bb	-0.27249703
161	0xbe17fc29	-0.14842285
162	0x3c972239	0.018448936
163	0xbce5630d	-0.028001333
164	0xbe85edf8	-0.26158118
165	0xbeb2f21c	-0.3495034
166	0xbde0be4d	-0.10973797
167	0x3d13e488	0.036106616
168	0xbf3d610d	-0.7397621
169	0xbe47a6ac	-0.19497174
170	0xbecd6e48	-0.401232
171	0x3f366ff4	0.71264577
172	0x40069a4a	2.103167
173	0xbe83a536	-0.25711983
174	0xbe1fc13e	-0.1560106
175	0xbd67ae0e	-0.056562476
176	0x3d9c324a	0.076267794
177	0xbf497a46	-0.787022
178	0x3ede41f2	0.43409687
179	0x3f154c87	0.58319896
180	0x3e624fa1	0.22100689
181	0x3e9a8d82	0.30186087
182	0xbd8671a7	-0.06564646
183	0x3ded3bdc	0.11583683
184	0x3ec06c32	0.37582546
185	0xbe90601f	-0.28198335
186	0x3cb66efe	0.022269722
187	0x3e1cf396	0.15327296
188	0xbb270521	-0.0025485235
189	0xbe7f541f	-0.24934433
190	0xbe4b2ec8	-0.19842064
191	0xbe4e431b	-0.20142786
192	0xbe62393e	-0.22092149
193	0xbd8f09e6	-0.0698431
194	0xbebf679a	-0.3738373
195	0xbea57f01	-0.3232346
196	0x3ecae17b	0.39625153
197	0x3eae0674	0.33989298
198	0xbfd7f86d	-1.6872689
199	0xbead2a3e	-0.3382129
200	0x3f448f46	0.7678112
201	0x3c836058	0.016037151
202	0xbd123d2b	-0.035702866
203	0x3f10277f	0.56310266
204	0x3edb50d6	0.4283511
205	0xbf0fe1ad	-0.5620373
206	0xbdf9b693	-0.121930264
207	0xbdacbc01	-0.084342964
208	0x3e93c543	0.28861436
209	0xbe9bbb82	-0.30416495
210	0xbf2da4d0	-0.6782961
211	0x3ffa5810	1.9558125
212	0x3ee3facf	0.4452729
213	0x3ebb38d6	0.365668
214	0xbcd9f47a	-0.026605833
215	0x3d32770d	0.043570567
216	0xbf2b6318	-0.6694808
217	0xbf2e9a03	-0.68203753
218	0x3f37650e	0.7163857
219	0x3ed3389c	0.41254127
220	0x3e56ad40	0.20964527
221	0x3eb405ab	0.35160574
222	0x3e1b6a39	0.1517724
223	0xbf0f7fb2	-0.5605422
224	0x3e3db7ea	0.18527189
225	0x3e257cf5	0.16160949
226	0x3d585dc2	0.05282379
227	0xbd5e4edb	-0.05427442
228	0xbe457b14	-0.19285232
229	0x3e4cfffc	0.20019525
230	0x3e5984a8	0.2124201
231	0x3ebd54cb	0.36978754
232	0x3e6ccaad	0.2312419
233	0x3f7e2650	0.9927721
234	0xbe7d48ed	-0.2473485
235	0xbccbbed0	-0.02487126
236	0xbd9a8a35	-0.07545892
237	0x3f1acdd1	0.604703
238	0xbf02b39b	-0.51055306
239	0x3d9b00f6	0.07568543
240	0xbd058728	-0.0325996
241	0xbf07146b	-0.5276553
242	0xbea990df	-0.3311834
243	0xbe843ab6	-0.25826043
244	0x3ebcdfa9	0.3688939
245	0xbdca0eab	-0.09866079
246	0x3f479974	0.77968526
247	0x3f2c3edd	0.6728342
248	0x3efa6944	0.48908436
249	0xbe993e4f	-0.2993035
250	0xc02cf228	-2.70228
251	0x3fdb5005	1.7133795
252	0x3e12b565	0.14327009
253	0xbdb174c7	-0.08664852
254	0x3ef5a2df	0.47975823
255	0x3f2541cf	0.6455354

actor_mean.0.bias f4 [256]
0	0x3e11e819	0.14248694
1	0x3da31369	0.079626866
2	0x3dc7b9db	0.09752246
3	0x3dbf4a58	0.09340352
4	0xbd940b7c	-0.07228753
5	0x3d9d9984	0.076952964
6	0xbd4ae5b4	-0.04953547
7	0xbe155544	-0.14583308
8	0x3e0d7178	0.13812816
9	0xbd69ff22	-0.05712808
10	0xbe5a1878	-0.21298397
11	0xbce00b57	-0.027349157
12	0x3df1d0ef	0.11807429
13	0xbd13fc15	-0.036129076
14	0x3e05d0a0	0.13067865
15	0xbcbb3266	-0.02285118
16	0xbcc612a9	-0.02417882
17	0x3c61c991	0.013780967
18	0x3cfab586	0.030604135
19	0xbccf9522	-0.025339667
20	0x3d8fd8ab	0.07023748
21	0xbdef99b2	-0.11699237
22	0xbd94303c	-0.072357625
23	0x3b2706a3	0.0025486134
24	0x3e7e0b94	0.24809104
25	0x3cfb4f83	0.030677563
26	0xbe053b94	-0.13011009
27	0xbbd78378	-0.0065769516
28	0xbdc2fd1a	-0.095209315
29	0xbdad037f	-0.084479325
30	0x3e09ecc1	0.1346922
31	0xbce575e2	-0.028010312
32	0xbd5dfeb8	-0.054197997
33	0x3da71e6b	0.08160099
34	0x3d8875b7	0.06663077
35	0x3c5d14d2	0.0134937335
36	0x3ba94f5d	0.0051669315
37	0x3db60169	0.08886988
38	0xbdf97ba3	-0.12181785
39	0xba8c7561	-0.0010716134
40	0xbe19b92d	-0.15012045
41	0xbe3b7037	-0.18304525
42	0x3d9c4290	0.07629883
43	0xbe15966b	-0.14608161
44	0xbc9c9a4c	-0.019116543
45	0x3e3da057	0.18518196
46	0xbd1926ee	-0.037390642
47	0xbdb7bddd	-0.089717604
48	0x3da37d21	0.07982851
49	0x3e849acc	0.2589935
50	0xbd0c53d2	-0.034259625
51	0xbc83e0a6	-0.016098332
52	0xbe17c485	-0.1482106
53	0x3e132678	0.14370143
54	0xbc8ddf94	-0.017318524
55	0x3cc574ea	0.0241036
56	0xbd850b75	-0.06496326
57	0xbdacd159	-0.084383674
58	0xbdfc5883	-0.1232157
59	0x3d8b568f	0.06803619
60	0x3d0210df	0.03175437
61	0xbd4a768f	-0.049429473
62	0xbd493c90	-0.049130023
63	0x3e264aad	0.16239424
64	0x3d3c712f	0.046006378
65	0x3d1ec833	0.038765144
66	0xbda7759b	-0.08176728
67	0xbd2cec34	-0.04221745
68	0x3c1a7a35	0.0094285505
69	0xbd3642db	-0.044497352
70	0xbb155e6f	-0.0022791883
71	0xbe143995	-0.14475091
72	0xbe29aa06	-0.16568765
73	0xbdd981b2	-0.106204405
74	0x3dc2f2e7	0.09518986
75	0x3b33219c	0.0027333265
76	0xbda94e32	-0.08266868
77	0x3e0aa641	0.13539983
78	0xbdccf97c	-0.10008523
79	0xbba697f6	-0.005084033
80	0xbdb3c400	-0.087776184
81	0x3c22add4	0.009929139
82	0x3d7141db	0.058900695
83	0xbd616098	-0.05502376
84	0xbe32675c	-0.17422241
85	0xbd010fc9	-0.031509195
86	0x3e3a866f	0.18215345
87	0x3e1f01fd	0.15528102
88	0x3e58a957	0.21158348
89	0xbd29e8a5	-0.041481633
90	0x3d556fa7	0.052108433
91	0xbd7e0701	-0.0620184
92	0x3de19565	0.11014823
93	0xbd950b49	-0.07277543
94	0x3bfae77e	0.0076569906
95	0x3dc58bca	0.09645803
96	0xbb84dfe4	-0.00405501
97	0x3c0ec648	0.008714266
98	0xbd1311fa	-0.035905816
99	0x3dde13fb	0.10843655
100	0xbd6017b0	-0.05471009
101	0x3d92f6cf	0.07175981
102	0xbc4d6c3b	-0.012538011
103	0xbd3a651e	-0.04550659
104	0x3d93304a	0.07186945
105	0xbdf41272	-0.11917581
106	0xbdd99b25	-0.106252946
107	0x3e0851b0	0.13312411
108	0x3ce32474	0.027727343
109	0xbd14fb4a	-0.03637246
110	0xbca60776	-0.02026723
111	0xbde41213	-0.1113626
112	0x3e0d361a	0.1379017
113	0xbd54da54	-0.051966026
114	0xbd3cf498	-0.0461317
115	0x3d8d900e	0.06912242
116	0x3dbcfa5b	0.09227439
117	0xbda2f744	-0.079573184
118	0x3c9dd8d5	0.019268433
119	0xbd889f2d	-0.06670985
120	0xbc789cd6	-0.015174111
121	0xbdb769bd	-0.08955715
122	0xbba285f6	-0.004959817
123	0x3df839f3	0.12120428
124	0xbc7230b2	-0.014782118
125	0x3d6b5b5d	0.057460178
126	0xbda9ae96	-0.08285253
127	0xbe199a23	-0.15000205
128	0xbb34fc48	-0.0027616192
129	0x3d22f4f4	0.039784387
130	0xbd870e3d	-0.065945126
131	0xbe31cb63	-0.17362742
132	0xbe3b5b28	-0.18296492
133	0x3d1a9825	0.037742753
134	0x3c78261a	0.015145803
135	0x3d67a362	0.0565523
136	0x3d979dbb	0.074031316
137	0x3e146b12	0.14493969
138	0x3c757090	0.01498045
139	0xbe18eefb	-0.14934914
140	0xbd08ac1d	-0.033367265
141	0xbc025d62	-0.0079568345
142	0xbdb3b9ec	-0.08775696
143	0xbe304da7	-0.17217122
144	0x3cd79946	0.026318204
145	0xbe277dd1	-0.16356589
146	0x3dcffa2e	0.1015514
147	0x3b8b84e0	0.0042577833
148	0xbd3eb591	-0.046559874
149	0xbd9117d5	-0.07084624
150	0x3d753cad	0.059872318
151	0x3e20180e	0.15634176
152	0xbde4f66f	-0.11179816
153	0xbdcc676f	-0.09980666
154	0xbe773625	-0.24141748
155	0xbe87e59a	-0.2654236
156	0x3db41b6a	0.08794291
157	0x3cc374f0	0.023859471
158	0xbe33d97b	-0.17563431
159	0xbd8db1af	-0.06918656
160	0xba9527b2	-0.0011379628
161	0x3df5f998	0.12010497
162	0x3c67bf5f	0.0141447475
163	0xbd95fd46	-0.07323699
164	0x3d81133d	0.063024975
165	0xbba41df9	-0.005008456
166	0x3dea383b	0.11436506
167	0xbe3410e7	-0.17584573
168	0x3e2cb9e5	0.16867788
169	0x3dd22ed4	0.10262838
170	0x3e5dda7d	0.21665378
171	0xbcc710db	-0.02430003
172	0xbce8df69	-0.028426843
173	0x3e4c1ba6	0.19932422
174	0x3a2aa39b	0.00065093645
175	0xbd09999d	-0.033593763
176	0x3da97070	0.08273399
177	0xbcadd7d7	-0.021221085
178	0x3b70faca	0.0036770576
179	0xbd12b64c	-0.035818383
180	0x3e10a38e	0.14124891
181	0xbd1c02db	-0.03808866
182	0xbe51081e	-0.20413253
183	0xbd052084	-0.032501712
184	0xbc66ffd5	-0.014099081
185	0x3d7ee390	0.06222874
186	0xbe091285	-0.13385971
187	0xbe0593c3	-0.13044648
188	0x3d80428b	0.06262692
189	0xbe3f7f0c	-0.18700808
190	0x3da65293	0.081212185
191	0x3bdb6e78	0.0066965185
192	0x3d7a4b7e	0.06110715
193	0xbd55ff3f	-0.052245375
194	0x3d5b3f10	0.053526938
195	0xbabb5079	-0.001429095
196	0xbd3e27f0	-0.046424806
197	0xbde62a8f	-0.11238586
198	0xbd9406e2	-0.07227875
199	0xbe029974	-0.1275385
200	0xbc994cdd	-0.01871341
201	0x3d90a419	0.07062549
202	0xbd6ae76f	-0.05734962
203	0xbc77f24e	-0.0151334535
204	0xbdbd787c	-0.09251496
205	0xbd1b2198	-0.037873834
206	0x3d8b9600	0.068157196
207	0xbd8f055a	-0.069834426
208	0xbe484398	-0.19557035
209	0xbe0c73d6	-0.13716063
210	0xbd811685	-0.063031234
211	0xbd7faf61	-0.062423114
212	0xbe1a37cf	-0.15060352
213	0xbdd028a5	-0.10164002
214	0xbdee1e84	-0.11626914
215	0xbdbc5ce1	-0.09197403
216	0x3c7356e2	0.014852257
217	0x3bc80de6	0.0061051724
218	0x3d0bdcce	0.034146123
219	0x3de2a652	0.11066879
220	0xbe104242	-0.14087775
221	0xbe3537ca	-0.17697063
222	0x3d671ea2	0.056425698
223	0x3d98d775	0.0746297
224	0xbe385617	-0.1800159
225	0xbe24575e	-0.16048953
226	0x3e31123d	0.17292114
227	0xbc21f6eb	-0.00988553
228	0x3da26390	0.07929146
229	0xbdd5cca9	-0.104394265
230	0x3dc645c1	0.09681273
231	0xbcd72829	-0.026264267
232	0x3d8894f2	0.06669034
233	0x3d95dcb1	0.07317484
234	0x3cb2fa02	0.021847729
235	0x3d9bc729	0.07606346
236	0x3d3139b3	0.043267917
237	0x3dc8126e	0.0976914
238	0xbe4b315a	-0.19843045
239	0xbd9c3d46	-0.076288745
240	0x3d938b65	0.07204322
241	0xbceb014a	-0.028687138
242	0x3c9d5533	0.019205665
243	0x3caef980	0.021359205
244	0xbd44c4ea	-0.048039354
245	0xbdb50e4d	-0.08840618
246	0x3c91037e	0.01770186
247	0x3e1c99be	0.15293023
248	0x3d556e30	0.052107036
249	0xbe1df2b5	-0.15424617
250	0xbe00ace1	-0.12565948
251	0x3df48a9b	0.119404994
252	0x3dbfd9e2	0.0936773
253	0x3d0010ca	0.03126601
254	0xbe07b373	-0.13252048
255	0xbda6540f	-0.08121502
